…
2025-09-18 11:32:55,295 - mmseg - INFO - Use load_from_local loader
2025-09-18 11:32:55,487 - mmseg - INFO - Miss []
2025-09-18 11:32:55,493 - mmseg - INFO - Unexpected ['weights', 'norm.0.weight', 'norm.0.bias', 'norm.1.weight', 'norm.1.bias', 'norm.2.weight', 'norm.2.bias', 'norm.3.weight', 'norm.3.bias', 'heads.0.weight', 'heads.0.bias', 'heads.1.weight', 'heads.1.bias', 'heads.2.weight', 'heads.2.bias', 'heads.3.weight', 'heads.3.bias']
2025-09-18 11:32:55,498 - mmseg - INFO - UDANeck_DACS(
  (model): EncoderDecoder(
    (backbone): EfficientViM_M4(
      (patch_embed): Stem(
        (conv): Sequential(
          (0): ConvLayer2D(
            (conv): Conv2d(3, 28, kernel_size=(3, 3), stride=(2, 2), padding=(1, 1), bias=False)
            (norm): BatchNorm2d(28, eps=1e-05, momentum=0.1, affine=True, track_running_stats=True)
            (act): ReLU()
          )
          (1): ConvLayer2D(
            (conv): Conv2d(28, 56, kernel_size=(3, 3), stride=(2, 2), padding=(1, 1), bias=False)
            (norm): BatchNorm2d(56, eps=1e-05, momentum=0.1, affine=True, track_running_stats=True)
            (act): ReLU()
          )
          (2): ConvLayer2D(
            (conv): Conv2d(56, 112, kernel_size=(3, 3), stride=(2, 2), padding=(1, 1), bias=False)
            (norm): BatchNorm2d(112, eps=1e-05, momentum=0.1, affine=True, track_running_stats=True)
            (act): ReLU()
          )
          (3): ConvLayer2D(
            (conv): Conv2d(112, 224, kernel_size=(3, 3), stride=(2, 2), padding=(1, 1), bias=False)
            (norm): BatchNorm2d(224, eps=1e-05, momentum=0.1, affine=True, track_running_stats=True)
          )
        )
      )
      (stages): ModuleList(
        (0): EfficientViMStage(
          (blocks): ModuleList(
            (0): EfficientViMBlock(
              (mixer): HSMSSD(
                (BCdt_proj): ConvLayer1D(
                  (conv): Conv1d(224, 192, kernel_size=(1,), stride=(1,), bias=False)
                )
                (dw): ConvLayer2D(
                  (conv): Conv2d(192, 192, kernel_size=(3, 3), stride=(1, 1), padding=(1, 1), groups=192, bias=False)
                )
                (hz_proj): ConvLayer1D(
                  (conv): Conv1d(224, 448, kernel_size=(1,), stride=(1,), bias=False)
                )
                (out_proj): ConvLayer1D(
                  (conv): Conv1d(224, 224, kernel_size=(1,), stride=(1,), bias=False)
                )
                (act): SiLU()
              )
              (norm): LayerNorm1D()
              (dwconv1): ConvLayer2D(
                (conv): Conv2d(224, 224, kernel_size=(3, 3), stride=(1, 1), padding=(1, 1), groups=224, bias=False)
                (norm): BatchNorm2d(224, eps=1e-05, momentum=0.1, affine=True, track_running_stats=True)
              )
              (dwconv2): ConvLayer2D(
                (conv): Conv2d(224, 224, kernel_size=(3, 3), stride=(1, 1), padding=(1, 1), groups=224, bias=False)
                (norm): BatchNorm2d(224, eps=1e-05, momentum=0.1, affine=True, track_running_stats=True)
              )
              (ffn): FFN(
                (fc1): ConvLayer2D(
                  (conv): Conv2d(224, 896, kernel_size=(1, 1), stride=(1, 1), bias=False)
                  (norm): BatchNorm2d(896, eps=1e-05, momentum=0.1, affine=True, track_running_stats=True)
                  (act): ReLU()
                )
                (fc2): ConvLayer2D(
                  (conv): Conv2d(896, 224, kernel_size=(1, 1), stride=(1, 1), bias=False)
                  (norm): BatchNorm2d(224, eps=1e-05, momentum=0.1, affine=True, track_running_stats=True)
                )
              )
            )
            (1): EfficientViMBlock(
              (mixer): HSMSSD(
                (BCdt_proj): ConvLayer1D(
                  (conv): Conv1d(224, 192, kernel_size=(1,), stride=(1,), bias=False)
                )
                (dw): ConvLayer2D(
                  (conv): Conv2d(192, 192, kernel_size=(3, 3), stride=(1, 1), padding=(1, 1), groups=192, bias=False)
                )
                (hz_proj): ConvLayer1D(
                  (conv): Conv1d(224, 448, kernel_size=(1,), stride=(1,), bias=False)
                )
                (out_proj): ConvLayer1D(
                  (conv): Conv1d(224, 224, kernel_size=(1,), stride=(1,), bias=False)
                )
                (act): SiLU()
              )
              (norm): LayerNorm1D()
              (dwconv1): ConvLayer2D(
                (conv): Conv2d(224, 224, kernel_size=(3, 3), stride=(1, 1), padding=(1, 1), groups=224, bias=False)
                (norm): BatchNorm2d(224, eps=1e-05, momentum=0.1, affine=True, track_running_stats=True)
              )
              (dwconv2): ConvLayer2D(
                (conv): Conv2d(224, 224, kernel_size=(3, 3), stride=(1, 1), padding=(1, 1), groups=224, bias=False)
                (norm): BatchNorm2d(224, eps=1e-05, momentum=0.1, affine=True, track_running_stats=True)
              )
              (ffn): FFN(
                (fc1): ConvLayer2D(
                  (conv): Conv2d(224, 896, kernel_size=(1, 1), stride=(1, 1), bias=False)
                  (norm): BatchNorm2d(896, eps=1e-05, momentum=0.1, affine=True, track_running_stats=True)
                  (act): ReLU()
                )
                (fc2): ConvLayer2D(
                  (conv): Conv2d(896, 224, kernel_size=(1, 1), stride=(1, 1), bias=False)
                  (norm): BatchNorm2d(224, eps=1e-05, momentum=0.1, affine=True, track_running_stats=True)
                )
              )
            )
            (2): EfficientViMBlock(
              (mixer): HSMSSD(
                (BCdt_proj): ConvLayer1D(
                  (conv): Conv1d(224, 192, kernel_size=(1,), stride=(1,), bias=False)
                )
                (dw): ConvLayer2D(
                  (conv): Conv2d(192, 192, kernel_size=(3, 3), stride=(1, 1), padding=(1, 1), groups=192, bias=False)
                )
                (hz_proj): ConvLayer1D(
                  (conv): Conv1d(224, 448, kernel_size=(1,), stride=(1,), bias=False)
                )
                (out_proj): ConvLayer1D(
                  (conv): Conv1d(224, 224, kernel_size=(1,), stride=(1,), bias=False)
                )
                (act): SiLU()
              )
              (norm): LayerNorm1D()
              (dwconv1): ConvLayer2D(
                (conv): Conv2d(224, 224, kernel_size=(3, 3), stride=(1, 1), padding=(1, 1), groups=224, bias=False)
                (norm): BatchNorm2d(224, eps=1e-05, momentum=0.1, affine=True, track_running_stats=True)
              )
              (dwconv2): ConvLayer2D(
                (conv): Conv2d(224, 224, kernel_size=(3, 3), stride=(1, 1), padding=(1, 1), groups=224, bias=False)
                (norm): BatchNorm2d(224, eps=1e-05, momentum=0.1, affine=True, track_running_stats=True)
              )
              (ffn): FFN(
                (fc1): ConvLayer2D(
                  (conv): Conv2d(224, 896, kernel_size=(1, 1), stride=(1, 1), bias=False)
                  (norm): BatchNorm2d(896, eps=1e-05, momentum=0.1, affine=True, track_running_stats=True)
                  (act): ReLU()
                )
                (fc2): ConvLayer2D(
                  (conv): Conv2d(896, 224, kernel_size=(1, 1), stride=(1, 1), bias=False)
                  (norm): BatchNorm2d(224, eps=1e-05, momentum=0.1, affine=True, track_running_stats=True)
                )
              )
            )
          )
          (downsample): PatchMerging(
            (conv): Sequential(
              (0): ConvLayer2D(
                (conv): Conv2d(224, 1280, kernel_size=(1, 1), stride=(1, 1), bias=False)
                (norm): BatchNorm2d(1280, eps=1e-05, momentum=0.1, affine=True, track_running_stats=True)
                (act): ReLU()
              )
              (1): ConvLayer2D(
                (conv): Conv2d(1280, 1280, kernel_size=(3, 3), stride=(2, 2), padding=(1, 1), groups=1280, bias=False)
                (norm): BatchNorm2d(1280, eps=1e-05, momentum=0.1, affine=True, track_running_stats=True)
                (act): ReLU()
              )
              (2): SEModule(
                (fc1): Conv2d(1280, 320, kernel_size=(1, 1), stride=(1, 1))
                (bn): Identity()
                (act): ReLU(inplace=True)
                (fc2): Conv2d(320, 1280, kernel_size=(1, 1), stride=(1, 1))
                (gate): Sigmoid()
              )
              (3): ConvLayer2D(
                (conv): Conv2d(1280, 320, kernel_size=(1, 1), stride=(1, 1), bias=False)
                (norm): BatchNorm2d(320, eps=1e-05, momentum=0.1, affine=True, track_running_stats=True)
              )
            )
            (dwconv1): ConvLayer2D(
              (conv): Conv2d(224, 224, kernel_size=(3, 3), stride=(1, 1), padding=(1, 1), groups=224, bias=False)
              (norm): BatchNorm2d(224, eps=1e-05, momentum=0.1, affine=True, track_running_stats=True)
            )
            (dwconv2): ConvLayer2D(
              (conv): Conv2d(320, 320, kernel_size=(3, 3), stride=(1, 1), padding=(1, 1), groups=320, bias=False)
              (norm): BatchNorm2d(320, eps=1e-05, momentum=0.1, affine=True, track_running_stats=True)
            )
          )
        )
        (1): EfficientViMStage(
          (blocks): ModuleList(
            (0): EfficientViMBlock(
              (mixer): HSMSSD(
                (BCdt_proj): ConvLayer1D(
                  (conv): Conv1d(320, 96, kernel_size=(1,), stride=(1,), bias=False)
                )
                (dw): ConvLayer2D(
                  (conv): Conv2d(96, 96, kernel_size=(3, 3), stride=(1, 1), padding=(1, 1), groups=96, bias=False)
                )
                (hz_proj): ConvLayer1D(
                  (conv): Conv1d(320, 640, kernel_size=(1,), stride=(1,), bias=False)
                )
                (out_proj): ConvLayer1D(
                  (conv): Conv1d(320, 320, kernel_size=(1,), stride=(1,), bias=False)
                )
                (act): SiLU()
              )
              (norm): LayerNorm1D()
              (dwconv1): ConvLayer2D(
                (conv): Conv2d(320, 320, kernel_size=(3, 3), stride=(1, 1), padding=(1, 1), groups=320, bias=False)
                (norm): BatchNorm2d(320, eps=1e-05, momentum=0.1, affine=True, track_running_stats=True)
              )
              (dwconv2): ConvLayer2D(
                (conv): Conv2d(320, 320, kernel_size=(3, 3), stride=(1, 1), padding=(1, 1), groups=320, bias=False)
                (norm): BatchNorm2d(320, eps=1e-05, momentum=0.1, affine=True, track_running_stats=True)
              )
              (ffn): FFN(
                (fc1): ConvLayer2D(
                  (conv): Conv2d(320, 1280, kernel_size=(1, 1), stride=(1, 1), bias=False)
                  (norm): BatchNorm2d(1280, eps=1e-05, momentum=0.1, affine=True, track_running_stats=True)
                  (act): ReLU()
                )
                (fc2): ConvLayer2D(
                  (conv): Conv2d(1280, 320, kernel_size=(1, 1), stride=(1, 1), bias=False)
                  (norm): BatchNorm2d(320, eps=1e-05, momentum=0.1, affine=True, track_running_stats=True)
                )
              )
            )
            (1): EfficientViMBlock(
              (mixer): HSMSSD(
                (BCdt_proj): ConvLayer1D(
                  (conv): Conv1d(320, 96, kernel_size=(1,), stride=(1,), bias=False)
                )
                (dw): ConvLayer2D(
                  (conv): Conv2d(96, 96, kernel_size=(3, 3), stride=(1, 1), padding=(1, 1), groups=96, bias=False)
                )
                (hz_proj): ConvLayer1D(
                  (conv): Conv1d(320, 640, kernel_size=(1,), stride=(1,), bias=False)
                )
                (out_proj): ConvLayer1D(
                  (conv): Conv1d(320, 320, kernel_size=(1,), stride=(1,), bias=False)
                )
                (act): SiLU()
              )
              (norm): LayerNorm1D()
              (dwconv1): ConvLayer2D(
                (conv): Conv2d(320, 320, kernel_size=(3, 3), stride=(1, 1), padding=(1, 1), groups=320, bias=False)
                (norm): BatchNorm2d(320, eps=1e-05, momentum=0.1, affine=True, track_running_stats=True)
              )
              (dwconv2): ConvLayer2D(
                (conv): Conv2d(320, 320, kernel_size=(3, 3), stride=(1, 1), padding=(1, 1), groups=320, bias=False)
                (norm): BatchNorm2d(320, eps=1e-05, momentum=0.1, affine=True, track_running_stats=True)
              )
              (ffn): FFN(
                (fc1): ConvLayer2D(
                  (conv): Conv2d(320, 1280, kernel_size=(1, 1), stride=(1, 1), bias=False)
                  (norm): BatchNorm2d(1280, eps=1e-05, momentum=0.1, affine=True, track_running_stats=True)
                  (act): ReLU()
                )
                (fc2): ConvLayer2D(
                  (conv): Conv2d(1280, 320, kernel_size=(1, 1), stride=(1, 1), bias=False)
                  (norm): BatchNorm2d(320, eps=1e-05, momentum=0.1, affine=True, track_running_stats=True)
                )
              )
            )
            (2): EfficientViMBlock(
              (mixer): HSMSSD(
                (BCdt_proj): ConvLayer1D(
                  (conv): Conv1d(320, 96, kernel_size=(1,), stride=(1,), bias=False)
                )
                (dw): ConvLayer2D(
                  (conv): Conv2d(96, 96, kernel_size=(3, 3), stride=(1, 1), padding=(1, 1), groups=96, bias=False)
                )
                (hz_proj): ConvLayer1D(
                  (conv): Conv1d(320, 640, kernel_size=(1,), stride=(1,), bias=False)
                )
                (out_proj): ConvLayer1D(
                  (conv): Conv1d(320, 320, kernel_size=(1,), stride=(1,), bias=False)
                )
                (act): SiLU()
              )
              (norm): LayerNorm1D()
              (dwconv1): ConvLayer2D(
                (conv): Conv2d(320, 320, kernel_size=(3, 3), stride=(1, 1), padding=(1, 1), groups=320, bias=False)
                (norm): BatchNorm2d(320, eps=1e-05, momentum=0.1, affine=True, track_running_stats=True)
              )
              (dwconv2): ConvLayer2D(
                (conv): Conv2d(320, 320, kernel_size=(3, 3), stride=(1, 1), padding=(1, 1), groups=320, bias=False)
                (norm): BatchNorm2d(320, eps=1e-05, momentum=0.1, affine=True, track_running_stats=True)
              )
              (ffn): FFN(
                (fc1): ConvLayer2D(
                  (conv): Conv2d(320, 1280, kernel_size=(1, 1), stride=(1, 1), bias=False)
                  (norm): BatchNorm2d(1280, eps=1e-05, momentum=0.1, affine=True, track_running_stats=True)
                  (act): ReLU()
                )
                (fc2): ConvLayer2D(
                  (conv): Conv2d(1280, 320, kernel_size=(1, 1), stride=(1, 1), bias=False)
                  (norm): BatchNorm2d(320, eps=1e-05, momentum=0.1, affine=True, track_running_stats=True)
                )
              )
            )
            (3): EfficientViMBlock(
              (mixer): HSMSSD(
                (BCdt_proj): ConvLayer1D(
                  (conv): Conv1d(320, 96, kernel_size=(1,), stride=(1,), bias=False)
                )
                (dw): ConvLayer2D(
                  (conv): Conv2d(96, 96, kernel_size=(3, 3), stride=(1, 1), padding=(1, 1), groups=96, bias=False)
                )
                (hz_proj): ConvLayer1D(
                  (conv): Conv1d(320, 640, kernel_size=(1,), stride=(1,), bias=False)
                )
                (out_proj): ConvLayer1D(
                  (conv): Conv1d(320, 320, kernel_size=(1,), stride=(1,), bias=False)
                )
                (act): SiLU()
              )
              (norm): LayerNorm1D()
              (dwconv1): ConvLayer2D(
                (conv): Conv2d(320, 320, kernel_size=(3, 3), stride=(1, 1), padding=(1, 1), groups=320, bias=False)
                (norm): BatchNorm2d(320, eps=1e-05, momentum=0.1, affine=True, track_running_stats=True)
              )
              (dwconv2): ConvLayer2D(
                (conv): Conv2d(320, 320, kernel_size=(3, 3), stride=(1, 1), padding=(1, 1), groups=320, bias=False)
                (norm): BatchNorm2d(320, eps=1e-05, momentum=0.1, affine=True, track_running_stats=True)
              )
              (ffn): FFN(
                (fc1): ConvLayer2D(
                  (conv): Conv2d(320, 1280, kernel_size=(1, 1), stride=(1, 1), bias=False)
                  (norm): BatchNorm2d(1280, eps=1e-05, momentum=0.1, affine=True, track_running_stats=True)
                  (act): ReLU()
                )
                (fc2): ConvLayer2D(
                  (conv): Conv2d(1280, 320, kernel_size=(1, 1), stride=(1, 1), bias=False)
                  (norm): BatchNorm2d(320, eps=1e-05, momentum=0.1, affine=True, track_running_stats=True)
                )
              )
            )
          )
          (downsample): PatchMerging(
            (conv): Sequential(
              (0): ConvLayer2D(
                (conv): Conv2d(320, 2048, kernel_size=(1, 1), stride=(1, 1), bias=False)
                (norm): BatchNorm2d(2048, eps=1e-05, momentum=0.1, affine=True, track_running_stats=True)
                (act): ReLU()
              )
              (1): ConvLayer2D(
                (conv): Conv2d(2048, 2048, kernel_size=(3, 3), stride=(2, 2), padding=(1, 1), groups=2048, bias=False)
                (norm): BatchNorm2d(2048, eps=1e-05, momentum=0.1, affine=True, track_running_stats=True)
                (act): ReLU()
              )
              (2): SEModule(
                (fc1): Conv2d(2048, 512, kernel_size=(1, 1), stride=(1, 1))
                (bn): Identity()
                (act): ReLU(inplace=True)
                (fc2): Conv2d(512, 2048, kernel_size=(1, 1), stride=(1, 1))
                (gate): Sigmoid()
              )
              (3): ConvLayer2D(
                (conv): Conv2d(2048, 512, kernel_size=(1, 1), stride=(1, 1), bias=False)
                (norm): BatchNorm2d(512, eps=1e-05, momentum=0.1, affine=True, track_running_stats=True)
              )
            )
            (dwconv1): ConvLayer2D(
              (conv): Conv2d(320, 320, kernel_size=(3, 3), stride=(1, 1), padding=(1, 1), groups=320, bias=False)
              (norm): BatchNorm2d(320, eps=1e-05, momentum=0.1, affine=True, track_running_stats=True)
            )
            (dwconv2): ConvLayer2D(
              (conv): Conv2d(512, 512, kernel_size=(3, 3), stride=(1, 1), padding=(1, 1), groups=512, bias=False)
              (norm): BatchNorm2d(512, eps=1e-05, momentum=0.1, affine=True, track_running_stats=True)
            )
          )
        )
        (2): EfficientViMStage(
          (blocks): ModuleList(
            (0): EfficientViMBlock(
              (mixer): HSMSSD(
                (BCdt_proj): ConvLayer1D(
                  (conv): Conv1d(512, 48, kernel_size=(1,), stride=(1,), bias=False)
                )
                (dw): ConvLayer2D(
                  (conv): Conv2d(48, 48, kernel_size=(3, 3), stride=(1, 1), padding=(1, 1), groups=48, bias=False)
                )
                (hz_proj): ConvLayer1D(
                  (conv): Conv1d(512, 1024, kernel_size=(1,), stride=(1,), bias=False)
                )
                (out_proj): ConvLayer1D(
                  (conv): Conv1d(512, 512, kernel_size=(1,), stride=(1,), bias=False)
                )
                (act): SiLU()
              )
              (norm): LayerNorm1D()
              (dwconv1): ConvLayer2D(
                (conv): Conv2d(512, 512, kernel_size=(3, 3), stride=(1, 1), padding=(1, 1), groups=512, bias=False)
                (norm): BatchNorm2d(512, eps=1e-05, momentum=0.1, affine=True, track_running_stats=True)
              )
              (dwconv2): ConvLayer2D(
                (conv): Conv2d(512, 512, kernel_size=(3, 3), stride=(1, 1), padding=(1, 1), groups=512, bias=False)
                (norm): BatchNorm2d(512, eps=1e-05, momentum=0.1, affine=True, track_running_stats=True)
              )
              (ffn): FFN(
                (fc1): ConvLayer2D(
                  (conv): Conv2d(512, 2048, kernel_size=(1, 1), stride=(1, 1), bias=False)
                  (norm): BatchNorm2d(2048, eps=1e-05, momentum=0.1, affine=True, track_running_stats=True)
                  (act): ReLU()
                )
                (fc2): ConvLayer2D(
                  (conv): Conv2d(2048, 512, kernel_size=(1, 1), stride=(1, 1), bias=False)
                  (norm): BatchNorm2d(512, eps=1e-05, momentum=0.1, affine=True, track_running_stats=True)
                )
              )
            )
            (1): EfficientViMBlock(
              (mixer): HSMSSD(
                (BCdt_proj): ConvLayer1D(
                  (conv): Conv1d(512, 48, kernel_size=(1,), stride=(1,), bias=False)
                )
                (dw): ConvLayer2D(
                  (conv): Conv2d(48, 48, kernel_size=(3, 3), stride=(1, 1), padding=(1, 1), groups=48, bias=False)
                )
                (hz_proj): ConvLayer1D(
                  (conv): Conv1d(512, 1024, kernel_size=(1,), stride=(1,), bias=False)
                )
                (out_proj): ConvLayer1D(
                  (conv): Conv1d(512, 512, kernel_size=(1,), stride=(1,), bias=False)
                )
                (act): SiLU()
              )
              (norm): LayerNorm1D()
              (dwconv1): ConvLayer2D(
                (conv): Conv2d(512, 512, kernel_size=(3, 3), stride=(1, 1), padding=(1, 1), groups=512, bias=False)
                (norm): BatchNorm2d(512, eps=1e-05, momentum=0.1, affine=True, track_running_stats=True)
              )
              (dwconv2): ConvLayer2D(
                (conv): Conv2d(512, 512, kernel_size=(3, 3), stride=(1, 1), padding=(1, 1), groups=512, bias=False)
                (norm): BatchNorm2d(512, eps=1e-05, momentum=0.1, affine=True, track_running_stats=True)
              )
              (ffn): FFN(
                (fc1): ConvLayer2D(
                  (conv): Conv2d(512, 2048, kernel_size=(1, 1), stride=(1, 1), bias=False)
                  (norm): BatchNorm2d(2048, eps=1e-05, momentum=0.1, affine=True, track_running_stats=True)
                  (act): ReLU()
                )
                (fc2): ConvLayer2D(
                  (conv): Conv2d(2048, 512, kernel_size=(1, 1), stride=(1, 1), bias=False)
                  (norm): BatchNorm2d(512, eps=1e-05, momentum=0.1, affine=True, track_running_stats=True)
                )
              )
            )
          )
        )
      )
    )
    init_cfg={'type': 'Pretrained', 'checkpoint': 'pretrained/EfficientViM_M4_e450.pth'}
    (neck): CrossDomainAttNeck(
      (uda_blocks): ModuleList(
        (0): UdaAttentionBlock(
          (norm1): LayerNorm((224,), eps=1e-05, elementwise_affine=True)
          (encoder): SelfAttentionBlock(
            (key_project): ConvModule(
              (conv): Conv2d(224, 448, kernel_size=(1, 1), stride=(1, 1), bias=False)
              (bn): BatchNorm2d(448, eps=1e-05, momentum=0.1, affine=True, track_running_stats=True)
              (activate): ReLU(inplace=True)
            )
            (query_project): ConvModule(
              (conv): Conv2d(224, 448, kernel_size=(1, 1), stride=(1, 1), bias=False)
              (bn): BatchNorm2d(448, eps=1e-05, momentum=0.1, affine=True, track_running_stats=True)
              (activate): ReLU(inplace=True)
            )
            (value_project): Conv2d(224, 224, kernel_size=(1, 1), stride=(1, 1))
            (output_project): ConvModule(
              (conv): Conv2d(224, 224, kernel_size=(1, 1), stride=(1, 1), bias=False)
              (bn): BatchNorm2d(224, eps=1e-05, momentum=0.1, affine=True, track_running_stats=True)
              (activate): ReLU(inplace=True)
            )
          )
          (decoder): SelfAttentionBlock(
            (key_project): ConvModule(
              (conv): Conv2d(224, 448, kernel_size=(1, 1), stride=(1, 1), bias=False)
              (bn): BatchNorm2d(448, eps=1e-05, momentum=0.1, affine=True, track_running_stats=True)
              (activate): ReLU(inplace=True)
            )
            (query_project): ConvModule(
              (conv): Conv2d(224, 448, kernel_size=(1, 1), stride=(1, 1), bias=False)
              (bn): BatchNorm2d(448, eps=1e-05, momentum=0.1, affine=True, track_running_stats=True)
              (activate): ReLU(inplace=True)
            )
            (value_project): Conv2d(224, 224, kernel_size=(1, 1), stride=(1, 1))
            (output_project): ConvModule(
              (conv): Conv2d(224, 224, kernel_size=(1, 1), stride=(1, 1), bias=False)
              (bn): BatchNorm2d(224, eps=1e-05, momentum=0.1, affine=True, track_running_stats=True)
              (activate): ReLU(inplace=True)
            )
          )
          (mix_att): SelfAttentionBlock(
            (key_project): ConvModule(
              (conv): Conv2d(224, 448, kernel_size=(1, 1), stride=(1, 1), bias=False)
              (bn): BatchNorm2d(448, eps=1e-05, momentum=0.1, affine=True, track_running_stats=True)
              (activate): ReLU(inplace=True)
            )
            (query_project): ConvModule(
              (conv): Conv2d(224, 448, kernel_size=(1, 1), stride=(1, 1), bias=False)
              (bn): BatchNorm2d(448, eps=1e-05, momentum=0.1, affine=True, track_running_stats=True)
              (activate): ReLU(inplace=True)
            )
            (value_project): Conv2d(224, 224, kernel_size=(1, 1), stride=(1, 1))
            (output_project): ConvModule(
              (conv): Conv2d(224, 224, kernel_size=(1, 1), stride=(1, 1), bias=False)
              (bn): BatchNorm2d(224, eps=1e-05, momentum=0.1, affine=True, track_running_stats=True)
              (activate): ReLU(inplace=True)
            )
          )
          (out_conv): ConvModule(
            (conv): Conv2d(448, 224, kernel_size=(1, 1), stride=(1, 1), bias=False)
            (bn): BatchNorm2d(224, eps=1e-05, momentum=0.1, affine=True, track_running_stats=True)
            (activate): ReLU(inplace=True)
          )
          (drop_path): DropPath()
        )
        (1): UdaAttentionBlock(
          (norm1): LayerNorm((320,), eps=1e-05, elementwise_affine=True)
          (encoder): SelfAttentionBlock(
            (key_project): ConvModule(
              (conv): Conv2d(320, 640, kernel_size=(1, 1), stride=(1, 1), bias=False)
              (bn): BatchNorm2d(640, eps=1e-05, momentum=0.1, affine=True, track_running_stats=True)
              (activate): ReLU(inplace=True)
            )
            (query_project): ConvModule(
              (conv): Conv2d(320, 640, kernel_size=(1, 1), stride=(1, 1), bias=False)
              (bn): BatchNorm2d(640, eps=1e-05, momentum=0.1, affine=True, track_running_stats=True)
              (activate): ReLU(inplace=True)
            )
            (value_project): Conv2d(320, 320, kernel_size=(1, 1), stride=(1, 1))
            (output_project): ConvModule(
              (conv): Conv2d(320, 320, kernel_size=(1, 1), stride=(1, 1), bias=False)
              (bn): BatchNorm2d(320, eps=1e-05, momentum=0.1, affine=True, track_running_stats=True)
              (activate): ReLU(inplace=True)
            )
          )
          (decoder): SelfAttentionBlock(
            (key_project): ConvModule(
              (conv): Conv2d(320, 640, kernel_size=(1, 1), stride=(1, 1), bias=False)
              (bn): BatchNorm2d(640, eps=1e-05, momentum=0.1, affine=True, track_running_stats=True)
              (activate): ReLU(inplace=True)
            )
            (query_project): ConvModule(
              (conv): Conv2d(320, 640, kernel_size=(1, 1), stride=(1, 1), bias=False)
              (bn): BatchNorm2d(640, eps=1e-05, momentum=0.1, affine=True, track_running_stats=True)
              (activate): ReLU(inplace=True)
            )
            (value_project): Conv2d(320, 320, kernel_size=(1, 1), stride=(1, 1))
            (output_project): ConvModule(
              (conv): Conv2d(320, 320, kernel_size=(1, 1), stride=(1, 1), bias=False)
              (bn): BatchNorm2d(320, eps=1e-05, momentum=0.1, affine=True, track_running_stats=True)
              (activate): ReLU(inplace=True)
            )
          )
          (mix_att): SelfAttentionBlock(
            (key_project): ConvModule(
              (conv): Conv2d(320, 640, kernel_size=(1, 1), stride=(1, 1), bias=False)
              (bn): BatchNorm2d(640, eps=1e-05, momentum=0.1, affine=True, track_running_stats=True)
              (activate): ReLU(inplace=True)
            )
            (query_project): ConvModule(
              (conv): Conv2d(320, 640, kernel_size=(1, 1), stride=(1, 1), bias=False)
              (bn): BatchNorm2d(640, eps=1e-05, momentum=0.1, affine=True, track_running_stats=True)
              (activate): ReLU(inplace=True)
            )
            (value_project): Conv2d(320, 320, kernel_size=(1, 1), stride=(1, 1))
            (output_project): ConvModule(
              (conv): Conv2d(320, 320, kernel_size=(1, 1), stride=(1, 1), bias=False)
              (bn): BatchNorm2d(320, eps=1e-05, momentum=0.1, affine=True, track_running_stats=True)
              (activate): ReLU(inplace=True)
            )
          )
          (out_conv): ConvModule(
            (conv): Conv2d(640, 320, kernel_size=(1, 1), stride=(1, 1), bias=False)
            (bn): BatchNorm2d(320, eps=1e-05, momentum=0.1, affine=True, track_running_stats=True)
            (activate): ReLU(inplace=True)
          )
          (drop_path): DropPath()
        )
        (2): UdaAttentionBlock(
          (norm1): LayerNorm((512,), eps=1e-05, elementwise_affine=True)
          (encoder): SelfAttentionBlock(
            (key_project): ConvModule(
              (conv): Conv2d(512, 1024, kernel_size=(1, 1), stride=(1, 1), bias=False)
              (bn): BatchNorm2d(1024, eps=1e-05, momentum=0.1, affine=True, track_running_stats=True)
              (activate): ReLU(inplace=True)
            )
            (query_project): ConvModule(
              (conv): Conv2d(512, 1024, kernel_size=(1, 1), stride=(1, 1), bias=False)
              (bn): BatchNorm2d(1024, eps=1e-05, momentum=0.1, affine=True, track_running_stats=True)
              (activate): ReLU(inplace=True)
            )
            (value_project): Conv2d(512, 512, kernel_size=(1, 1), stride=(1, 1))
            (output_project): ConvModule(
              (conv): Conv2d(512, 512, kernel_size=(1, 1), stride=(1, 1), bias=False)
              (bn): BatchNorm2d(512, eps=1e-05, momentum=0.1, affine=True, track_running_stats=True)
              (activate): ReLU(inplace=True)
            )
          )
          (decoder): SelfAttentionBlock(
            (key_project): ConvModule(
              (conv): Conv2d(512, 1024, kernel_size=(1, 1), stride=(1, 1), bias=False)
              (bn): BatchNorm2d(1024, eps=1e-05, momentum=0.1, affine=True, track_running_stats=True)
              (activate): ReLU(inplace=True)
            )
            (query_project): ConvModule(
              (conv): Conv2d(512, 1024, kernel_size=(1, 1), stride=(1, 1), bias=False)
              (bn): BatchNorm2d(1024, eps=1e-05, momentum=0.1, affine=True, track_running_stats=True)
              (activate): ReLU(inplace=True)
            )
            (value_project): Conv2d(512, 512, kernel_size=(1, 1), stride=(1, 1))
            (output_project): ConvModule(
              (conv): Conv2d(512, 512, kernel_size=(1, 1), stride=(1, 1), bias=False)
              (bn): BatchNorm2d(512, eps=1e-05, momentum=0.1, affine=True, track_running_stats=True)
              (activate): ReLU(inplace=True)
            )
          )
          (mix_att): SelfAttentionBlock(
            (key_project): ConvModule(
              (conv): Conv2d(512, 1024, kernel_size=(1, 1), stride=(1, 1), bias=False)
              (bn): BatchNorm2d(1024, eps=1e-05, momentum=0.1, affine=True, track_running_stats=True)
              (activate): ReLU(inplace=True)
            )
            (query_project): ConvModule(
              (conv): Conv2d(512, 1024, kernel_size=(1, 1), stride=(1, 1), bias=False)
              (bn): BatchNorm2d(1024, eps=1e-05, momentum=0.1, affine=True, track_running_stats=True)
              (activate): ReLU(inplace=True)
            )
            (value_project): Conv2d(512, 512, kernel_size=(1, 1), stride=(1, 1))
            (output_project): ConvModule(
              (conv): Conv2d(512, 512, kernel_size=(1, 1), stride=(1, 1), bias=False)
              (bn): BatchNorm2d(512, eps=1e-05, momentum=0.1, affine=True, track_running_stats=True)
              (activate): ReLU(inplace=True)
            )
          )
          (out_conv): ConvModule(
            (conv): Conv2d(1024, 512, kernel_size=(1, 1), stride=(1, 1), bias=False)
            (bn): BatchNorm2d(512, eps=1e-05, momentum=0.1, affine=True, track_running_stats=True)
            (activate): ReLU(inplace=True)
          )
          (drop_path): DropPath()
        )
      )
    )
    (decode_head): DAFormerHead(
      input_transform=multiple_select, ignore_index=255, align_corners=False
      (loss_decode): CrossEntropyLoss()
      (conv_seg): Conv2d(256, 19, kernel_size=(1, 1), stride=(1, 1))
      (dropout): Dropout2d(p=0.1, inplace=False)
      (embed_layers): ModuleDict(
        (0): MLP(
          (proj): Linear(in_features=224, out_features=256, bias=True)
        )
        (1): MLP(
          (proj): Linear(in_features=320, out_features=256, bias=True)
        )
        (2): MLP(
          (proj): Linear(in_features=512, out_features=256, bias=True)
        )
      )
      (fuse_layer): ASPPWrapper(
        (aspp_modules): DepthwiseSeparableASPPModule(
          (0): ConvModule(
            (conv): Conv2d(768, 256, kernel_size=(1, 1), stride=(1, 1), bias=False)
            (bn): BatchNorm2d(256, eps=1e-05, momentum=0.1, affine=True, track_running_stats=True)
            (activate): ReLU(inplace=True)
          )
          (1): DepthwiseSeparableConvModule(
            (depthwise_conv): ConvModule(
              (conv): Conv2d(768, 768, kernel_size=(3, 3), stride=(1, 1), padding=(6, 6), dilation=(6, 6), groups=768, bias=False)
              (bn): BatchNorm2d(768, eps=1e-05, momentum=0.1, affine=True, track_running_stats=True)
              (activate): ReLU(inplace=True)
            )
            (pointwise_conv): ConvModule(
              (conv): Conv2d(768, 256, kernel_size=(1, 1), stride=(1, 1), bias=False)
              (bn): BatchNorm2d(256, eps=1e-05, momentum=0.1, affine=True, track_running_stats=True)
              (activate): ReLU(inplace=True)
            )
          )
          (2): DepthwiseSeparableConvModule(
            (depthwise_conv): ConvModule(
              (conv): Conv2d(768, 768, kernel_size=(3, 3), stride=(1, 1), padding=(12, 12), dilation=(12, 12), groups=768, bias=False)
              (bn): BatchNorm2d(768, eps=1e-05, momentum=0.1, affine=True, track_running_stats=True)
              (activate): ReLU(inplace=True)
            )
            (pointwise_conv): ConvModule(
              (conv): Conv2d(768, 256, kernel_size=(1, 1), stride=(1, 1), bias=False)
              (bn): BatchNorm2d(256, eps=1e-05, momentum=0.1, affine=True, track_running_stats=True)
              (activate): ReLU(inplace=True)
            )
          )
          (3): DepthwiseSeparableConvModule(
            (depthwise_conv): ConvModule(
              (conv): Conv2d(768, 768, kernel_size=(3, 3), stride=(1, 1), padding=(18, 18), dilation=(18, 18), groups=768, bias=False)
              (bn): BatchNorm2d(768, eps=1e-05, momentum=0.1, affine=True, track_running_stats=True)
              (activate): ReLU(inplace=True)
            )
            (pointwise_conv): ConvModule(
              (conv): Conv2d(768, 256, kernel_size=(1, 1), stride=(1, 1), bias=False)
              (bn): BatchNorm2d(256, eps=1e-05, momentum=0.1, affine=True, track_running_stats=True)
              (activate): ReLU(inplace=True)
            )
          )
        )
        (bottleneck): ConvModule(
          (conv): Conv2d(1024, 256, kernel_size=(3, 3), stride=(1, 1), padding=(1, 1), bias=False)
          (bn): BatchNorm2d(256, eps=1e-05, momentum=0.1, affine=True, track_running_stats=True)
          (activate): ReLU(inplace=True)
        )
      )
    )
    init_cfg={'type': 'Normal', 'std': 0.01, 'override': {'name': 'conv_seg'}}
  )
  (ema_model): EncoderDecoder(
    (backbone): EfficientViM_M4(
      (patch_embed): Stem(
        (conv): Sequential(
          (0): ConvLayer2D(
            (conv): Conv2d(3, 28, kernel_size=(3, 3), stride=(2, 2), padding=(1, 1), bias=False)
            (norm): BatchNorm2d(28, eps=1e-05, momentum=0.1, affine=True, track_running_stats=True)
            (act): ReLU()
          )
          (1): ConvLayer2D(
            (conv): Conv2d(28, 56, kernel_size=(3, 3), stride=(2, 2), padding=(1, 1), bias=False)
            (norm): BatchNorm2d(56, eps=1e-05, momentum=0.1, affine=True, track_running_stats=True)
            (act): ReLU()
          )
          (2): ConvLayer2D(
            (conv): Conv2d(56, 112, kernel_size=(3, 3), stride=(2, 2), padding=(1, 1), bias=False)
            (norm): BatchNorm2d(112, eps=1e-05, momentum=0.1, affine=True, track_running_stats=True)
            (act): ReLU()
          )
          (3): ConvLayer2D(
            (conv): Conv2d(112, 224, kernel_size=(3, 3), stride=(2, 2), padding=(1, 1), bias=False)
            (norm): BatchNorm2d(224, eps=1e-05, momentum=0.1, affine=True, track_running_stats=True)
          )
        )
      )
      (stages): ModuleList(
        (0): EfficientViMStage(
          (blocks): ModuleList(
            (0): EfficientViMBlock(
              (mixer): HSMSSD(
                (BCdt_proj): ConvLayer1D(
                  (conv): Conv1d(224, 192, kernel_size=(1,), stride=(1,), bias=False)
                )
                (dw): ConvLayer2D(
                  (conv): Conv2d(192, 192, kernel_size=(3, 3), stride=(1, 1), padding=(1, 1), groups=192, bias=False)
                )
                (hz_proj): ConvLayer1D(
                  (conv): Conv1d(224, 448, kernel_size=(1,), stride=(1,), bias=False)
                )
                (out_proj): ConvLayer1D(
                  (conv): Conv1d(224, 224, kernel_size=(1,), stride=(1,), bias=False)
                )
                (act): SiLU()
              )
              (norm): LayerNorm1D()
              (dwconv1): ConvLayer2D(
                (conv): Conv2d(224, 224, kernel_size=(3, 3), stride=(1, 1), padding=(1, 1), groups=224, bias=False)
                (norm): BatchNorm2d(224, eps=1e-05, momentum=0.1, affine=True, track_running_stats=True)
              )
              (dwconv2): ConvLayer2D(
                (conv): Conv2d(224, 224, kernel_size=(3, 3), stride=(1, 1), padding=(1, 1), groups=224, bias=False)
                (norm): BatchNorm2d(224, eps=1e-05, momentum=0.1, affine=True, track_running_stats=True)
              )
              (ffn): FFN(
                (fc1): ConvLayer2D(
                  (conv): Conv2d(224, 896, kernel_size=(1, 1), stride=(1, 1), bias=False)
                  (norm): BatchNorm2d(896, eps=1e-05, momentum=0.1, affine=True, track_running_stats=True)
                  (act): ReLU()
                )
                (fc2): ConvLayer2D(
                  (conv): Conv2d(896, 224, kernel_size=(1, 1), stride=(1, 1), bias=False)
                  (norm): BatchNorm2d(224, eps=1e-05, momentum=0.1, affine=True, track_running_stats=True)
                )
              )
            )
            (1): EfficientViMBlock(
              (mixer): HSMSSD(
                (BCdt_proj): ConvLayer1D(
                  (conv): Conv1d(224, 192, kernel_size=(1,), stride=(1,), bias=False)
                )
                (dw): ConvLayer2D(
                  (conv): Conv2d(192, 192, kernel_size=(3, 3), stride=(1, 1), padding=(1, 1), groups=192, bias=False)
                )
                (hz_proj): ConvLayer1D(
                  (conv): Conv1d(224, 448, kernel_size=(1,), stride=(1,), bias=False)
                )
                (out_proj): ConvLayer1D(
                  (conv): Conv1d(224, 224, kernel_size=(1,), stride=(1,), bias=False)
                )
                (act): SiLU()
              )
              (norm): LayerNorm1D()
              (dwconv1): ConvLayer2D(
                (conv): Conv2d(224, 224, kernel_size=(3, 3), stride=(1, 1), padding=(1, 1), groups=224, bias=False)
                (norm): BatchNorm2d(224, eps=1e-05, momentum=0.1, affine=True, track_running_stats=True)
              )
              (dwconv2): ConvLayer2D(
                (conv): Conv2d(224, 224, kernel_size=(3, 3), stride=(1, 1), padding=(1, 1), groups=224, bias=False)
                (norm): BatchNorm2d(224, eps=1e-05, momentum=0.1, affine=True, track_running_stats=True)
              )
              (ffn): FFN(
                (fc1): ConvLayer2D(
                  (conv): Conv2d(224, 896, kernel_size=(1, 1), stride=(1, 1), bias=False)
                  (norm): BatchNorm2d(896, eps=1e-05, momentum=0.1, affine=True, track_running_stats=True)
                  (act): ReLU()
                )
                (fc2): ConvLayer2D(
                  (conv): Conv2d(896, 224, kernel_size=(1, 1), stride=(1, 1), bias=False)
                  (norm): BatchNorm2d(224, eps=1e-05, momentum=0.1, affine=True, track_running_stats=True)
                )
              )
            )
            (2): EfficientViMBlock(
              (mixer): HSMSSD(
                (BCdt_proj): ConvLayer1D(
                  (conv): Conv1d(224, 192, kernel_size=(1,), stride=(1,), bias=False)
                )
                (dw): ConvLayer2D(
                  (conv): Conv2d(192, 192, kernel_size=(3, 3), stride=(1, 1), padding=(1, 1), groups=192, bias=False)
                )
                (hz_proj): ConvLayer1D(
                  (conv): Conv1d(224, 448, kernel_size=(1,), stride=(1,), bias=False)
                )
                (out_proj): ConvLayer1D(
                  (conv): Conv1d(224, 224, kernel_size=(1,), stride=(1,), bias=False)
                )
                (act): SiLU()
              )
              (norm): LayerNorm1D()
              (dwconv1): ConvLayer2D(
                (conv): Conv2d(224, 224, kernel_size=(3, 3), stride=(1, 1), padding=(1, 1), groups=224, bias=False)
                (norm): BatchNorm2d(224, eps=1e-05, momentum=0.1, affine=True, track_running_stats=True)
              )
              (dwconv2): ConvLayer2D(
                (conv): Conv2d(224, 224, kernel_size=(3, 3), stride=(1, 1), padding=(1, 1), groups=224, bias=False)
                (norm): BatchNorm2d(224, eps=1e-05, momentum=0.1, affine=True, track_running_stats=True)
              )
              (ffn): FFN(
                (fc1): ConvLayer2D(
                  (conv): Conv2d(224, 896, kernel_size=(1, 1), stride=(1, 1), bias=False)
                  (norm): BatchNorm2d(896, eps=1e-05, momentum=0.1, affine=True, track_running_stats=True)
                  (act): ReLU()
                )
                (fc2): ConvLayer2D(
                  (conv): Conv2d(896, 224, kernel_size=(1, 1), stride=(1, 1), bias=False)
                  (norm): BatchNorm2d(224, eps=1e-05, momentum=0.1, affine=True, track_running_stats=True)
                )
              )
            )
          )
          (downsample): PatchMerging(
            (conv): Sequential(
              (0): ConvLayer2D(
                (conv): Conv2d(224, 1280, kernel_size=(1, 1), stride=(1, 1), bias=False)
                (norm): BatchNorm2d(1280, eps=1e-05, momentum=0.1, affine=True, track_running_stats=True)
                (act): ReLU()
              )
              (1): ConvLayer2D(
                (conv): Conv2d(1280, 1280, kernel_size=(3, 3), stride=(2, 2), padding=(1, 1), groups=1280, bias=False)
                (norm): BatchNorm2d(1280, eps=1e-05, momentum=0.1, affine=True, track_running_stats=True)
                (act): ReLU()
              )
              (2): SEModule(
                (fc1): Conv2d(1280, 320, kernel_size=(1, 1), stride=(1, 1))
                (bn): Identity()
                (act): ReLU(inplace=True)
                (fc2): Conv2d(320, 1280, kernel_size=(1, 1), stride=(1, 1))
                (gate): Sigmoid()
              )
              (3): ConvLayer2D(
                (conv): Conv2d(1280, 320, kernel_size=(1, 1), stride=(1, 1), bias=False)
                (norm): BatchNorm2d(320, eps=1e-05, momentum=0.1, affine=True, track_running_stats=True)
              )
            )
            (dwconv1): ConvLayer2D(
              (conv): Conv2d(224, 224, kernel_size=(3, 3), stride=(1, 1), padding=(1, 1), groups=224, bias=False)
              (norm): BatchNorm2d(224, eps=1e-05, momentum=0.1, affine=True, track_running_stats=True)
            )
            (dwconv2): ConvLayer2D(
              (conv): Conv2d(320, 320, kernel_size=(3, 3), stride=(1, 1), padding=(1, 1), groups=320, bias=False)
              (norm): BatchNorm2d(320, eps=1e-05, momentum=0.1, affine=True, track_running_stats=True)
            )
          )
        )
        (1): EfficientViMStage(
          (blocks): ModuleList(
            (0): EfficientViMBlock(
              (mixer): HSMSSD(
                (BCdt_proj): ConvLayer1D(
                  (conv): Conv1d(320, 96, kernel_size=(1,), stride=(1,), bias=False)
                )
                (dw): ConvLayer2D(
                  (conv): Conv2d(96, 96, kernel_size=(3, 3), stride=(1, 1), padding=(1, 1), groups=96, bias=False)
                )
                (hz_proj): ConvLayer1D(
                  (conv): Conv1d(320, 640, kernel_size=(1,), stride=(1,), bias=False)
                )
                (out_proj): ConvLayer1D(
                  (conv): Conv1d(320, 320, kernel_size=(1,), stride=(1,), bias=False)
                )
                (act): SiLU()
              )
              (norm): LayerNorm1D()
              (dwconv1): ConvLayer2D(
                (conv): Conv2d(320, 320, kernel_size=(3, 3), stride=(1, 1), padding=(1, 1), groups=320, bias=False)
                (norm): BatchNorm2d(320, eps=1e-05, momentum=0.1, affine=True, track_running_stats=True)
              )
              (dwconv2): ConvLayer2D(
                (conv): Conv2d(320, 320, kernel_size=(3, 3), stride=(1, 1), padding=(1, 1), groups=320, bias=False)
                (norm): BatchNorm2d(320, eps=1e-05, momentum=0.1, affine=True, track_running_stats=True)
              )
              (ffn): FFN(
                (fc1): ConvLayer2D(
                  (conv): Conv2d(320, 1280, kernel_size=(1, 1), stride=(1, 1), bias=False)
                  (norm): BatchNorm2d(1280, eps=1e-05, momentum=0.1, affine=True, track_running_stats=True)
                  (act): ReLU()
                )
                (fc2): ConvLayer2D(
                  (conv): Conv2d(1280, 320, kernel_size=(1, 1), stride=(1, 1), bias=False)
                  (norm): BatchNorm2d(320, eps=1e-05, momentum=0.1, affine=True, track_running_stats=True)
                )
              )
            )
            (1): EfficientViMBlock(
              (mixer): HSMSSD(
                (BCdt_proj): ConvLayer1D(
                  (conv): Conv1d(320, 96, kernel_size=(1,), stride=(1,), bias=False)
                )
                (dw): ConvLayer2D(
                  (conv): Conv2d(96, 96, kernel_size=(3, 3), stride=(1, 1), padding=(1, 1), groups=96, bias=False)
                )
                (hz_proj): ConvLayer1D(
                  (conv): Conv1d(320, 640, kernel_size=(1,), stride=(1,), bias=False)
                )
                (out_proj): ConvLayer1D(
                  (conv): Conv1d(320, 320, kernel_size=(1,), stride=(1,), bias=False)
                )
                (act): SiLU()
              )
              (norm): LayerNorm1D()
              (dwconv1): ConvLayer2D(
                (conv): Conv2d(320, 320, kernel_size=(3, 3), stride=(1, 1), padding=(1, 1), groups=320, bias=False)
                (norm): BatchNorm2d(320, eps=1e-05, momentum=0.1, affine=True, track_running_stats=True)
              )
              (dwconv2): ConvLayer2D(
                (conv): Conv2d(320, 320, kernel_size=(3, 3), stride=(1, 1), padding=(1, 1), groups=320, bias=False)
                (norm): BatchNorm2d(320, eps=1e-05, momentum=0.1, affine=True, track_running_stats=True)
              )
              (ffn): FFN(
                (fc1): ConvLayer2D(
                  (conv): Conv2d(320, 1280, kernel_size=(1, 1), stride=(1, 1), bias=False)
                  (norm): BatchNorm2d(1280, eps=1e-05, momentum=0.1, affine=True, track_running_stats=True)
                  (act): ReLU()
                )
                (fc2): ConvLayer2D(
                  (conv): Conv2d(1280, 320, kernel_size=(1, 1), stride=(1, 1), bias=False)
                  (norm): BatchNorm2d(320, eps=1e-05, momentum=0.1, affine=True, track_running_stats=True)
                )
              )
            )
            (2): EfficientViMBlock(
              (mixer): HSMSSD(
                (BCdt_proj): ConvLayer1D(
                  (conv): Conv1d(320, 96, kernel_size=(1,), stride=(1,), bias=False)
                )
                (dw): ConvLayer2D(
                  (conv): Conv2d(96, 96, kernel_size=(3, 3), stride=(1, 1), padding=(1, 1), groups=96, bias=False)
                )
                (hz_proj): ConvLayer1D(
                  (conv): Conv1d(320, 640, kernel_size=(1,), stride=(1,), bias=False)
                )
                (out_proj): ConvLayer1D(
                  (conv): Conv1d(320, 320, kernel_size=(1,), stride=(1,), bias=False)
                )
                (act): SiLU()
              )
              (norm): LayerNorm1D()
              (dwconv1): ConvLayer2D(
                (conv): Conv2d(320, 320, kernel_size=(3, 3), stride=(1, 1), padding=(1, 1), groups=320, bias=False)
                (norm): BatchNorm2d(320, eps=1e-05, momentum=0.1, affine=True, track_running_stats=True)
              )
              (dwconv2): ConvLayer2D(
                (conv): Conv2d(320, 320, kernel_size=(3, 3), stride=(1, 1), padding=(1, 1), groups=320, bias=False)
                (norm): BatchNorm2d(320, eps=1e-05, momentum=0.1, affine=True, track_running_stats=True)
              )
              (ffn): FFN(
                (fc1): ConvLayer2D(
                  (conv): Conv2d(320, 1280, kernel_size=(1, 1), stride=(1, 1), bias=False)
                  (norm): BatchNorm2d(1280, eps=1e-05, momentum=0.1, affine=True, track_running_stats=True)
                  (act): ReLU()
                )
                (fc2): ConvLayer2D(
                  (conv): Conv2d(1280, 320, kernel_size=(1, 1), stride=(1, 1), bias=False)
                  (norm): BatchNorm2d(320, eps=1e-05, momentum=0.1, affine=True, track_running_stats=True)
                )
              )
            )
            (3): EfficientViMBlock(
              (mixer): HSMSSD(
                (BCdt_proj): ConvLayer1D(
                  (conv): Conv1d(320, 96, kernel_size=(1,), stride=(1,), bias=False)
                )
                (dw): ConvLayer2D(
                  (conv): Conv2d(96, 96, kernel_size=(3, 3), stride=(1, 1), padding=(1, 1), groups=96, bias=False)
                )
                (hz_proj): ConvLayer1D(
                  (conv): Conv1d(320, 640, kernel_size=(1,), stride=(1,), bias=False)
                )
                (out_proj): ConvLayer1D(
                  (conv): Conv1d(320, 320, kernel_size=(1,), stride=(1,), bias=False)
                )
                (act): SiLU()
              )
              (norm): LayerNorm1D()
              (dwconv1): ConvLayer2D(
                (conv): Conv2d(320, 320, kernel_size=(3, 3), stride=(1, 1), padding=(1, 1), groups=320, bias=False)
                (norm): BatchNorm2d(320, eps=1e-05, momentum=0.1, affine=True, track_running_stats=True)
              )
              (dwconv2): ConvLayer2D(
                (conv): Conv2d(320, 320, kernel_size=(3, 3), stride=(1, 1), padding=(1, 1), groups=320, bias=False)
                (norm): BatchNorm2d(320, eps=1e-05, momentum=0.1, affine=True, track_running_stats=True)
              )
              (ffn): FFN(
                (fc1): ConvLayer2D(
                  (conv): Conv2d(320, 1280, kernel_size=(1, 1), stride=(1, 1), bias=False)
                  (norm): BatchNorm2d(1280, eps=1e-05, momentum=0.1, affine=True, track_running_stats=True)
                  (act): ReLU()
                )
                (fc2): ConvLayer2D(
                  (conv): Conv2d(1280, 320, kernel_size=(1, 1), stride=(1, 1), bias=False)
                  (norm): BatchNorm2d(320, eps=1e-05, momentum=0.1, affine=True, track_running_stats=True)
                )
              )
            )
          )
          (downsample): PatchMerging(
            (conv): Sequential(
              (0): ConvLayer2D(
                (conv): Conv2d(320, 2048, kernel_size=(1, 1), stride=(1, 1), bias=False)
                (norm): BatchNorm2d(2048, eps=1e-05, momentum=0.1, affine=True, track_running_stats=True)
                (act): ReLU()
              )
              (1): ConvLayer2D(
                (conv): Conv2d(2048, 2048, kernel_size=(3, 3), stride=(2, 2), padding=(1, 1), groups=2048, bias=False)
                (norm): BatchNorm2d(2048, eps=1e-05, momentum=0.1, affine=True, track_running_stats=True)
                (act): ReLU()
              )
              (2): SEModule(
                (fc1): Conv2d(2048, 512, kernel_size=(1, 1), stride=(1, 1))
                (bn): Identity()
                (act): ReLU(inplace=True)
                (fc2): Conv2d(512, 2048, kernel_size=(1, 1), stride=(1, 1))
                (gate): Sigmoid()
              )
              (3): ConvLayer2D(
                (conv): Conv2d(2048, 512, kernel_size=(1, 1), stride=(1, 1), bias=False)
                (norm): BatchNorm2d(512, eps=1e-05, momentum=0.1, affine=True, track_running_stats=True)
              )
            )
            (dwconv1): ConvLayer2D(
              (conv): Conv2d(320, 320, kernel_size=(3, 3), stride=(1, 1), padding=(1, 1), groups=320, bias=False)
              (norm): BatchNorm2d(320, eps=1e-05, momentum=0.1, affine=True, track_running_stats=True)
            )
            (dwconv2): ConvLayer2D(
              (conv): Conv2d(512, 512, kernel_size=(3, 3), stride=(1, 1), padding=(1, 1), groups=512, bias=False)
              (norm): BatchNorm2d(512, eps=1e-05, momentum=0.1, affine=True, track_running_stats=True)
            )
          )
        )
        (2): EfficientViMStage(
          (blocks): ModuleList(
            (0): EfficientViMBlock(
              (mixer): HSMSSD(
                (BCdt_proj): ConvLayer1D(
                  (conv): Conv1d(512, 48, kernel_size=(1,), stride=(1,), bias=False)
                )
                (dw): ConvLayer2D(
                  (conv): Conv2d(48, 48, kernel_size=(3, 3), stride=(1, 1), padding=(1, 1), groups=48, bias=False)
                )
                (hz_proj): ConvLayer1D(
                  (conv): Conv1d(512, 1024, kernel_size=(1,), stride=(1,), bias=False)
                )
                (out_proj): ConvLayer1D(
                  (conv): Conv1d(512, 512, kernel_size=(1,), stride=(1,), bias=False)
                )
                (act): SiLU()
              )
              (norm): LayerNorm1D()
              (dwconv1): ConvLayer2D(
                (conv): Conv2d(512, 512, kernel_size=(3, 3), stride=(1, 1), padding=(1, 1), groups=512, bias=False)
                (norm): BatchNorm2d(512, eps=1e-05, momentum=0.1, affine=True, track_running_stats=True)
              )
              (dwconv2): ConvLayer2D(
                (conv): Conv2d(512, 512, kernel_size=(3, 3), stride=(1, 1), padding=(1, 1), groups=512, bias=False)
                (norm): BatchNorm2d(512, eps=1e-05, momentum=0.1, affine=True, track_running_stats=True)
              )
              (ffn): FFN(
                (fc1): ConvLayer2D(
                  (conv): Conv2d(512, 2048, kernel_size=(1, 1), stride=(1, 1), bias=False)
                  (norm): BatchNorm2d(2048, eps=1e-05, momentum=0.1, affine=True, track_running_stats=True)
                  (act): ReLU()
                )
                (fc2): ConvLayer2D(
                  (conv): Conv2d(2048, 512, kernel_size=(1, 1), stride=(1, 1), bias=False)
                  (norm): BatchNorm2d(512, eps=1e-05, momentum=0.1, affine=True, track_running_stats=True)
                )
              )
            )
            (1): EfficientViMBlock(
              (mixer): HSMSSD(
                (BCdt_proj): ConvLayer1D(
                  (conv): Conv1d(512, 48, kernel_size=(1,), stride=(1,), bias=False)
                )
                (dw): ConvLayer2D(
                  (conv): Conv2d(48, 48, kernel_size=(3, 3), stride=(1, 1), padding=(1, 1), groups=48, bias=False)
                )
                (hz_proj): ConvLayer1D(
                  (conv): Conv1d(512, 1024, kernel_size=(1,), stride=(1,), bias=False)
                )
                (out_proj): ConvLayer1D(
                  (conv): Conv1d(512, 512, kernel_size=(1,), stride=(1,), bias=False)
                )
                (act): SiLU()
              )
              (norm): LayerNorm1D()
              (dwconv1): ConvLayer2D(
                (conv): Conv2d(512, 512, kernel_size=(3, 3), stride=(1, 1), padding=(1, 1), groups=512, bias=False)
                (norm): BatchNorm2d(512, eps=1e-05, momentum=0.1, affine=True, track_running_stats=True)
              )
              (dwconv2): ConvLayer2D(
                (conv): Conv2d(512, 512, kernel_size=(3, 3), stride=(1, 1), padding=(1, 1), groups=512, bias=False)
                (norm): BatchNorm2d(512, eps=1e-05, momentum=0.1, affine=True, track_running_stats=True)
              )
              (ffn): FFN(
                (fc1): ConvLayer2D(
                  (conv): Conv2d(512, 2048, kernel_size=(1, 1), stride=(1, 1), bias=False)
                  (norm): BatchNorm2d(2048, eps=1e-05, momentum=0.1, affine=True, track_running_stats=True)
                  (act): ReLU()
                )
                (fc2): ConvLayer2D(
                  (conv): Conv2d(2048, 512, kernel_size=(1, 1), stride=(1, 1), bias=False)
                  (norm): BatchNorm2d(512, eps=1e-05, momentum=0.1, affine=True, track_running_stats=True)
                )
              )
            )
          )
        )
      )
    )
    init_cfg={'type': 'Pretrained', 'checkpoint': 'pretrained/EfficientViM_M4_e450.pth'}
    (neck): CrossDomainAttNeck(
      (uda_blocks): ModuleList(
        (0): UdaAttentionBlock(
          (norm1): LayerNorm((224,), eps=1e-05, elementwise_affine=True)
          (encoder): SelfAttentionBlock(
            (key_project): ConvModule(
              (conv): Conv2d(224, 448, kernel_size=(1, 1), stride=(1, 1), bias=False)
              (bn): BatchNorm2d(448, eps=1e-05, momentum=0.1, affine=True, track_running_stats=True)
              (activate): ReLU(inplace=True)
            )
            (query_project): ConvModule(
              (conv): Conv2d(224, 448, kernel_size=(1, 1), stride=(1, 1), bias=False)
              (bn): BatchNorm2d(448, eps=1e-05, momentum=0.1, affine=True, track_running_stats=True)
              (activate): ReLU(inplace=True)
            )
            (value_project): Conv2d(224, 224, kernel_size=(1, 1), stride=(1, 1))
            (output_project): ConvModule(
              (conv): Conv2d(224, 224, kernel_size=(1, 1), stride=(1, 1), bias=False)
              (bn): BatchNorm2d(224, eps=1e-05, momentum=0.1, affine=True, track_running_stats=True)
              (activate): ReLU(inplace=True)
            )
          )
          (decoder): SelfAttentionBlock(
            (key_project): ConvModule(
              (conv): Conv2d(224, 448, kernel_size=(1, 1), stride=(1, 1), bias=False)
              (bn): BatchNorm2d(448, eps=1e-05, momentum=0.1, affine=True, track_running_stats=True)
              (activate): ReLU(inplace=True)
            )
            (query_project): ConvModule(
              (conv): Conv2d(224, 448, kernel_size=(1, 1), stride=(1, 1), bias=False)
              (bn): BatchNorm2d(448, eps=1e-05, momentum=0.1, affine=True, track_running_stats=True)
              (activate): ReLU(inplace=True)
            )
            (value_project): Conv2d(224, 224, kernel_size=(1, 1), stride=(1, 1))
            (output_project): ConvModule(
              (conv): Conv2d(224, 224, kernel_size=(1, 1), stride=(1, 1), bias=False)
              (bn): BatchNorm2d(224, eps=1e-05, momentum=0.1, affine=True, track_running_stats=True)
              (activate): ReLU(inplace=True)
            )
          )
          (mix_att): SelfAttentionBlock(
            (key_project): ConvModule(
              (conv): Conv2d(224, 448, kernel_size=(1, 1), stride=(1, 1), bias=False)
              (bn): BatchNorm2d(448, eps=1e-05, momentum=0.1, affine=True, track_running_stats=True)
              (activate): ReLU(inplace=True)
            )
            (query_project): ConvModule(
              (conv): Conv2d(224, 448, kernel_size=(1, 1), stride=(1, 1), bias=False)
              (bn): BatchNorm2d(448, eps=1e-05, momentum=0.1, affine=True, track_running_stats=True)
              (activate): ReLU(inplace=True)
            )
            (value_project): Conv2d(224, 224, kernel_size=(1, 1), stride=(1, 1))
            (output_project): ConvModule(
              (conv): Conv2d(224, 224, kernel_size=(1, 1), stride=(1, 1), bias=False)
              (bn): BatchNorm2d(224, eps=1e-05, momentum=0.1, affine=True, track_running_stats=True)
              (activate): ReLU(inplace=True)
            )
          )
          (out_conv): ConvModule(
            (conv): Conv2d(448, 224, kernel_size=(1, 1), stride=(1, 1), bias=False)
            (bn): BatchNorm2d(224, eps=1e-05, momentum=0.1, affine=True, track_running_stats=True)
            (activate): ReLU(inplace=True)
          )
          (drop_path): DropPath()
        )
        (1): UdaAttentionBlock(
          (norm1): LayerNorm((320,), eps=1e-05, elementwise_affine=True)
          (encoder): SelfAttentionBlock(
            (key_project): ConvModule(
              (conv): Conv2d(320, 640, kernel_size=(1, 1), stride=(1, 1), bias=False)
              (bn): BatchNorm2d(640, eps=1e-05, momentum=0.1, affine=True, track_running_stats=True)
              (activate): ReLU(inplace=True)
            )
            (query_project): ConvModule(
              (conv): Conv2d(320, 640, kernel_size=(1, 1), stride=(1, 1), bias=False)
              (bn): BatchNorm2d(640, eps=1e-05, momentum=0.1, affine=True, track_running_stats=True)
              (activate): ReLU(inplace=True)
            )
            (value_project): Conv2d(320, 320, kernel_size=(1, 1), stride=(1, 1))
            (output_project): ConvModule(
              (conv): Conv2d(320, 320, kernel_size=(1, 1), stride=(1, 1), bias=False)
              (bn): BatchNorm2d(320, eps=1e-05, momentum=0.1, affine=True, track_running_stats=True)
              (activate): ReLU(inplace=True)
            )
          )
          (decoder): SelfAttentionBlock(
            (key_project): ConvModule(
              (conv): Conv2d(320, 640, kernel_size=(1, 1), stride=(1, 1), bias=False)
              (bn): BatchNorm2d(640, eps=1e-05, momentum=0.1, affine=True, track_running_stats=True)
              (activate): ReLU(inplace=True)
            )
            (query_project): ConvModule(
              (conv): Conv2d(320, 640, kernel_size=(1, 1), stride=(1, 1), bias=False)
              (bn): BatchNorm2d(640, eps=1e-05, momentum=0.1, affine=True, track_running_stats=True)
              (activate): ReLU(inplace=True)
            )
            (value_project): Conv2d(320, 320, kernel_size=(1, 1), stride=(1, 1))
            (output_project): ConvModule(
              (conv): Conv2d(320, 320, kernel_size=(1, 1), stride=(1, 1), bias=False)
              (bn): BatchNorm2d(320, eps=1e-05, momentum=0.1, affine=True, track_running_stats=True)
              (activate): ReLU(inplace=True)
            )
          )
          (mix_att): SelfAttentionBlock(
            (key_project): ConvModule(
              (conv): Conv2d(320, 640, kernel_size=(1, 1), stride=(1, 1), bias=False)
              (bn): BatchNorm2d(640, eps=1e-05, momentum=0.1, affine=True, track_running_stats=True)
              (activate): ReLU(inplace=True)
            )
            (query_project): ConvModule(
              (conv): Conv2d(320, 640, kernel_size=(1, 1), stride=(1, 1), bias=False)
              (bn): BatchNorm2d(640, eps=1e-05, momentum=0.1, affine=True, track_running_stats=True)
              (activate): ReLU(inplace=True)
            )
            (value_project): Conv2d(320, 320, kernel_size=(1, 1), stride=(1, 1))
            (output_project): ConvModule(
              (conv): Conv2d(320, 320, kernel_size=(1, 1), stride=(1, 1), bias=False)
              (bn): BatchNorm2d(320, eps=1e-05, momentum=0.1, affine=True, track_running_stats=True)
              (activate): ReLU(inplace=True)
            )
          )
          (out_conv): ConvModule(
            (conv): Conv2d(640, 320, kernel_size=(1, 1), stride=(1, 1), bias=False)
            (bn): BatchNorm2d(320, eps=1e-05, momentum=0.1, affine=True, track_running_stats=True)
            (activate): ReLU(inplace=True)
          )
          (drop_path): DropPath()
        )
        (2): UdaAttentionBlock(
          (norm1): LayerNorm((512,), eps=1e-05, elementwise_affine=True)
          (encoder): SelfAttentionBlock(
            (key_project): ConvModule(
              (conv): Conv2d(512, 1024, kernel_size=(1, 1), stride=(1, 1), bias=False)
              (bn): BatchNorm2d(1024, eps=1e-05, momentum=0.1, affine=True, track_running_stats=True)
              (activate): ReLU(inplace=True)
            )
            (query_project): ConvModule(
              (conv): Conv2d(512, 1024, kernel_size=(1, 1), stride=(1, 1), bias=False)
              (bn): BatchNorm2d(1024, eps=1e-05, momentum=0.1, affine=True, track_running_stats=True)
              (activate): ReLU(inplace=True)
            )
            (value_project): Conv2d(512, 512, kernel_size=(1, 1), stride=(1, 1))
            (output_project): ConvModule(
              (conv): Conv2d(512, 512, kernel_size=(1, 1), stride=(1, 1), bias=False)
              (bn): BatchNorm2d(512, eps=1e-05, momentum=0.1, affine=True, track_running_stats=True)
              (activate): ReLU(inplace=True)
            )
          )
          (decoder): SelfAttentionBlock(
            (key_project): ConvModule(
              (conv): Conv2d(512, 1024, kernel_size=(1, 1), stride=(1, 1), bias=False)
              (bn): BatchNorm2d(1024, eps=1e-05, momentum=0.1, affine=True, track_running_stats=True)
              (activate): ReLU(inplace=True)
            )
            (query_project): ConvModule(
              (conv): Conv2d(512, 1024, kernel_size=(1, 1), stride=(1, 1), bias=False)
              (bn): BatchNorm2d(1024, eps=1e-05, momentum=0.1, affine=True, track_running_stats=True)
              (activate): ReLU(inplace=True)
            )
            (value_project): Conv2d(512, 512, kernel_size=(1, 1), stride=(1, 1))
            (output_project): ConvModule(
              (conv): Conv2d(512, 512, kernel_size=(1, 1), stride=(1, 1), bias=False)
              (bn): BatchNorm2d(512, eps=1e-05, momentum=0.1, affine=True, track_running_stats=True)
              (activate): ReLU(inplace=True)
            )
          )
          (mix_att): SelfAttentionBlock(
            (key_project): ConvModule(
              (conv): Conv2d(512, 1024, kernel_size=(1, 1), stride=(1, 1), bias=False)
              (bn): BatchNorm2d(1024, eps=1e-05, momentum=0.1, affine=True, track_running_stats=True)
              (activate): ReLU(inplace=True)
            )
            (query_project): ConvModule(
              (conv): Conv2d(512, 1024, kernel_size=(1, 1), stride=(1, 1), bias=False)
              (bn): BatchNorm2d(1024, eps=1e-05, momentum=0.1, affine=True, track_running_stats=True)
              (activate): ReLU(inplace=True)
            )
            (value_project): Conv2d(512, 512, kernel_size=(1, 1), stride=(1, 1))
            (output_project): ConvModule(
              (conv): Conv2d(512, 512, kernel_size=(1, 1), stride=(1, 1), bias=False)
              (bn): BatchNorm2d(512, eps=1e-05, momentum=0.1, affine=True, track_running_stats=True)
              (activate): ReLU(inplace=True)
            )
          )
          (out_conv): ConvModule(
            (conv): Conv2d(1024, 512, kernel_size=(1, 1), stride=(1, 1), bias=False)
            (bn): BatchNorm2d(512, eps=1e-05, momentum=0.1, affine=True, track_running_stats=True)
            (activate): ReLU(inplace=True)
          )
          (drop_path): DropPath()
        )
      )
    )
    (decode_head): DAFormerHead(
      input_transform=multiple_select, ignore_index=255, align_corners=False
      (loss_decode): CrossEntropyLoss()
      (conv_seg): Conv2d(256, 19, kernel_size=(1, 1), stride=(1, 1))
      (dropout): Dropout2d(p=0.1, inplace=False)
      (embed_layers): ModuleDict(
        (0): MLP(
          (proj): Linear(in_features=224, out_features=256, bias=True)
        )
        (1): MLP(
          (proj): Linear(in_features=320, out_features=256, bias=True)
        )
        (2): MLP(
          (proj): Linear(in_features=512, out_features=256, bias=True)
        )
      )
      (fuse_layer): ASPPWrapper(
        (aspp_modules): DepthwiseSeparableASPPModule(
          (0): ConvModule(
            (conv): Conv2d(768, 256, kernel_size=(1, 1), stride=(1, 1), bias=False)
            (bn): BatchNorm2d(256, eps=1e-05, momentum=0.1, affine=True, track_running_stats=True)
            (activate): ReLU(inplace=True)
          )
          (1): DepthwiseSeparableConvModule(
            (depthwise_conv): ConvModule(
              (conv): Conv2d(768, 768, kernel_size=(3, 3), stride=(1, 1), padding=(6, 6), dilation=(6, 6), groups=768, bias=False)
              (bn): BatchNorm2d(768, eps=1e-05, momentum=0.1, affine=True, track_running_stats=True)
              (activate): ReLU(inplace=True)
            )
            (pointwise_conv): ConvModule(
              (conv): Conv2d(768, 256, kernel_size=(1, 1), stride=(1, 1), bias=False)
              (bn): BatchNorm2d(256, eps=1e-05, momentum=0.1, affine=True, track_running_stats=True)
              (activate): ReLU(inplace=True)
            )
          )
          (2): DepthwiseSeparableConvModule(
            (depthwise_conv): ConvModule(
              (conv): Conv2d(768, 768, kernel_size=(3, 3), stride=(1, 1), padding=(12, 12), dilation=(12, 12), groups=768, bias=False)
              (bn): BatchNorm2d(768, eps=1e-05, momentum=0.1, affine=True, track_running_stats=True)
              (activate): ReLU(inplace=True)
            )
            (pointwise_conv): ConvModule(
              (conv): Conv2d(768, 256, kernel_size=(1, 1), stride=(1, 1), bias=False)
              (bn): BatchNorm2d(256, eps=1e-05, momentum=0.1, affine=True, track_running_stats=True)
              (activate): ReLU(inplace=True)
            )
          )
          (3): DepthwiseSeparableConvModule(
            (depthwise_conv): ConvModule(
              (conv): Conv2d(768, 768, kernel_size=(3, 3), stride=(1, 1), padding=(18, 18), dilation=(18, 18), groups=768, bias=False)
              (bn): BatchNorm2d(768, eps=1e-05, momentum=0.1, affine=True, track_running_stats=True)
              (activate): ReLU(inplace=True)
            )
            (pointwise_conv): ConvModule(
              (conv): Conv2d(768, 256, kernel_size=(1, 1), stride=(1, 1), bias=False)
              (bn): BatchNorm2d(256, eps=1e-05, momentum=0.1, affine=True, track_running_stats=True)
              (activate): ReLU(inplace=True)
            )
          )
        )
        (bottleneck): ConvModule(
          (conv): Conv2d(1024, 256, kernel_size=(3, 3), stride=(1, 1), padding=(1, 1), bias=False)
          (bn): BatchNorm2d(256, eps=1e-05, momentum=0.1, affine=True, track_running_stats=True)
          (activate): ReLU(inplace=True)
        )
      )
    )
    init_cfg={'type': 'Normal', 'std': 0.01, 'override': {'name': 'conv_seg'}}
  )
  (imnet_model): EncoderDecoder(
    (backbone): EfficientViM_M4(
      (patch_embed): Stem(
        (conv): Sequential(
          (0): ConvLayer2D(
            (conv): Conv2d(3, 28, kernel_size=(3, 3), stride=(2, 2), padding=(1, 1), bias=False)
            (norm): BatchNorm2d(28, eps=1e-05, momentum=0.1, affine=True, track_running_stats=True)
            (act): ReLU()
          )
          (1): ConvLayer2D(
            (conv): Conv2d(28, 56, kernel_size=(3, 3), stride=(2, 2), padding=(1, 1), bias=False)
            (norm): BatchNorm2d(56, eps=1e-05, momentum=0.1, affine=True, track_running_stats=True)
            (act): ReLU()
          )
          (2): ConvLayer2D(
            (conv): Conv2d(56, 112, kernel_size=(3, 3), stride=(2, 2), padding=(1, 1), bias=False)
            (norm): BatchNorm2d(112, eps=1e-05, momentum=0.1, affine=True, track_running_stats=True)
            (act): ReLU()
          )
          (3): ConvLayer2D(
            (conv): Conv2d(112, 224, kernel_size=(3, 3), stride=(2, 2), padding=(1, 1), bias=False)
            (norm): BatchNorm2d(224, eps=1e-05, momentum=0.1, affine=True, track_running_stats=True)
          )
        )
      )
      (stages): ModuleList(
        (0): EfficientViMStage(
          (blocks): ModuleList(
            (0): EfficientViMBlock(
              (mixer): HSMSSD(
                (BCdt_proj): ConvLayer1D(
                  (conv): Conv1d(224, 192, kernel_size=(1,), stride=(1,), bias=False)
                )
                (dw): ConvLayer2D(
                  (conv): Conv2d(192, 192, kernel_size=(3, 3), stride=(1, 1), padding=(1, 1), groups=192, bias=False)
                )
                (hz_proj): ConvLayer1D(
                  (conv): Conv1d(224, 448, kernel_size=(1,), stride=(1,), bias=False)
                )
                (out_proj): ConvLayer1D(
                  (conv): Conv1d(224, 224, kernel_size=(1,), stride=(1,), bias=False)
                )
                (act): SiLU()
              )
              (norm): LayerNorm1D()
              (dwconv1): ConvLayer2D(
                (conv): Conv2d(224, 224, kernel_size=(3, 3), stride=(1, 1), padding=(1, 1), groups=224, bias=False)
                (norm): BatchNorm2d(224, eps=1e-05, momentum=0.1, affine=True, track_running_stats=True)
              )
              (dwconv2): ConvLayer2D(
                (conv): Conv2d(224, 224, kernel_size=(3, 3), stride=(1, 1), padding=(1, 1), groups=224, bias=False)
                (norm): BatchNorm2d(224, eps=1e-05, momentum=0.1, affine=True, track_running_stats=True)
              )
              (ffn): FFN(
                (fc1): ConvLayer2D(
                  (conv): Conv2d(224, 896, kernel_size=(1, 1), stride=(1, 1), bias=False)
                  (norm): BatchNorm2d(896, eps=1e-05, momentum=0.1, affine=True, track_running_stats=True)
                  (act): ReLU()
                )
                (fc2): ConvLayer2D(
                  (conv): Conv2d(896, 224, kernel_size=(1, 1), stride=(1, 1), bias=False)
                  (norm): BatchNorm2d(224, eps=1e-05, momentum=0.1, affine=True, track_running_stats=True)
                )
              )
            )
            (1): EfficientViMBlock(
              (mixer): HSMSSD(
                (BCdt_proj): ConvLayer1D(
                  (conv): Conv1d(224, 192, kernel_size=(1,), stride=(1,), bias=False)
                )
                (dw): ConvLayer2D(
                  (conv): Conv2d(192, 192, kernel_size=(3, 3), stride=(1, 1), padding=(1, 1), groups=192, bias=False)
                )
                (hz_proj): ConvLayer1D(
                  (conv): Conv1d(224, 448, kernel_size=(1,), stride=(1,), bias=False)
                )
                (out_proj): ConvLayer1D(
                  (conv): Conv1d(224, 224, kernel_size=(1,), stride=(1,), bias=False)
                )
                (act): SiLU()
              )
              (norm): LayerNorm1D()
              (dwconv1): ConvLayer2D(
                (conv): Conv2d(224, 224, kernel_size=(3, 3), stride=(1, 1), padding=(1, 1), groups=224, bias=False)
                (norm): BatchNorm2d(224, eps=1e-05, momentum=0.1, affine=True, track_running_stats=True)
              )
              (dwconv2): ConvLayer2D(
                (conv): Conv2d(224, 224, kernel_size=(3, 3), stride=(1, 1), padding=(1, 1), groups=224, bias=False)
                (norm): BatchNorm2d(224, eps=1e-05, momentum=0.1, affine=True, track_running_stats=True)
              )
              (ffn): FFN(
                (fc1): ConvLayer2D(
                  (conv): Conv2d(224, 896, kernel_size=(1, 1), stride=(1, 1), bias=False)
                  (norm): BatchNorm2d(896, eps=1e-05, momentum=0.1, affine=True, track_running_stats=True)
                  (act): ReLU()
                )
                (fc2): ConvLayer2D(
                  (conv): Conv2d(896, 224, kernel_size=(1, 1), stride=(1, 1), bias=False)
                  (norm): BatchNorm2d(224, eps=1e-05, momentum=0.1, affine=True, track_running_stats=True)
                )
              )
            )
            (2): EfficientViMBlock(
              (mixer): HSMSSD(
                (BCdt_proj): ConvLayer1D(
                  (conv): Conv1d(224, 192, kernel_size=(1,), stride=(1,), bias=False)
                )
                (dw): ConvLayer2D(
                  (conv): Conv2d(192, 192, kernel_size=(3, 3), stride=(1, 1), padding=(1, 1), groups=192, bias=False)
                )
                (hz_proj): ConvLayer1D(
                  (conv): Conv1d(224, 448, kernel_size=(1,), stride=(1,), bias=False)
                )
                (out_proj): ConvLayer1D(
                  (conv): Conv1d(224, 224, kernel_size=(1,), stride=(1,), bias=False)
                )
                (act): SiLU()
              )
              (norm): LayerNorm1D()
              (dwconv1): ConvLayer2D(
                (conv): Conv2d(224, 224, kernel_size=(3, 3), stride=(1, 1), padding=(1, 1), groups=224, bias=False)
                (norm): BatchNorm2d(224, eps=1e-05, momentum=0.1, affine=True, track_running_stats=True)
              )
              (dwconv2): ConvLayer2D(
                (conv): Conv2d(224, 224, kernel_size=(3, 3), stride=(1, 1), padding=(1, 1), groups=224, bias=False)
                (norm): BatchNorm2d(224, eps=1e-05, momentum=0.1, affine=True, track_running_stats=True)
              )
              (ffn): FFN(
                (fc1): ConvLayer2D(
                  (conv): Conv2d(224, 896, kernel_size=(1, 1), stride=(1, 1), bias=False)
                  (norm): BatchNorm2d(896, eps=1e-05, momentum=0.1, affine=True, track_running_stats=True)
                  (act): ReLU()
                )
                (fc2): ConvLayer2D(
                  (conv): Conv2d(896, 224, kernel_size=(1, 1), stride=(1, 1), bias=False)
                  (norm): BatchNorm2d(224, eps=1e-05, momentum=0.1, affine=True, track_running_stats=True)
                )
              )
            )
          )
          (downsample): PatchMerging(
            (conv): Sequential(
              (0): ConvLayer2D(
                (conv): Conv2d(224, 1280, kernel_size=(1, 1), stride=(1, 1), bias=False)
                (norm): BatchNorm2d(1280, eps=1e-05, momentum=0.1, affine=True, track_running_stats=True)
                (act): ReLU()
              )
              (1): ConvLayer2D(
                (conv): Conv2d(1280, 1280, kernel_size=(3, 3), stride=(2, 2), padding=(1, 1), groups=1280, bias=False)
                (norm): BatchNorm2d(1280, eps=1e-05, momentum=0.1, affine=True, track_running_stats=True)
                (act): ReLU()
              )
              (2): SEModule(
                (fc1): Conv2d(1280, 320, kernel_size=(1, 1), stride=(1, 1))
                (bn): Identity()
                (act): ReLU(inplace=True)
                (fc2): Conv2d(320, 1280, kernel_size=(1, 1), stride=(1, 1))
                (gate): Sigmoid()
              )
              (3): ConvLayer2D(
                (conv): Conv2d(1280, 320, kernel_size=(1, 1), stride=(1, 1), bias=False)
                (norm): BatchNorm2d(320, eps=1e-05, momentum=0.1, affine=True, track_running_stats=True)
              )
            )
            (dwconv1): ConvLayer2D(
              (conv): Conv2d(224, 224, kernel_size=(3, 3), stride=(1, 1), padding=(1, 1), groups=224, bias=False)
              (norm): BatchNorm2d(224, eps=1e-05, momentum=0.1, affine=True, track_running_stats=True)
            )
            (dwconv2): ConvLayer2D(
              (conv): Conv2d(320, 320, kernel_size=(3, 3), stride=(1, 1), padding=(1, 1), groups=320, bias=False)
              (norm): BatchNorm2d(320, eps=1e-05, momentum=0.1, affine=True, track_running_stats=True)
            )
          )
        )
        (1): EfficientViMStage(
          (blocks): ModuleList(
            (0): EfficientViMBlock(
              (mixer): HSMSSD(
                (BCdt_proj): ConvLayer1D(
                  (conv): Conv1d(320, 96, kernel_size=(1,), stride=(1,), bias=False)
                )
                (dw): ConvLayer2D(
                  (conv): Conv2d(96, 96, kernel_size=(3, 3), stride=(1, 1), padding=(1, 1), groups=96, bias=False)
                )
                (hz_proj): ConvLayer1D(
                  (conv): Conv1d(320, 640, kernel_size=(1,), stride=(1,), bias=False)
                )
                (out_proj): ConvLayer1D(
                  (conv): Conv1d(320, 320, kernel_size=(1,), stride=(1,), bias=False)
                )
                (act): SiLU()
              )
              (norm): LayerNorm1D()
              (dwconv1): ConvLayer2D(
                (conv): Conv2d(320, 320, kernel_size=(3, 3), stride=(1, 1), padding=(1, 1), groups=320, bias=False)
                (norm): BatchNorm2d(320, eps=1e-05, momentum=0.1, affine=True, track_running_stats=True)
              )
              (dwconv2): ConvLayer2D(
                (conv): Conv2d(320, 320, kernel_size=(3, 3), stride=(1, 1), padding=(1, 1), groups=320, bias=False)
                (norm): BatchNorm2d(320, eps=1e-05, momentum=0.1, affine=True, track_running_stats=True)
              )
              (ffn): FFN(
                (fc1): ConvLayer2D(
                  (conv): Conv2d(320, 1280, kernel_size=(1, 1), stride=(1, 1), bias=False)
                  (norm): BatchNorm2d(1280, eps=1e-05, momentum=0.1, affine=True, track_running_stats=True)
                  (act): ReLU()
                )
                (fc2): ConvLayer2D(
                  (conv): Conv2d(1280, 320, kernel_size=(1, 1), stride=(1, 1), bias=False)
                  (norm): BatchNorm2d(320, eps=1e-05, momentum=0.1, affine=True, track_running_stats=True)
                )
              )
            )
            (1): EfficientViMBlock(
              (mixer): HSMSSD(
                (BCdt_proj): ConvLayer1D(
                  (conv): Conv1d(320, 96, kernel_size=(1,), stride=(1,), bias=False)
                )
                (dw): ConvLayer2D(
                  (conv): Conv2d(96, 96, kernel_size=(3, 3), stride=(1, 1), padding=(1, 1), groups=96, bias=False)
                )
                (hz_proj): ConvLayer1D(
                  (conv): Conv1d(320, 640, kernel_size=(1,), stride=(1,), bias=False)
                )
                (out_proj): ConvLayer1D(
                  (conv): Conv1d(320, 320, kernel_size=(1,), stride=(1,), bias=False)
                )
                (act): SiLU()
              )
              (norm): LayerNorm1D()
              (dwconv1): ConvLayer2D(
                (conv): Conv2d(320, 320, kernel_size=(3, 3), stride=(1, 1), padding=(1, 1), groups=320, bias=False)
                (norm): BatchNorm2d(320, eps=1e-05, momentum=0.1, affine=True, track_running_stats=True)
              )
              (dwconv2): ConvLayer2D(
                (conv): Conv2d(320, 320, kernel_size=(3, 3), stride=(1, 1), padding=(1, 1), groups=320, bias=False)
                (norm): BatchNorm2d(320, eps=1e-05, momentum=0.1, affine=True, track_running_stats=True)
              )
              (ffn): FFN(
                (fc1): ConvLayer2D(
                  (conv): Conv2d(320, 1280, kernel_size=(1, 1), stride=(1, 1), bias=False)
                  (norm): BatchNorm2d(1280, eps=1e-05, momentum=0.1, affine=True, track_running_stats=True)
                  (act): ReLU()
                )
                (fc2): ConvLayer2D(
                  (conv): Conv2d(1280, 320, kernel_size=(1, 1), stride=(1, 1), bias=False)
                  (norm): BatchNorm2d(320, eps=1e-05, momentum=0.1, affine=True, track_running_stats=True)
                )
              )
            )
            (2): EfficientViMBlock(
              (mixer): HSMSSD(
                (BCdt_proj): ConvLayer1D(
                  (conv): Conv1d(320, 96, kernel_size=(1,), stride=(1,), bias=False)
                )
                (dw): ConvLayer2D(
                  (conv): Conv2d(96, 96, kernel_size=(3, 3), stride=(1, 1), padding=(1, 1), groups=96, bias=False)
                )
                (hz_proj): ConvLayer1D(
                  (conv): Conv1d(320, 640, kernel_size=(1,), stride=(1,), bias=False)
                )
                (out_proj): ConvLayer1D(
                  (conv): Conv1d(320, 320, kernel_size=(1,), stride=(1,), bias=False)
                )
                (act): SiLU()
              )
              (norm): LayerNorm1D()
              (dwconv1): ConvLayer2D(
                (conv): Conv2d(320, 320, kernel_size=(3, 3), stride=(1, 1), padding=(1, 1), groups=320, bias=False)
                (norm): BatchNorm2d(320, eps=1e-05, momentum=0.1, affine=True, track_running_stats=True)
              )
              (dwconv2): ConvLayer2D(
                (conv): Conv2d(320, 320, kernel_size=(3, 3), stride=(1, 1), padding=(1, 1), groups=320, bias=False)
                (norm): BatchNorm2d(320, eps=1e-05, momentum=0.1, affine=True, track_running_stats=True)
              )
              (ffn): FFN(
                (fc1): ConvLayer2D(
                  (conv): Conv2d(320, 1280, kernel_size=(1, 1), stride=(1, 1), bias=False)
                  (norm): BatchNorm2d(1280, eps=1e-05, momentum=0.1, affine=True, track_running_stats=True)
                  (act): ReLU()
                )
                (fc2): ConvLayer2D(
                  (conv): Conv2d(1280, 320, kernel_size=(1, 1), stride=(1, 1), bias=False)
                  (norm): BatchNorm2d(320, eps=1e-05, momentum=0.1, affine=True, track_running_stats=True)
                )
              )
            )
            (3): EfficientViMBlock(
              (mixer): HSMSSD(
                (BCdt_proj): ConvLayer1D(
                  (conv): Conv1d(320, 96, kernel_size=(1,), stride=(1,), bias=False)
                )
                (dw): ConvLayer2D(
                  (conv): Conv2d(96, 96, kernel_size=(3, 3), stride=(1, 1), padding=(1, 1), groups=96, bias=False)
                )
                (hz_proj): ConvLayer1D(
                  (conv): Conv1d(320, 640, kernel_size=(1,), stride=(1,), bias=False)
                )
                (out_proj): ConvLayer1D(
                  (conv): Conv1d(320, 320, kernel_size=(1,), stride=(1,), bias=False)
                )
                (act): SiLU()
              )
              (norm): LayerNorm1D()
              (dwconv1): ConvLayer2D(
                (conv): Conv2d(320, 320, kernel_size=(3, 3), stride=(1, 1), padding=(1, 1), groups=320, bias=False)
                (norm): BatchNorm2d(320, eps=1e-05, momentum=0.1, affine=True, track_running_stats=True)
              )
              (dwconv2): ConvLayer2D(
                (conv): Conv2d(320, 320, kernel_size=(3, 3), stride=(1, 1), padding=(1, 1), groups=320, bias=False)
                (norm): BatchNorm2d(320, eps=1e-05, momentum=0.1, affine=True, track_running_stats=True)
              )
              (ffn): FFN(
                (fc1): ConvLayer2D(
                  (conv): Conv2d(320, 1280, kernel_size=(1, 1), stride=(1, 1), bias=False)
                  (norm): BatchNorm2d(1280, eps=1e-05, momentum=0.1, affine=True, track_running_stats=True)
                  (act): ReLU()
                )
                (fc2): ConvLayer2D(
                  (conv): Conv2d(1280, 320, kernel_size=(1, 1), stride=(1, 1), bias=False)
                  (norm): BatchNorm2d(320, eps=1e-05, momentum=0.1, affine=True, track_running_stats=True)
                )
              )
            )
          )
          (downsample): PatchMerging(
            (conv): Sequential(
              (0): ConvLayer2D(
                (conv): Conv2d(320, 2048, kernel_size=(1, 1), stride=(1, 1), bias=False)
                (norm): BatchNorm2d(2048, eps=1e-05, momentum=0.1, affine=True, track_running_stats=True)
                (act): ReLU()
              )
              (1): ConvLayer2D(
                (conv): Conv2d(2048, 2048, kernel_size=(3, 3), stride=(2, 2), padding=(1, 1), groups=2048, bias=False)
                (norm): BatchNorm2d(2048, eps=1e-05, momentum=0.1, affine=True, track_running_stats=True)
                (act): ReLU()
              )
              (2): SEModule(
                (fc1): Conv2d(2048, 512, kernel_size=(1, 1), stride=(1, 1))
                (bn): Identity()
                (act): ReLU(inplace=True)
                (fc2): Conv2d(512, 2048, kernel_size=(1, 1), stride=(1, 1))
                (gate): Sigmoid()
              )
              (3): ConvLayer2D(
                (conv): Conv2d(2048, 512, kernel_size=(1, 1), stride=(1, 1), bias=False)
                (norm): BatchNorm2d(512, eps=1e-05, momentum=0.1, affine=True, track_running_stats=True)
              )
            )
            (dwconv1): ConvLayer2D(
              (conv): Conv2d(320, 320, kernel_size=(3, 3), stride=(1, 1), padding=(1, 1), groups=320, bias=False)
              (norm): BatchNorm2d(320, eps=1e-05, momentum=0.1, affine=True, track_running_stats=True)
            )
            (dwconv2): ConvLayer2D(
              (conv): Conv2d(512, 512, kernel_size=(3, 3), stride=(1, 1), padding=(1, 1), groups=512, bias=False)
              (norm): BatchNorm2d(512, eps=1e-05, momentum=0.1, affine=True, track_running_stats=True)
            )
          )
        )
        (2): EfficientViMStage(
          (blocks): ModuleList(
            (0): EfficientViMBlock(
              (mixer): HSMSSD(
                (BCdt_proj): ConvLayer1D(
                  (conv): Conv1d(512, 48, kernel_size=(1,), stride=(1,), bias=False)
                )
                (dw): ConvLayer2D(
                  (conv): Conv2d(48, 48, kernel_size=(3, 3), stride=(1, 1), padding=(1, 1), groups=48, bias=False)
                )
                (hz_proj): ConvLayer1D(
                  (conv): Conv1d(512, 1024, kernel_size=(1,), stride=(1,), bias=False)
                )
                (out_proj): ConvLayer1D(
                  (conv): Conv1d(512, 512, kernel_size=(1,), stride=(1,), bias=False)
                )
                (act): SiLU()
              )
              (norm): LayerNorm1D()
              (dwconv1): ConvLayer2D(
                (conv): Conv2d(512, 512, kernel_size=(3, 3), stride=(1, 1), padding=(1, 1), groups=512, bias=False)
                (norm): BatchNorm2d(512, eps=1e-05, momentum=0.1, affine=True, track_running_stats=True)
              )
              (dwconv2): ConvLayer2D(
                (conv): Conv2d(512, 512, kernel_size=(3, 3), stride=(1, 1), padding=(1, 1), groups=512, bias=False)
                (norm): BatchNorm2d(512, eps=1e-05, momentum=0.1, affine=True, track_running_stats=True)
              )
              (ffn): FFN(
                (fc1): ConvLayer2D(
                  (conv): Conv2d(512, 2048, kernel_size=(1, 1), stride=(1, 1), bias=False)
                  (norm): BatchNorm2d(2048, eps=1e-05, momentum=0.1, affine=True, track_running_stats=True)
                  (act): ReLU()
                )
                (fc2): ConvLayer2D(
                  (conv): Conv2d(2048, 512, kernel_size=(1, 1), stride=(1, 1), bias=False)
                  (norm): BatchNorm2d(512, eps=1e-05, momentum=0.1, affine=True, track_running_stats=True)
                )
              )
            )
            (1): EfficientViMBlock(
              (mixer): HSMSSD(
                (BCdt_proj): ConvLayer1D(
                  (conv): Conv1d(512, 48, kernel_size=(1,), stride=(1,), bias=False)
                )
                (dw): ConvLayer2D(
                  (conv): Conv2d(48, 48, kernel_size=(3, 3), stride=(1, 1), padding=(1, 1), groups=48, bias=False)
                )
                (hz_proj): ConvLayer1D(
                  (conv): Conv1d(512, 1024, kernel_size=(1,), stride=(1,), bias=False)
                )
                (out_proj): ConvLayer1D(
                  (conv): Conv1d(512, 512, kernel_size=(1,), stride=(1,), bias=False)
                )
                (act): SiLU()
              )
              (norm): LayerNorm1D()
              (dwconv1): ConvLayer2D(
                (conv): Conv2d(512, 512, kernel_size=(3, 3), stride=(1, 1), padding=(1, 1), groups=512, bias=False)
                (norm): BatchNorm2d(512, eps=1e-05, momentum=0.1, affine=True, track_running_stats=True)
              )
              (dwconv2): ConvLayer2D(
                (conv): Conv2d(512, 512, kernel_size=(3, 3), stride=(1, 1), padding=(1, 1), groups=512, bias=False)
                (norm): BatchNorm2d(512, eps=1e-05, momentum=0.1, affine=True, track_running_stats=True)
              )
              (ffn): FFN(
                (fc1): ConvLayer2D(
                  (conv): Conv2d(512, 2048, kernel_size=(1, 1), stride=(1, 1), bias=False)
                  (norm): BatchNorm2d(2048, eps=1e-05, momentum=0.1, affine=True, track_running_stats=True)
                  (act): ReLU()
                )
                (fc2): ConvLayer2D(
                  (conv): Conv2d(2048, 512, kernel_size=(1, 1), stride=(1, 1), bias=False)
                  (norm): BatchNorm2d(512, eps=1e-05, momentum=0.1, affine=True, track_running_stats=True)
                )
              )
            )
          )
        )
      )
    )
    init_cfg={'type': 'Pretrained', 'checkpoint': 'pretrained/EfficientViM_M4_e450.pth'}
    (neck): CrossDomainAttNeck(
      (uda_blocks): ModuleList(
        (0): UdaAttentionBlock(
          (norm1): LayerNorm((224,), eps=1e-05, elementwise_affine=True)
          (encoder): SelfAttentionBlock(
            (key_project): ConvModule(
              (conv): Conv2d(224, 448, kernel_size=(1, 1), stride=(1, 1), bias=False)
              (bn): BatchNorm2d(448, eps=1e-05, momentum=0.1, affine=True, track_running_stats=True)
              (activate): ReLU(inplace=True)
            )
            (query_project): ConvModule(
              (conv): Conv2d(224, 448, kernel_size=(1, 1), stride=(1, 1), bias=False)
              (bn): BatchNorm2d(448, eps=1e-05, momentum=0.1, affine=True, track_running_stats=True)
              (activate): ReLU(inplace=True)
            )
            (value_project): Conv2d(224, 224, kernel_size=(1, 1), stride=(1, 1))
            (output_project): ConvModule(
              (conv): Conv2d(224, 224, kernel_size=(1, 1), stride=(1, 1), bias=False)
              (bn): BatchNorm2d(224, eps=1e-05, momentum=0.1, affine=True, track_running_stats=True)
              (activate): ReLU(inplace=True)
            )
          )
          (decoder): SelfAttentionBlock(
            (key_project): ConvModule(
              (conv): Conv2d(224, 448, kernel_size=(1, 1), stride=(1, 1), bias=False)
              (bn): BatchNorm2d(448, eps=1e-05, momentum=0.1, affine=True, track_running_stats=True)
              (activate): ReLU(inplace=True)
            )
            (query_project): ConvModule(
              (conv): Conv2d(224, 448, kernel_size=(1, 1), stride=(1, 1), bias=False)
              (bn): BatchNorm2d(448, eps=1e-05, momentum=0.1, affine=True, track_running_stats=True)
              (activate): ReLU(inplace=True)
            )
            (value_project): Conv2d(224, 224, kernel_size=(1, 1), stride=(1, 1))
            (output_project): ConvModule(
              (conv): Conv2d(224, 224, kernel_size=(1, 1), stride=(1, 1), bias=False)
              (bn): BatchNorm2d(224, eps=1e-05, momentum=0.1, affine=True, track_running_stats=True)
              (activate): ReLU(inplace=True)
            )
          )
          (mix_att): SelfAttentionBlock(
            (key_project): ConvModule(
              (conv): Conv2d(224, 448, kernel_size=(1, 1), stride=(1, 1), bias=False)
              (bn): BatchNorm2d(448, eps=1e-05, momentum=0.1, affine=True, track_running_stats=True)
              (activate): ReLU(inplace=True)
            )
            (query_project): ConvModule(
              (conv): Conv2d(224, 448, kernel_size=(1, 1), stride=(1, 1), bias=False)
              (bn): BatchNorm2d(448, eps=1e-05, momentum=0.1, affine=True, track_running_stats=True)
              (activate): ReLU(inplace=True)
            )
            (value_project): Conv2d(224, 224, kernel_size=(1, 1), stride=(1, 1))
            (output_project): ConvModule(
              (conv): Conv2d(224, 224, kernel_size=(1, 1), stride=(1, 1), bias=False)
              (bn): BatchNorm2d(224, eps=1e-05, momentum=0.1, affine=True, track_running_stats=True)
              (activate): ReLU(inplace=True)
            )
          )
          (out_conv): ConvModule(
            (conv): Conv2d(448, 224, kernel_size=(1, 1), stride=(1, 1), bias=False)
            (bn): BatchNorm2d(224, eps=1e-05, momentum=0.1, affine=True, track_running_stats=True)
            (activate): ReLU(inplace=True)
          )
          (drop_path): DropPath()
        )
        (1): UdaAttentionBlock(
          (norm1): LayerNorm((320,), eps=1e-05, elementwise_affine=True)
          (encoder): SelfAttentionBlock(
            (key_project): ConvModule(
              (conv): Conv2d(320, 640, kernel_size=(1, 1), stride=(1, 1), bias=False)
              (bn): BatchNorm2d(640, eps=1e-05, momentum=0.1, affine=True, track_running_stats=True)
              (activate): ReLU(inplace=True)
            )
            (query_project): ConvModule(
              (conv): Conv2d(320, 640, kernel_size=(1, 1), stride=(1, 1), bias=False)
              (bn): BatchNorm2d(640, eps=1e-05, momentum=0.1, affine=True, track_running_stats=True)
              (activate): ReLU(inplace=True)
            )
            (value_project): Conv2d(320, 320, kernel_size=(1, 1), stride=(1, 1))
            (output_project): ConvModule(
              (conv): Conv2d(320, 320, kernel_size=(1, 1), stride=(1, 1), bias=False)
              (bn): BatchNorm2d(320, eps=1e-05, momentum=0.1, affine=True, track_running_stats=True)
              (activate): ReLU(inplace=True)
            )
          )
          (decoder): SelfAttentionBlock(
            (key_project): ConvModule(
              (conv): Conv2d(320, 640, kernel_size=(1, 1), stride=(1, 1), bias=False)
              (bn): BatchNorm2d(640, eps=1e-05, momentum=0.1, affine=True, track_running_stats=True)
              (activate): ReLU(inplace=True)
            )
            (query_project): ConvModule(
              (conv): Conv2d(320, 640, kernel_size=(1, 1), stride=(1, 1), bias=False)
              (bn): BatchNorm2d(640, eps=1e-05, momentum=0.1, affine=True, track_running_stats=True)
              (activate): ReLU(inplace=True)
            )
            (value_project): Conv2d(320, 320, kernel_size=(1, 1), stride=(1, 1))
            (output_project): ConvModule(
              (conv): Conv2d(320, 320, kernel_size=(1, 1), stride=(1, 1), bias=False)
              (bn): BatchNorm2d(320, eps=1e-05, momentum=0.1, affine=True, track_running_stats=True)
              (activate): ReLU(inplace=True)
            )
          )
          (mix_att): SelfAttentionBlock(
            (key_project): ConvModule(
              (conv): Conv2d(320, 640, kernel_size=(1, 1), stride=(1, 1), bias=False)
              (bn): BatchNorm2d(640, eps=1e-05, momentum=0.1, affine=True, track_running_stats=True)
              (activate): ReLU(inplace=True)
            )
            (query_project): ConvModule(
              (conv): Conv2d(320, 640, kernel_size=(1, 1), stride=(1, 1), bias=False)
              (bn): BatchNorm2d(640, eps=1e-05, momentum=0.1, affine=True, track_running_stats=True)
              (activate): ReLU(inplace=True)
            )
            (value_project): Conv2d(320, 320, kernel_size=(1, 1), stride=(1, 1))
            (output_project): ConvModule(
              (conv): Conv2d(320, 320, kernel_size=(1, 1), stride=(1, 1), bias=False)
              (bn): BatchNorm2d(320, eps=1e-05, momentum=0.1, affine=True, track_running_stats=True)
              (activate): ReLU(inplace=True)
            )
          )
          (out_conv): ConvModule(
            (conv): Conv2d(640, 320, kernel_size=(1, 1), stride=(1, 1), bias=False)
            (bn): BatchNorm2d(320, eps=1e-05, momentum=0.1, affine=True, track_running_stats=True)
            (activate): ReLU(inplace=True)
          )
          (drop_path): DropPath()
        )
        (2): UdaAttentionBlock(
          (norm1): LayerNorm((512,), eps=1e-05, elementwise_affine=True)
          (encoder): SelfAttentionBlock(
            (key_project): ConvModule(
              (conv): Conv2d(512, 1024, kernel_size=(1, 1), stride=(1, 1), bias=False)
              (bn): BatchNorm2d(1024, eps=1e-05, momentum=0.1, affine=True, track_running_stats=True)
              (activate): ReLU(inplace=True)
            )
            (query_project): ConvModule(
              (conv): Conv2d(512, 1024, kernel_size=(1, 1), stride=(1, 1), bias=False)
              (bn): BatchNorm2d(1024, eps=1e-05, momentum=0.1, affine=True, track_running_stats=True)
              (activate): ReLU(inplace=True)
            )
            (value_project): Conv2d(512, 512, kernel_size=(1, 1), stride=(1, 1))
            (output_project): ConvModule(
              (conv): Conv2d(512, 512, kernel_size=(1, 1), stride=(1, 1), bias=False)
              (bn): BatchNorm2d(512, eps=1e-05, momentum=0.1, affine=True, track_running_stats=True)
              (activate): ReLU(inplace=True)
            )
          )
          (decoder): SelfAttentionBlock(
            (key_project): ConvModule(
              (conv): Conv2d(512, 1024, kernel_size=(1, 1), stride=(1, 1), bias=False)
              (bn): BatchNorm2d(1024, eps=1e-05, momentum=0.1, affine=True, track_running_stats=True)
              (activate): ReLU(inplace=True)
            )
            (query_project): ConvModule(
              (conv): Conv2d(512, 1024, kernel_size=(1, 1), stride=(1, 1), bias=False)
              (bn): BatchNorm2d(1024, eps=1e-05, momentum=0.1, affine=True, track_running_stats=True)
              (activate): ReLU(inplace=True)
            )
            (value_project): Conv2d(512, 512, kernel_size=(1, 1), stride=(1, 1))
            (output_project): ConvModule(
              (conv): Conv2d(512, 512, kernel_size=(1, 1), stride=(1, 1), bias=False)
              (bn): BatchNorm2d(512, eps=1e-05, momentum=0.1, affine=True, track_running_stats=True)
              (activate): ReLU(inplace=True)
            )
          )
          (mix_att): SelfAttentionBlock(
            (key_project): ConvModule(
              (conv): Conv2d(512, 1024, kernel_size=(1, 1), stride=(1, 1), bias=False)
              (bn): BatchNorm2d(1024, eps=1e-05, momentum=0.1, affine=True, track_running_stats=True)
              (activate): ReLU(inplace=True)
            )
            (query_project): ConvModule(
              (conv): Conv2d(512, 1024, kernel_size=(1, 1), stride=(1, 1), bias=False)
              (bn): BatchNorm2d(1024, eps=1e-05, momentum=0.1, affine=True, track_running_stats=True)
              (activate): ReLU(inplace=True)
            )
            (value_project): Conv2d(512, 512, kernel_size=(1, 1), stride=(1, 1))
            (output_project): ConvModule(
              (conv): Conv2d(512, 512, kernel_size=(1, 1), stride=(1, 1), bias=False)
              (bn): BatchNorm2d(512, eps=1e-05, momentum=0.1, affine=True, track_running_stats=True)
              (activate): ReLU(inplace=True)
            )
          )
          (out_conv): ConvModule(
            (conv): Conv2d(1024, 512, kernel_size=(1, 1), stride=(1, 1), bias=False)
            (bn): BatchNorm2d(512, eps=1e-05, momentum=0.1, affine=True, track_running_stats=True)
            (activate): ReLU(inplace=True)
          )
          (drop_path): DropPath()
        )
      )
    )
    (decode_head): DAFormerHead(
      input_transform=multiple_select, ignore_index=255, align_corners=False
      (loss_decode): CrossEntropyLoss()
      (conv_seg): Conv2d(256, 19, kernel_size=(1, 1), stride=(1, 1))
      (dropout): Dropout2d(p=0.1, inplace=False)
      (embed_layers): ModuleDict(
        (0): MLP(
          (proj): Linear(in_features=224, out_features=256, bias=True)
        )
        (1): MLP(
          (proj): Linear(in_features=320, out_features=256, bias=True)
        )
        (2): MLP(
          (proj): Linear(in_features=512, out_features=256, bias=True)
        )
      )
      (fuse_layer): ASPPWrapper(
        (aspp_modules): DepthwiseSeparableASPPModule(
          (0): ConvModule(
            (conv): Conv2d(768, 256, kernel_size=(1, 1), stride=(1, 1), bias=False)
            (bn): BatchNorm2d(256, eps=1e-05, momentum=0.1, affine=True, track_running_stats=True)
            (activate): ReLU(inplace=True)
          )
          (1): DepthwiseSeparableConvModule(
            (depthwise_conv): ConvModule(
              (conv): Conv2d(768, 768, kernel_size=(3, 3), stride=(1, 1), padding=(6, 6), dilation=(6, 6), groups=768, bias=False)
              (bn): BatchNorm2d(768, eps=1e-05, momentum=0.1, affine=True, track_running_stats=True)
              (activate): ReLU(inplace=True)
            )
            (pointwise_conv): ConvModule(
              (conv): Conv2d(768, 256, kernel_size=(1, 1), stride=(1, 1), bias=False)
              (bn): BatchNorm2d(256, eps=1e-05, momentum=0.1, affine=True, track_running_stats=True)
              (activate): ReLU(inplace=True)
            )
          )
          (2): DepthwiseSeparableConvModule(
            (depthwise_conv): ConvModule(
              (conv): Conv2d(768, 768, kernel_size=(3, 3), stride=(1, 1), padding=(12, 12), dilation=(12, 12), groups=768, bias=False)
              (bn): BatchNorm2d(768, eps=1e-05, momentum=0.1, affine=True, track_running_stats=True)
              (activate): ReLU(inplace=True)
            )
            (pointwise_conv): ConvModule(
              (conv): Conv2d(768, 256, kernel_size=(1, 1), stride=(1, 1), bias=False)
              (bn): BatchNorm2d(256, eps=1e-05, momentum=0.1, affine=True, track_running_stats=True)
              (activate): ReLU(inplace=True)
            )
          )
          (3): DepthwiseSeparableConvModule(
            (depthwise_conv): ConvModule(
              (conv): Conv2d(768, 768, kernel_size=(3, 3), stride=(1, 1), padding=(18, 18), dilation=(18, 18), groups=768, bias=False)
              (bn): BatchNorm2d(768, eps=1e-05, momentum=0.1, affine=True, track_running_stats=True)
              (activate): ReLU(inplace=True)
            )
            (pointwise_conv): ConvModule(
              (conv): Conv2d(768, 256, kernel_size=(1, 1), stride=(1, 1), bias=False)
              (bn): BatchNorm2d(256, eps=1e-05, momentum=0.1, affine=True, track_running_stats=True)
              (activate): ReLU(inplace=True)
            )
          )
        )
        (bottleneck): ConvModule(
          (conv): Conv2d(1024, 256, kernel_size=(3, 3), stride=(1, 1), padding=(1, 1), bias=False)
          (bn): BatchNorm2d(256, eps=1e-05, momentum=0.1, affine=True, track_running_stats=True)
          (activate): ReLU(inplace=True)
        )
      )
    )
    init_cfg={'type': 'Normal', 'std': 0.01, 'override': {'name': 'conv_seg'}}
  )
)
2025-09-18 11:32:56,070 - mmseg - INFO - Loaded 24966 images from /home/Hung_Data/HungData/mmseg_data/Datasets/gta/images
2025-09-18 11:32:56,115 - mmseg - INFO - Loaded 2975 images from /home/Hung_Data/HungData/mmseg_data/Datasets/cityscapes/leftImg8bit/train
…
