…
ema_model.decode_head.fuse_layer.bottleneck.conv.weight - torch.Size([256, 1024, 3, 3]): 
The value is the same before and after calling `init_weights` of UDANeck_DACS  

ema_model.decode_head.fuse_layer.bottleneck.bn.weight - torch.Size([256]): 
The value is the same before and after calling `init_weights` of UDANeck_DACS  

ema_model.decode_head.fuse_layer.bottleneck.bn.bias - torch.Size([256]): 
The value is the same before and after calling `init_weights` of UDANeck_DACS  
2026-04-30 01:32:54,927 - mmseg - INFO - UDANeck_DACS(
  (model): EncoderDecoder(
    (backbone): mit_b5(
      (patch_embed1): OverlapPatchEmbed(
        (proj): Conv2d(3, 64, kernel_size=(7, 7), stride=(4, 4), padding=(3, 3))
        (norm): LayerNorm((64,), eps=1e-05, elementwise_affine=True)
      )
      (patch_embed2): OverlapPatchEmbed(
        (proj): Conv2d(64, 128, kernel_size=(3, 3), stride=(2, 2), padding=(1, 1))
        (norm): LayerNorm((128,), eps=1e-05, elementwise_affine=True)
      )
      (patch_embed3): OverlapPatchEmbed(
        (proj): Conv2d(128, 320, kernel_size=(3, 3), stride=(2, 2), padding=(1, 1))
        (norm): LayerNorm((320,), eps=1e-05, elementwise_affine=True)
      )
      (patch_embed4): OverlapPatchEmbed(
        (proj): Conv2d(320, 512, kernel_size=(3, 3), stride=(2, 2), padding=(1, 1))
        (norm): LayerNorm((512,), eps=1e-05, elementwise_affine=True)
      )
      (block1): ModuleList(
        (0): Block(
          (norm1): LayerNorm((64,), eps=1e-06, elementwise_affine=True)
          (attn): Attention(
            (q): Linear(in_features=64, out_features=64, bias=True)
            (kv): Linear(in_features=64, out_features=128, bias=True)
            (attn_drop): Dropout(p=0.0, inplace=False)
            (proj): Linear(in_features=64, out_features=64, bias=True)
            (proj_drop): Dropout(p=0.0, inplace=False)
            (sr): Conv2d(64, 64, kernel_size=(8, 8), stride=(8, 8))
            (norm): LayerNorm((64,), eps=1e-05, elementwise_affine=True)
          )
          (drop_path): Identity()
          (norm2): LayerNorm((64,), eps=1e-06, elementwise_affine=True)
          (mlp): Mlp(
            (fc1): Linear(in_features=64, out_features=256, bias=True)
            (dwconv): DWConv(
              (dwconv): Conv2d(256, 256, kernel_size=(3, 3), stride=(1, 1), padding=(1, 1), groups=256)
            )
            (act): GELU()
            (fc2): Linear(in_features=256, out_features=64, bias=True)
            (drop): Dropout(p=0.0, inplace=False)
          )
        )
        (1): Block(
          (norm1): LayerNorm((64,), eps=1e-06, elementwise_affine=True)
          (attn): Attention(
            (q): Linear(in_features=64, out_features=64, bias=True)
            (kv): Linear(in_features=64, out_features=128, bias=True)
            (attn_drop): Dropout(p=0.0, inplace=False)
            (proj): Linear(in_features=64, out_features=64, bias=True)
            (proj_drop): Dropout(p=0.0, inplace=False)
            (sr): Conv2d(64, 64, kernel_size=(8, 8), stride=(8, 8))
            (norm): LayerNorm((64,), eps=1e-05, elementwise_affine=True)
          )
          (drop_path): DropPath()
          (norm2): LayerNorm((64,), eps=1e-06, elementwise_affine=True)
          (mlp): Mlp(
            (fc1): Linear(in_features=64, out_features=256, bias=True)
            (dwconv): DWConv(
              (dwconv): Conv2d(256, 256, kernel_size=(3, 3), stride=(1, 1), padding=(1, 1), groups=256)
            )
            (act): GELU()
            (fc2): Linear(in_features=256, out_features=64, bias=True)
            (drop): Dropout(p=0.0, inplace=False)
          )
        )
        (2): Block(
          (norm1): LayerNorm((64,), eps=1e-06, elementwise_affine=True)
          (attn): Attention(
            (q): Linear(in_features=64, out_features=64, bias=True)
            (kv): Linear(in_features=64, out_features=128, bias=True)
            (attn_drop): Dropout(p=0.0, inplace=False)
            (proj): Linear(in_features=64, out_features=64, bias=True)
            (proj_drop): Dropout(p=0.0, inplace=False)
            (sr): Conv2d(64, 64, kernel_size=(8, 8), stride=(8, 8))
            (norm): LayerNorm((64,), eps=1e-05, elementwise_affine=True)
          )
          (drop_path): DropPath()
          (norm2): LayerNorm((64,), eps=1e-06, elementwise_affine=True)
          (mlp): Mlp(
            (fc1): Linear(in_features=64, out_features=256, bias=True)
            (dwconv): DWConv(
              (dwconv): Conv2d(256, 256, kernel_size=(3, 3), stride=(1, 1), padding=(1, 1), groups=256)
            )
            (act): GELU()
            (fc2): Linear(in_features=256, out_features=64, bias=True)
            (drop): Dropout(p=0.0, inplace=False)
          )
        )
      )
      (norm1): LayerNorm((64,), eps=1e-06, elementwise_affine=True)
      (block2): ModuleList(
        (0): Block(
          (norm1): LayerNorm((128,), eps=1e-06, elementwise_affine=True)
          (attn): Attention(
            (q): Linear(in_features=128, out_features=128, bias=True)
            (kv): Linear(in_features=128, out_features=256, bias=True)
            (attn_drop): Dropout(p=0.0, inplace=False)
            (proj): Linear(in_features=128, out_features=128, bias=True)
            (proj_drop): Dropout(p=0.0, inplace=False)
            (sr): Conv2d(128, 128, kernel_size=(4, 4), stride=(4, 4))
            (norm): LayerNorm((128,), eps=1e-05, elementwise_affine=True)
          )
          (drop_path): DropPath()
          (norm2): LayerNorm((128,), eps=1e-06, elementwise_affine=True)
          (mlp): Mlp(
            (fc1): Linear(in_features=128, out_features=512, bias=True)
            (dwconv): DWConv(
              (dwconv): Conv2d(512, 512, kernel_size=(3, 3), stride=(1, 1), padding=(1, 1), groups=512)
            )
            (act): GELU()
            (fc2): Linear(in_features=512, out_features=128, bias=True)
            (drop): Dropout(p=0.0, inplace=False)
          )
        )
        (1): Block(
          (norm1): LayerNorm((128,), eps=1e-06, elementwise_affine=True)
          (attn): Attention(
            (q): Linear(in_features=128, out_features=128, bias=True)
            (kv): Linear(in_features=128, out_features=256, bias=True)
            (attn_drop): Dropout(p=0.0, inplace=False)
            (proj): Linear(in_features=128, out_features=128, bias=True)
            (proj_drop): Dropout(p=0.0, inplace=False)
            (sr): Conv2d(128, 128, kernel_size=(4, 4), stride=(4, 4))
            (norm): LayerNorm((128,), eps=1e-05, elementwise_affine=True)
          )
          (drop_path): DropPath()
          (norm2): LayerNorm((128,), eps=1e-06, elementwise_affine=True)
          (mlp): Mlp(
            (fc1): Linear(in_features=128, out_features=512, bias=True)
            (dwconv): DWConv(
              (dwconv): Conv2d(512, 512, kernel_size=(3, 3), stride=(1, 1), padding=(1, 1), groups=512)
            )
            (act): GELU()
            (fc2): Linear(in_features=512, out_features=128, bias=True)
            (drop): Dropout(p=0.0, inplace=False)
          )
        )
        (2): Block(
          (norm1): LayerNorm((128,), eps=1e-06, elementwise_affine=True)
          (attn): Attention(
            (q): Linear(in_features=128, out_features=128, bias=True)
            (kv): Linear(in_features=128, out_features=256, bias=True)
            (attn_drop): Dropout(p=0.0, inplace=False)
            (proj): Linear(in_features=128, out_features=128, bias=True)
            (proj_drop): Dropout(p=0.0, inplace=False)
            (sr): Conv2d(128, 128, kernel_size=(4, 4), stride=(4, 4))
            (norm): LayerNorm((128,), eps=1e-05, elementwise_affine=True)
          )
          (drop_path): DropPath()
          (norm2): LayerNorm((128,), eps=1e-06, elementwise_affine=True)
          (mlp): Mlp(
            (fc1): Linear(in_features=128, out_features=512, bias=True)
            (dwconv): DWConv(
              (dwconv): Conv2d(512, 512, kernel_size=(3, 3), stride=(1, 1), padding=(1, 1), groups=512)
            )
            (act): GELU()
            (fc2): Linear(in_features=512, out_features=128, bias=True)
            (drop): Dropout(p=0.0, inplace=False)
          )
        )
        (3): Block(
          (norm1): LayerNorm((128,), eps=1e-06, elementwise_affine=True)
          (attn): Attention(
            (q): Linear(in_features=128, out_features=128, bias=True)
            (kv): Linear(in_features=128, out_features=256, bias=True)
            (attn_drop): Dropout(p=0.0, inplace=False)
            (proj): Linear(in_features=128, out_features=128, bias=True)
            (proj_drop): Dropout(p=0.0, inplace=False)
            (sr): Conv2d(128, 128, kernel_size=(4, 4), stride=(4, 4))
            (norm): LayerNorm((128,), eps=1e-05, elementwise_affine=True)
          )
          (drop_path): DropPath()
          (norm2): LayerNorm((128,), eps=1e-06, elementwise_affine=True)
          (mlp): Mlp(
            (fc1): Linear(in_features=128, out_features=512, bias=True)
            (dwconv): DWConv(
              (dwconv): Conv2d(512, 512, kernel_size=(3, 3), stride=(1, 1), padding=(1, 1), groups=512)
            )
            (act): GELU()
            (fc2): Linear(in_features=512, out_features=128, bias=True)
            (drop): Dropout(p=0.0, inplace=False)
          )
        )
        (4): Block(
          (norm1): LayerNorm((128,), eps=1e-06, elementwise_affine=True)
          (attn): Attention(
            (q): Linear(in_features=128, out_features=128, bias=True)
            (kv): Linear(in_features=128, out_features=256, bias=True)
            (attn_drop): Dropout(p=0.0, inplace=False)
            (proj): Linear(in_features=128, out_features=128, bias=True)
            (proj_drop): Dropout(p=0.0, inplace=False)
            (sr): Conv2d(128, 128, kernel_size=(4, 4), stride=(4, 4))
            (norm): LayerNorm((128,), eps=1e-05, elementwise_affine=True)
          )
          (drop_path): DropPath()
          (norm2): LayerNorm((128,), eps=1e-06, elementwise_affine=True)
          (mlp): Mlp(
            (fc1): Linear(in_features=128, out_features=512, bias=True)
            (dwconv): DWConv(
              (dwconv): Conv2d(512, 512, kernel_size=(3, 3), stride=(1, 1), padding=(1, 1), groups=512)
            )
            (act): GELU()
            (fc2): Linear(in_features=512, out_features=128, bias=True)
            (drop): Dropout(p=0.0, inplace=False)
          )
        )
        (5): Block(
          (norm1): LayerNorm((128,), eps=1e-06, elementwise_affine=True)
          (attn): Attention(
            (q): Linear(in_features=128, out_features=128, bias=True)
            (kv): Linear(in_features=128, out_features=256, bias=True)
            (attn_drop): Dropout(p=0.0, inplace=False)
            (proj): Linear(in_features=128, out_features=128, bias=True)
            (proj_drop): Dropout(p=0.0, inplace=False)
            (sr): Conv2d(128, 128, kernel_size=(4, 4), stride=(4, 4))
            (norm): LayerNorm((128,), eps=1e-05, elementwise_affine=True)
          )
          (drop_path): DropPath()
          (norm2): LayerNorm((128,), eps=1e-06, elementwise_affine=True)
          (mlp): Mlp(
            (fc1): Linear(in_features=128, out_features=512, bias=True)
            (dwconv): DWConv(
              (dwconv): Conv2d(512, 512, kernel_size=(3, 3), stride=(1, 1), padding=(1, 1), groups=512)
            )
            (act): GELU()
            (fc2): Linear(in_features=512, out_features=128, bias=True)
            (drop): Dropout(p=0.0, inplace=False)
          )
        )
      )
      (norm2): LayerNorm((128,), eps=1e-06, elementwise_affine=True)
      (block3): ModuleList(
        (0): Block(
          (norm1): LayerNorm((320,), eps=1e-06, elementwise_affine=True)
          (attn): Attention(
            (q): Linear(in_features=320, out_features=320, bias=True)
            (kv): Linear(in_features=320, out_features=640, bias=True)
            (attn_drop): Dropout(p=0.0, inplace=False)
            (proj): Linear(in_features=320, out_features=320, bias=True)
            (proj_drop): Dropout(p=0.0, inplace=False)
            (sr): Conv2d(320, 320, kernel_size=(2, 2), stride=(2, 2))
            (norm): LayerNorm((320,), eps=1e-05, elementwise_affine=True)
          )
          (drop_path): DropPath()
          (norm2): LayerNorm((320,), eps=1e-06, elementwise_affine=True)
          (mlp): Mlp(
            (fc1): Linear(in_features=320, out_features=1280, bias=True)
            (dwconv): DWConv(
              (dwconv): Conv2d(1280, 1280, kernel_size=(3, 3), stride=(1, 1), padding=(1, 1), groups=1280)
            )
            (act): GELU()
            (fc2): Linear(in_features=1280, out_features=320, bias=True)
            (drop): Dropout(p=0.0, inplace=False)
          )
        )
        (1): Block(
          (norm1): LayerNorm((320,), eps=1e-06, elementwise_affine=True)
          (attn): Attention(
            (q): Linear(in_features=320, out_features=320, bias=True)
            (kv): Linear(in_features=320, out_features=640, bias=True)
            (attn_drop): Dropout(p=0.0, inplace=False)
            (proj): Linear(in_features=320, out_features=320, bias=True)
            (proj_drop): Dropout(p=0.0, inplace=False)
            (sr): Conv2d(320, 320, kernel_size=(2, 2), stride=(2, 2))
            (norm): LayerNorm((320,), eps=1e-05, elementwise_affine=True)
          )
          (drop_path): DropPath()
          (norm2): LayerNorm((320,), eps=1e-06, elementwise_affine=True)
          (mlp): Mlp(
            (fc1): Linear(in_features=320, out_features=1280, bias=True)
            (dwconv): DWConv(
              (dwconv): Conv2d(1280, 1280, kernel_size=(3, 3), stride=(1, 1), padding=(1, 1), groups=1280)
            )
            (act): GELU()
            (fc2): Linear(in_features=1280, out_features=320, bias=True)
            (drop): Dropout(p=0.0, inplace=False)
          )
        )
        (2): Block(
          (norm1): LayerNorm((320,), eps=1e-06, elementwise_affine=True)
          (attn): Attention(
            (q): Linear(in_features=320, out_features=320, bias=True)
            (kv): Linear(in_features=320, out_features=640, bias=True)
            (attn_drop): Dropout(p=0.0, inplace=False)
            (proj): Linear(in_features=320, out_features=320, bias=True)
            (proj_drop): Dropout(p=0.0, inplace=False)
            (sr): Conv2d(320, 320, kernel_size=(2, 2), stride=(2, 2))
            (norm): LayerNorm((320,), eps=1e-05, elementwise_affine=True)
          )
          (drop_path): DropPath()
          (norm2): LayerNorm((320,), eps=1e-06, elementwise_affine=True)
          (mlp): Mlp(
            (fc1): Linear(in_features=320, out_features=1280, bias=True)
            (dwconv): DWConv(
              (dwconv): Conv2d(1280, 1280, kernel_size=(3, 3), stride=(1, 1), padding=(1, 1), groups=1280)
            )
            (act): GELU()
            (fc2): Linear(in_features=1280, out_features=320, bias=True)
            (drop): Dropout(p=0.0, inplace=False)
          )
        )
        (3): Block(
          (norm1): LayerNorm((320,), eps=1e-06, elementwise_affine=True)
          (attn): Attention(
            (q): Linear(in_features=320, out_features=320, bias=True)
            (kv): Linear(in_features=320, out_features=640, bias=True)
            (attn_drop): Dropout(p=0.0, inplace=False)
            (proj): Linear(in_features=320, out_features=320, bias=True)
            (proj_drop): Dropout(p=0.0, inplace=False)
            (sr): Conv2d(320, 320, kernel_size=(2, 2), stride=(2, 2))
            (norm): LayerNorm((320,), eps=1e-05, elementwise_affine=True)
          )
          (drop_path): DropPath()
          (norm2): LayerNorm((320,), eps=1e-06, elementwise_affine=True)
          (mlp): Mlp(
            (fc1): Linear(in_features=320, out_features=1280, bias=True)
            (dwconv): DWConv(
              (dwconv): Conv2d(1280, 1280, kernel_size=(3, 3), stride=(1, 1), padding=(1, 1), groups=1280)
            )
            (act): GELU()
            (fc2): Linear(in_features=1280, out_features=320, bias=True)
            (drop): Dropout(p=0.0, inplace=False)
          )
        )
        (4): Block(
          (norm1): LayerNorm((320,), eps=1e-06, elementwise_affine=True)
          (attn): Attention(
            (q): Linear(in_features=320, out_features=320, bias=True)
            (kv): Linear(in_features=320, out_features=640, bias=True)
            (attn_drop): Dropout(p=0.0, inplace=False)
            (proj): Linear(in_features=320, out_features=320, bias=True)
            (proj_drop): Dropout(p=0.0, inplace=False)
            (sr): Conv2d(320, 320, kernel_size=(2, 2), stride=(2, 2))
            (norm): LayerNorm((320,), eps=1e-05, elementwise_affine=True)
          )
          (drop_path): DropPath()
          (norm2): LayerNorm((320,), eps=1e-06, elementwise_affine=True)
          (mlp): Mlp(
            (fc1): Linear(in_features=320, out_features=1280, bias=True)
            (dwconv): DWConv(
              (dwconv): Conv2d(1280, 1280, kernel_size=(3, 3), stride=(1, 1), padding=(1, 1), groups=1280)
            )
            (act): GELU()
            (fc2): Linear(in_features=1280, out_features=320, bias=True)
            (drop): Dropout(p=0.0, inplace=False)
          )
        )
        (5): Block(
          (norm1): LayerNorm((320,), eps=1e-06, elementwise_affine=True)
          (attn): Attention(
            (q): Linear(in_features=320, out_features=320, bias=True)
            (kv): Linear(in_features=320, out_features=640, bias=True)
            (attn_drop): Dropout(p=0.0, inplace=False)
            (proj): Linear(in_features=320, out_features=320, bias=True)
            (proj_drop): Dropout(p=0.0, inplace=False)
            (sr): Conv2d(320, 320, kernel_size=(2, 2), stride=(2, 2))
            (norm): LayerNorm((320,), eps=1e-05, elementwise_affine=True)
          )
          (drop_path): DropPath()
          (norm2): LayerNorm((320,), eps=1e-06, elementwise_affine=True)
          (mlp): Mlp(
            (fc1): Linear(in_features=320, out_features=1280, bias=True)
            (dwconv): DWConv(
              (dwconv): Conv2d(1280, 1280, kernel_size=(3, 3), stride=(1, 1), padding=(1, 1), groups=1280)
            )
            (act): GELU()
            (fc2): Linear(in_features=1280, out_features=320, bias=True)
            (drop): Dropout(p=0.0, inplace=False)
          )
        )
        (6): Block(
          (norm1): LayerNorm((320,), eps=1e-06, elementwise_affine=True)
          (attn): Attention(
            (q): Linear(in_features=320, out_features=320, bias=True)
            (kv): Linear(in_features=320, out_features=640, bias=True)
            (attn_drop): Dropout(p=0.0, inplace=False)
            (proj): Linear(in_features=320, out_features=320, bias=True)
            (proj_drop): Dropout(p=0.0, inplace=False)
            (sr): Conv2d(320, 320, kernel_size=(2, 2), stride=(2, 2))
            (norm): LayerNorm((320,), eps=1e-05, elementwise_affine=True)
          )
          (drop_path): DropPath()
          (norm2): LayerNorm((320,), eps=1e-06, elementwise_affine=True)
          (mlp): Mlp(
            (fc1): Linear(in_features=320, out_features=1280, bias=True)
            (dwconv): DWConv(
              (dwconv): Conv2d(1280, 1280, kernel_size=(3, 3), stride=(1, 1), padding=(1, 1), groups=1280)
            )
            (act): GELU()
            (fc2): Linear(in_features=1280, out_features=320, bias=True)
            (drop): Dropout(p=0.0, inplace=False)
          )
        )
        (7): Block(
          (norm1): LayerNorm((320,), eps=1e-06, elementwise_affine=True)
          (attn): Attention(
            (q): Linear(in_features=320, out_features=320, bias=True)
            (kv): Linear(in_features=320, out_features=640, bias=True)
            (attn_drop): Dropout(p=0.0, inplace=False)
            (proj): Linear(in_features=320, out_features=320, bias=True)
            (proj_drop): Dropout(p=0.0, inplace=False)
            (sr): Conv2d(320, 320, kernel_size=(2, 2), stride=(2, 2))
            (norm): LayerNorm((320,), eps=1e-05, elementwise_affine=True)
          )
          (drop_path): DropPath()
          (norm2): LayerNorm((320,), eps=1e-06, elementwise_affine=True)
          (mlp): Mlp(
            (fc1): Linear(in_features=320, out_features=1280, bias=True)
            (dwconv): DWConv(
              (dwconv): Conv2d(1280, 1280, kernel_size=(3, 3), stride=(1, 1), padding=(1, 1), groups=1280)
            )
            (act): GELU()
            (fc2): Linear(in_features=1280, out_features=320, bias=True)
            (drop): Dropout(p=0.0, inplace=False)
          )
        )
        (8): Block(
          (norm1): LayerNorm((320,), eps=1e-06, elementwise_affine=True)
          (attn): Attention(
            (q): Linear(in_features=320, out_features=320, bias=True)
            (kv): Linear(in_features=320, out_features=640, bias=True)
            (attn_drop): Dropout(p=0.0, inplace=False)
            (proj): Linear(in_features=320, out_features=320, bias=True)
            (proj_drop): Dropout(p=0.0, inplace=False)
            (sr): Conv2d(320, 320, kernel_size=(2, 2), stride=(2, 2))
            (norm): LayerNorm((320,), eps=1e-05, elementwise_affine=True)
          )
          (drop_path): DropPath()
          (norm2): LayerNorm((320,), eps=1e-06, elementwise_affine=True)
          (mlp): Mlp(
            (fc1): Linear(in_features=320, out_features=1280, bias=True)
            (dwconv): DWConv(
              (dwconv): Conv2d(1280, 1280, kernel_size=(3, 3), stride=(1, 1), padding=(1, 1), groups=1280)
            )
            (act): GELU()
            (fc2): Linear(in_features=1280, out_features=320, bias=True)
            (drop): Dropout(p=0.0, inplace=False)
          )
        )
        (9): Block(
          (norm1): LayerNorm((320,), eps=1e-06, elementwise_affine=True)
          (attn): Attention(
            (q): Linear(in_features=320, out_features=320, bias=True)
            (kv): Linear(in_features=320, out_features=640, bias=True)
            (attn_drop): Dropout(p=0.0, inplace=False)
            (proj): Linear(in_features=320, out_features=320, bias=True)
            (proj_drop): Dropout(p=0.0, inplace=False)
            (sr): Conv2d(320, 320, kernel_size=(2, 2), stride=(2, 2))
            (norm): LayerNorm((320,), eps=1e-05, elementwise_affine=True)
          )
          (drop_path): DropPath()
          (norm2): LayerNorm((320,), eps=1e-06, elementwise_affine=True)
          (mlp): Mlp(
            (fc1): Linear(in_features=320, out_features=1280, bias=True)
            (dwconv): DWConv(
              (dwconv): Conv2d(1280, 1280, kernel_size=(3, 3), stride=(1, 1), padding=(1, 1), groups=1280)
            )
            (act): GELU()
            (fc2): Linear(in_features=1280, out_features=320, bias=True)
            (drop): Dropout(p=0.0, inplace=False)
          )
        )
        (10): Block(
          (norm1): LayerNorm((320,), eps=1e-06, elementwise_affine=True)
          (attn): Attention(
            (q): Linear(in_features=320, out_features=320, bias=True)
            (kv): Linear(in_features=320, out_features=640, bias=True)
            (attn_drop): Dropout(p=0.0, inplace=False)
            (proj): Linear(in_features=320, out_features=320, bias=True)
            (proj_drop): Dropout(p=0.0, inplace=False)
            (sr): Conv2d(320, 320, kernel_size=(2, 2), stride=(2, 2))
            (norm): LayerNorm((320,), eps=1e-05, elementwise_affine=True)
          )
          (drop_path): DropPath()
          (norm2): LayerNorm((320,), eps=1e-06, elementwise_affine=True)
          (mlp): Mlp(
            (fc1): Linear(in_features=320, out_features=1280, bias=True)
            (dwconv): DWConv(
              (dwconv): Conv2d(1280, 1280, kernel_size=(3, 3), stride=(1, 1), padding=(1, 1), groups=1280)
            )
            (act): GELU()
            (fc2): Linear(in_features=1280, out_features=320, bias=True)
            (drop): Dropout(p=0.0, inplace=False)
          )
        )
        (11): Block(
          (norm1): LayerNorm((320,), eps=1e-06, elementwise_affine=True)
          (attn): Attention(
            (q): Linear(in_features=320, out_features=320, bias=True)
            (kv): Linear(in_features=320, out_features=640, bias=True)
            (attn_drop): Dropout(p=0.0, inplace=False)
            (proj): Linear(in_features=320, out_features=320, bias=True)
            (proj_drop): Dropout(p=0.0, inplace=False)
            (sr): Conv2d(320, 320, kernel_size=(2, 2), stride=(2, 2))
            (norm): LayerNorm((320,), eps=1e-05, elementwise_affine=True)
          )
          (drop_path): DropPath()
          (norm2): LayerNorm((320,), eps=1e-06, elementwise_affine=True)
          (mlp): Mlp(
            (fc1): Linear(in_features=320, out_features=1280, bias=True)
            (dwconv): DWConv(
              (dwconv): Conv2d(1280, 1280, kernel_size=(3, 3), stride=(1, 1), padding=(1, 1), groups=1280)
            )
            (act): GELU()
            (fc2): Linear(in_features=1280, out_features=320, bias=True)
            (drop): Dropout(p=0.0, inplace=False)
          )
        )
        (12): Block(
          (norm1): LayerNorm((320,), eps=1e-06, elementwise_affine=True)
          (attn): Attention(
            (q): Linear(in_features=320, out_features=320, bias=True)
            (kv): Linear(in_features=320, out_features=640, bias=True)
            (attn_drop): Dropout(p=0.0, inplace=False)
            (proj): Linear(in_features=320, out_features=320, bias=True)
            (proj_drop): Dropout(p=0.0, inplace=False)
            (sr): Conv2d(320, 320, kernel_size=(2, 2), stride=(2, 2))
            (norm): LayerNorm((320,), eps=1e-05, elementwise_affine=True)
          )
          (drop_path): DropPath()
          (norm2): LayerNorm((320,), eps=1e-06, elementwise_affine=True)
          (mlp): Mlp(
            (fc1): Linear(in_features=320, out_features=1280, bias=True)
            (dwconv): DWConv(
              (dwconv): Conv2d(1280, 1280, kernel_size=(3, 3), stride=(1, 1), padding=(1, 1), groups=1280)
            )
            (act): GELU()
            (fc2): Linear(in_features=1280, out_features=320, bias=True)
            (drop): Dropout(p=0.0, inplace=False)
          )
        )
        (13): Block(
          (norm1): LayerNorm((320,), eps=1e-06, elementwise_affine=True)
          (attn): Attention(
            (q): Linear(in_features=320, out_features=320, bias=True)
            (kv): Linear(in_features=320, out_features=640, bias=True)
            (attn_drop): Dropout(p=0.0, inplace=False)
            (proj): Linear(in_features=320, out_features=320, bias=True)
            (proj_drop): Dropout(p=0.0, inplace=False)
            (sr): Conv2d(320, 320, kernel_size=(2, 2), stride=(2, 2))
            (norm): LayerNorm((320,), eps=1e-05, elementwise_affine=True)
          )
          (drop_path): DropPath()
          (norm2): LayerNorm((320,), eps=1e-06, elementwise_affine=True)
          (mlp): Mlp(
            (fc1): Linear(in_features=320, out_features=1280, bias=True)
            (dwconv): DWConv(
              (dwconv): Conv2d(1280, 1280, kernel_size=(3, 3), stride=(1, 1), padding=(1, 1), groups=1280)
            )
            (act): GELU()
            (fc2): Linear(in_features=1280, out_features=320, bias=True)
            (drop): Dropout(p=0.0, inplace=False)
          )
        )
        (14): Block(
          (norm1): LayerNorm((320,), eps=1e-06, elementwise_affine=True)
          (attn): Attention(
            (q): Linear(in_features=320, out_features=320, bias=True)
            (kv): Linear(in_features=320, out_features=640, bias=True)
            (attn_drop): Dropout(p=0.0, inplace=False)
            (proj): Linear(in_features=320, out_features=320, bias=True)
            (proj_drop): Dropout(p=0.0, inplace=False)
            (sr): Conv2d(320, 320, kernel_size=(2, 2), stride=(2, 2))
            (norm): LayerNorm((320,), eps=1e-05, elementwise_affine=True)
          )
          (drop_path): DropPath()
          (norm2): LayerNorm((320,), eps=1e-06, elementwise_affine=True)
          (mlp): Mlp(
            (fc1): Linear(in_features=320, out_features=1280, bias=True)
            (dwconv): DWConv(
              (dwconv): Conv2d(1280, 1280, kernel_size=(3, 3), stride=(1, 1), padding=(1, 1), groups=1280)
            )
            (act): GELU()
            (fc2): Linear(in_features=1280, out_features=320, bias=True)
            (drop): Dropout(p=0.0, inplace=False)
          )
        )
        (15): Block(
          (norm1): LayerNorm((320,), eps=1e-06, elementwise_affine=True)
          (attn): Attention(
            (q): Linear(in_features=320, out_features=320, bias=True)
            (kv): Linear(in_features=320, out_features=640, bias=True)
            (attn_drop): Dropout(p=0.0, inplace=False)
            (proj): Linear(in_features=320, out_features=320, bias=True)
            (proj_drop): Dropout(p=0.0, inplace=False)
            (sr): Conv2d(320, 320, kernel_size=(2, 2), stride=(2, 2))
            (norm): LayerNorm((320,), eps=1e-05, elementwise_affine=True)
          )
          (drop_path): DropPath()
          (norm2): LayerNorm((320,), eps=1e-06, elementwise_affine=True)
          (mlp): Mlp(
            (fc1): Linear(in_features=320, out_features=1280, bias=True)
            (dwconv): DWConv(
              (dwconv): Conv2d(1280, 1280, kernel_size=(3, 3), stride=(1, 1), padding=(1, 1), groups=1280)
            )
            (act): GELU()
            (fc2): Linear(in_features=1280, out_features=320, bias=True)
            (drop): Dropout(p=0.0, inplace=False)
          )
        )
        (16): Block(
          (norm1): LayerNorm((320,), eps=1e-06, elementwise_affine=True)
          (attn): Attention(
            (q): Linear(in_features=320, out_features=320, bias=True)
            (kv): Linear(in_features=320, out_features=640, bias=True)
            (attn_drop): Dropout(p=0.0, inplace=False)
            (proj): Linear(in_features=320, out_features=320, bias=True)
            (proj_drop): Dropout(p=0.0, inplace=False)
            (sr): Conv2d(320, 320, kernel_size=(2, 2), stride=(2, 2))
            (norm): LayerNorm((320,), eps=1e-05, elementwise_affine=True)
          )
          (drop_path): DropPath()
          (norm2): LayerNorm((320,), eps=1e-06, elementwise_affine=True)
          (mlp): Mlp(
            (fc1): Linear(in_features=320, out_features=1280, bias=True)
            (dwconv): DWConv(
              (dwconv): Conv2d(1280, 1280, kernel_size=(3, 3), stride=(1, 1), padding=(1, 1), groups=1280)
            )
            (act): GELU()
            (fc2): Linear(in_features=1280, out_features=320, bias=True)
            (drop): Dropout(p=0.0, inplace=False)
          )
        )
        (17): Block(
          (norm1): LayerNorm((320,), eps=1e-06, elementwise_affine=True)
          (attn): Attention(
            (q): Linear(in_features=320, out_features=320, bias=True)
            (kv): Linear(in_features=320, out_features=640, bias=True)
            (attn_drop): Dropout(p=0.0, inplace=False)
            (proj): Linear(in_features=320, out_features=320, bias=True)
            (proj_drop): Dropout(p=0.0, inplace=False)
            (sr): Conv2d(320, 320, kernel_size=(2, 2), stride=(2, 2))
            (norm): LayerNorm((320,), eps=1e-05, elementwise_affine=True)
          )
          (drop_path): DropPath()
          (norm2): LayerNorm((320,), eps=1e-06, elementwise_affine=True)
          (mlp): Mlp(
            (fc1): Linear(in_features=320, out_features=1280, bias=True)
            (dwconv): DWConv(
              (dwconv): Conv2d(1280, 1280, kernel_size=(3, 3), stride=(1, 1), padding=(1, 1), groups=1280)
            )
            (act): GELU()
            (fc2): Linear(in_features=1280, out_features=320, bias=True)
            (drop): Dropout(p=0.0, inplace=False)
          )
        )
        (18): Block(
          (norm1): LayerNorm((320,), eps=1e-06, elementwise_affine=True)
          (attn): Attention(
            (q): Linear(in_features=320, out_features=320, bias=True)
            (kv): Linear(in_features=320, out_features=640, bias=True)
            (attn_drop): Dropout(p=0.0, inplace=False)
            (proj): Linear(in_features=320, out_features=320, bias=True)
            (proj_drop): Dropout(p=0.0, inplace=False)
            (sr): Conv2d(320, 320, kernel_size=(2, 2), stride=(2, 2))
            (norm): LayerNorm((320,), eps=1e-05, elementwise_affine=True)
          )
          (drop_path): DropPath()
          (norm2): LayerNorm((320,), eps=1e-06, elementwise_affine=True)
          (mlp): Mlp(
            (fc1): Linear(in_features=320, out_features=1280, bias=True)
            (dwconv): DWConv(
              (dwconv): Conv2d(1280, 1280, kernel_size=(3, 3), stride=(1, 1), padding=(1, 1), groups=1280)
            )
            (act): GELU()
            (fc2): Linear(in_features=1280, out_features=320, bias=True)
            (drop): Dropout(p=0.0, inplace=False)
          )
        )
        (19): Block(
          (norm1): LayerNorm((320,), eps=1e-06, elementwise_affine=True)
          (attn): Attention(
            (q): Linear(in_features=320, out_features=320, bias=True)
            (kv): Linear(in_features=320, out_features=640, bias=True)
            (attn_drop): Dropout(p=0.0, inplace=False)
            (proj): Linear(in_features=320, out_features=320, bias=True)
            (proj_drop): Dropout(p=0.0, inplace=False)
            (sr): Conv2d(320, 320, kernel_size=(2, 2), stride=(2, 2))
            (norm): LayerNorm((320,), eps=1e-05, elementwise_affine=True)
          )
          (drop_path): DropPath()
          (norm2): LayerNorm((320,), eps=1e-06, elementwise_affine=True)
          (mlp): Mlp(
            (fc1): Linear(in_features=320, out_features=1280, bias=True)
            (dwconv): DWConv(
              (dwconv): Conv2d(1280, 1280, kernel_size=(3, 3), stride=(1, 1), padding=(1, 1), groups=1280)
            )
            (act): GELU()
            (fc2): Linear(in_features=1280, out_features=320, bias=True)
            (drop): Dropout(p=0.0, inplace=False)
          )
        )
        (20): Block(
          (norm1): LayerNorm((320,), eps=1e-06, elementwise_affine=True)
          (attn): Attention(
            (q): Linear(in_features=320, out_features=320, bias=True)
            (kv): Linear(in_features=320, out_features=640, bias=True)
            (attn_drop): Dropout(p=0.0, inplace=False)
            (proj): Linear(in_features=320, out_features=320, bias=True)
            (proj_drop): Dropout(p=0.0, inplace=False)
            (sr): Conv2d(320, 320, kernel_size=(2, 2), stride=(2, 2))
            (norm): LayerNorm((320,), eps=1e-05, elementwise_affine=True)
          )
          (drop_path): DropPath()
          (norm2): LayerNorm((320,), eps=1e-06, elementwise_affine=True)
          (mlp): Mlp(
            (fc1): Linear(in_features=320, out_features=1280, bias=True)
            (dwconv): DWConv(
              (dwconv): Conv2d(1280, 1280, kernel_size=(3, 3), stride=(1, 1), padding=(1, 1), groups=1280)
            )
            (act): GELU()
            (fc2): Linear(in_features=1280, out_features=320, bias=True)
            (drop): Dropout(p=0.0, inplace=False)
          )
        )
        (21): Block(
          (norm1): LayerNorm((320,), eps=1e-06, elementwise_affine=True)
          (attn): Attention(
            (q): Linear(in_features=320, out_features=320, bias=True)
            (kv): Linear(in_features=320, out_features=640, bias=True)
            (attn_drop): Dropout(p=0.0, inplace=False)
            (proj): Linear(in_features=320, out_features=320, bias=True)
            (proj_drop): Dropout(p=0.0, inplace=False)
            (sr): Conv2d(320, 320, kernel_size=(2, 2), stride=(2, 2))
            (norm): LayerNorm((320,), eps=1e-05, elementwise_affine=True)
          )
          (drop_path): DropPath()
          (norm2): LayerNorm((320,), eps=1e-06, elementwise_affine=True)
          (mlp): Mlp(
            (fc1): Linear(in_features=320, out_features=1280, bias=True)
            (dwconv): DWConv(
              (dwconv): Conv2d(1280, 1280, kernel_size=(3, 3), stride=(1, 1), padding=(1, 1), groups=1280)
            )
            (act): GELU()
            (fc2): Linear(in_features=1280, out_features=320, bias=True)
            (drop): Dropout(p=0.0, inplace=False)
          )
        )
        (22): Block(
          (norm1): LayerNorm((320,), eps=1e-06, elementwise_affine=True)
          (attn): Attention(
            (q): Linear(in_features=320, out_features=320, bias=True)
            (kv): Linear(in_features=320, out_features=640, bias=True)
            (attn_drop): Dropout(p=0.0, inplace=False)
            (proj): Linear(in_features=320, out_features=320, bias=True)
            (proj_drop): Dropout(p=0.0, inplace=False)
            (sr): Conv2d(320, 320, kernel_size=(2, 2), stride=(2, 2))
            (norm): LayerNorm((320,), eps=1e-05, elementwise_affine=True)
          )
          (drop_path): DropPath()
          (norm2): LayerNorm((320,), eps=1e-06, elementwise_affine=True)
          (mlp): Mlp(
            (fc1): Linear(in_features=320, out_features=1280, bias=True)
            (dwconv): DWConv(
              (dwconv): Conv2d(1280, 1280, kernel_size=(3, 3), stride=(1, 1), padding=(1, 1), groups=1280)
            )
            (act): GELU()
            (fc2): Linear(in_features=1280, out_features=320, bias=True)
            (drop): Dropout(p=0.0, inplace=False)
          )
        )
        (23): Block(
          (norm1): LayerNorm((320,), eps=1e-06, elementwise_affine=True)
          (attn): Attention(
            (q): Linear(in_features=320, out_features=320, bias=True)
            (kv): Linear(in_features=320, out_features=640, bias=True)
            (attn_drop): Dropout(p=0.0, inplace=False)
            (proj): Linear(in_features=320, out_features=320, bias=True)
            (proj_drop): Dropout(p=0.0, inplace=False)
            (sr): Conv2d(320, 320, kernel_size=(2, 2), stride=(2, 2))
            (norm): LayerNorm((320,), eps=1e-05, elementwise_affine=True)
          )
          (drop_path): DropPath()
          (norm2): LayerNorm((320,), eps=1e-06, elementwise_affine=True)
          (mlp): Mlp(
            (fc1): Linear(in_features=320, out_features=1280, bias=True)
            (dwconv): DWConv(
              (dwconv): Conv2d(1280, 1280, kernel_size=(3, 3), stride=(1, 1), padding=(1, 1), groups=1280)
            )
            (act): GELU()
            (fc2): Linear(in_features=1280, out_features=320, bias=True)
            (drop): Dropout(p=0.0, inplace=False)
          )
        )
        (24): Block(
          (norm1): LayerNorm((320,), eps=1e-06, elementwise_affine=True)
          (attn): Attention(
            (q): Linear(in_features=320, out_features=320, bias=True)
            (kv): Linear(in_features=320, out_features=640, bias=True)
            (attn_drop): Dropout(p=0.0, inplace=False)
            (proj): Linear(in_features=320, out_features=320, bias=True)
            (proj_drop): Dropout(p=0.0, inplace=False)
            (sr): Conv2d(320, 320, kernel_size=(2, 2), stride=(2, 2))
            (norm): LayerNorm((320,), eps=1e-05, elementwise_affine=True)
          )
          (drop_path): DropPath()
          (norm2): LayerNorm((320,), eps=1e-06, elementwise_affine=True)
          (mlp): Mlp(
            (fc1): Linear(in_features=320, out_features=1280, bias=True)
            (dwconv): DWConv(
              (dwconv): Conv2d(1280, 1280, kernel_size=(3, 3), stride=(1, 1), padding=(1, 1), groups=1280)
            )
            (act): GELU()
            (fc2): Linear(in_features=1280, out_features=320, bias=True)
            (drop): Dropout(p=0.0, inplace=False)
          )
        )
        (25): Block(
          (norm1): LayerNorm((320,), eps=1e-06, elementwise_affine=True)
          (attn): Attention(
            (q): Linear(in_features=320, out_features=320, bias=True)
            (kv): Linear(in_features=320, out_features=640, bias=True)
            (attn_drop): Dropout(p=0.0, inplace=False)
            (proj): Linear(in_features=320, out_features=320, bias=True)
            (proj_drop): Dropout(p=0.0, inplace=False)
            (sr): Conv2d(320, 320, kernel_size=(2, 2), stride=(2, 2))
            (norm): LayerNorm((320,), eps=1e-05, elementwise_affine=True)
          )
          (drop_path): DropPath()
          (norm2): LayerNorm((320,), eps=1e-06, elementwise_affine=True)
          (mlp): Mlp(
            (fc1): Linear(in_features=320, out_features=1280, bias=True)
            (dwconv): DWConv(
              (dwconv): Conv2d(1280, 1280, kernel_size=(3, 3), stride=(1, 1), padding=(1, 1), groups=1280)
            )
            (act): GELU()
            (fc2): Linear(in_features=1280, out_features=320, bias=True)
            (drop): Dropout(p=0.0, inplace=False)
          )
        )
        (26): Block(
          (norm1): LayerNorm((320,), eps=1e-06, elementwise_affine=True)
          (attn): Attention(
            (q): Linear(in_features=320, out_features=320, bias=True)
            (kv): Linear(in_features=320, out_features=640, bias=True)
            (attn_drop): Dropout(p=0.0, inplace=False)
            (proj): Linear(in_features=320, out_features=320, bias=True)
            (proj_drop): Dropout(p=0.0, inplace=False)
            (sr): Conv2d(320, 320, kernel_size=(2, 2), stride=(2, 2))
            (norm): LayerNorm((320,), eps=1e-05, elementwise_affine=True)
          )
          (drop_path): DropPath()
          (norm2): LayerNorm((320,), eps=1e-06, elementwise_affine=True)
          (mlp): Mlp(
            (fc1): Linear(in_features=320, out_features=1280, bias=True)
            (dwconv): DWConv(
              (dwconv): Conv2d(1280, 1280, kernel_size=(3, 3), stride=(1, 1), padding=(1, 1), groups=1280)
            )
            (act): GELU()
            (fc2): Linear(in_features=1280, out_features=320, bias=True)
            (drop): Dropout(p=0.0, inplace=False)
          )
        )
        (27): Block(
          (norm1): LayerNorm((320,), eps=1e-06, elementwise_affine=True)
          (attn): Attention(
            (q): Linear(in_features=320, out_features=320, bias=True)
            (kv): Linear(in_features=320, out_features=640, bias=True)
            (attn_drop): Dropout(p=0.0, inplace=False)
            (proj): Linear(in_features=320, out_features=320, bias=True)
            (proj_drop): Dropout(p=0.0, inplace=False)
            (sr): Conv2d(320, 320, kernel_size=(2, 2), stride=(2, 2))
            (norm): LayerNorm((320,), eps=1e-05, elementwise_affine=True)
          )
          (drop_path): DropPath()
          (norm2): LayerNorm((320,), eps=1e-06, elementwise_affine=True)
          (mlp): Mlp(
            (fc1): Linear(in_features=320, out_features=1280, bias=True)
            (dwconv): DWConv(
              (dwconv): Conv2d(1280, 1280, kernel_size=(3, 3), stride=(1, 1), padding=(1, 1), groups=1280)
            )
            (act): GELU()
            (fc2): Linear(in_features=1280, out_features=320, bias=True)
            (drop): Dropout(p=0.0, inplace=False)
          )
        )
        (28): Block(
          (norm1): LayerNorm((320,), eps=1e-06, elementwise_affine=True)
          (attn): Attention(
            (q): Linear(in_features=320, out_features=320, bias=True)
            (kv): Linear(in_features=320, out_features=640, bias=True)
            (attn_drop): Dropout(p=0.0, inplace=False)
            (proj): Linear(in_features=320, out_features=320, bias=True)
            (proj_drop): Dropout(p=0.0, inplace=False)
            (sr): Conv2d(320, 320, kernel_size=(2, 2), stride=(2, 2))
            (norm): LayerNorm((320,), eps=1e-05, elementwise_affine=True)
          )
          (drop_path): DropPath()
          (norm2): LayerNorm((320,), eps=1e-06, elementwise_affine=True)
          (mlp): Mlp(
            (fc1): Linear(in_features=320, out_features=1280, bias=True)
            (dwconv): DWConv(
              (dwconv): Conv2d(1280, 1280, kernel_size=(3, 3), stride=(1, 1), padding=(1, 1), groups=1280)
            )
            (act): GELU()
            (fc2): Linear(in_features=1280, out_features=320, bias=True)
            (drop): Dropout(p=0.0, inplace=False)
          )
        )
        (29): Block(
          (norm1): LayerNorm((320,), eps=1e-06, elementwise_affine=True)
          (attn): Attention(
            (q): Linear(in_features=320, out_features=320, bias=True)
            (kv): Linear(in_features=320, out_features=640, bias=True)
            (attn_drop): Dropout(p=0.0, inplace=False)
            (proj): Linear(in_features=320, out_features=320, bias=True)
            (proj_drop): Dropout(p=0.0, inplace=False)
            (sr): Conv2d(320, 320, kernel_size=(2, 2), stride=(2, 2))
            (norm): LayerNorm((320,), eps=1e-05, elementwise_affine=True)
          )
          (drop_path): DropPath()
          (norm2): LayerNorm((320,), eps=1e-06, elementwise_affine=True)
          (mlp): Mlp(
            (fc1): Linear(in_features=320, out_features=1280, bias=True)
            (dwconv): DWConv(
              (dwconv): Conv2d(1280, 1280, kernel_size=(3, 3), stride=(1, 1), padding=(1, 1), groups=1280)
            )
            (act): GELU()
            (fc2): Linear(in_features=1280, out_features=320, bias=True)
            (drop): Dropout(p=0.0, inplace=False)
          )
        )
        (30): Block(
          (norm1): LayerNorm((320,), eps=1e-06, elementwise_affine=True)
          (attn): Attention(
            (q): Linear(in_features=320, out_features=320, bias=True)
            (kv): Linear(in_features=320, out_features=640, bias=True)
            (attn_drop): Dropout(p=0.0, inplace=False)
            (proj): Linear(in_features=320, out_features=320, bias=True)
            (proj_drop): Dropout(p=0.0, inplace=False)
            (sr): Conv2d(320, 320, kernel_size=(2, 2), stride=(2, 2))
            (norm): LayerNorm((320,), eps=1e-05, elementwise_affine=True)
          )
          (drop_path): DropPath()
          (norm2): LayerNorm((320,), eps=1e-06, elementwise_affine=True)
          (mlp): Mlp(
            (fc1): Linear(in_features=320, out_features=1280, bias=True)
            (dwconv): DWConv(
              (dwconv): Conv2d(1280, 1280, kernel_size=(3, 3), stride=(1, 1), padding=(1, 1), groups=1280)
            )
            (act): GELU()
            (fc2): Linear(in_features=1280, out_features=320, bias=True)
            (drop): Dropout(p=0.0, inplace=False)
          )
        )
        (31): Block(
          (norm1): LayerNorm((320,), eps=1e-06, elementwise_affine=True)
          (attn): Attention(
            (q): Linear(in_features=320, out_features=320, bias=True)
            (kv): Linear(in_features=320, out_features=640, bias=True)
            (attn_drop): Dropout(p=0.0, inplace=False)
            (proj): Linear(in_features=320, out_features=320, bias=True)
            (proj_drop): Dropout(p=0.0, inplace=False)
            (sr): Conv2d(320, 320, kernel_size=(2, 2), stride=(2, 2))
            (norm): LayerNorm((320,), eps=1e-05, elementwise_affine=True)
          )
          (drop_path): DropPath()
          (norm2): LayerNorm((320,), eps=1e-06, elementwise_affine=True)
          (mlp): Mlp(
            (fc1): Linear(in_features=320, out_features=1280, bias=True)
            (dwconv): DWConv(
              (dwconv): Conv2d(1280, 1280, kernel_size=(3, 3), stride=(1, 1), padding=(1, 1), groups=1280)
            )
            (act): GELU()
            (fc2): Linear(in_features=1280, out_features=320, bias=True)
            (drop): Dropout(p=0.0, inplace=False)
          )
        )
        (32): Block(
          (norm1): LayerNorm((320,), eps=1e-06, elementwise_affine=True)
          (attn): Attention(
            (q): Linear(in_features=320, out_features=320, bias=True)
            (kv): Linear(in_features=320, out_features=640, bias=True)
            (attn_drop): Dropout(p=0.0, inplace=False)
            (proj): Linear(in_features=320, out_features=320, bias=True)
            (proj_drop): Dropout(p=0.0, inplace=False)
            (sr): Conv2d(320, 320, kernel_size=(2, 2), stride=(2, 2))
            (norm): LayerNorm((320,), eps=1e-05, elementwise_affine=True)
          )
          (drop_path): DropPath()
          (norm2): LayerNorm((320,), eps=1e-06, elementwise_affine=True)
          (mlp): Mlp(
            (fc1): Linear(in_features=320, out_features=1280, bias=True)
            (dwconv): DWConv(
              (dwconv): Conv2d(1280, 1280, kernel_size=(3, 3), stride=(1, 1), padding=(1, 1), groups=1280)
            )
            (act): GELU()
            (fc2): Linear(in_features=1280, out_features=320, bias=True)
            (drop): Dropout(p=0.0, inplace=False)
          )
        )
        (33): Block(
          (norm1): LayerNorm((320,), eps=1e-06, elementwise_affine=True)
          (attn): Attention(
            (q): Linear(in_features=320, out_features=320, bias=True)
            (kv): Linear(in_features=320, out_features=640, bias=True)
            (attn_drop): Dropout(p=0.0, inplace=False)
            (proj): Linear(in_features=320, out_features=320, bias=True)
            (proj_drop): Dropout(p=0.0, inplace=False)
            (sr): Conv2d(320, 320, kernel_size=(2, 2), stride=(2, 2))
            (norm): LayerNorm((320,), eps=1e-05, elementwise_affine=True)
          )
          (drop_path): DropPath()
          (norm2): LayerNorm((320,), eps=1e-06, elementwise_affine=True)
          (mlp): Mlp(
            (fc1): Linear(in_features=320, out_features=1280, bias=True)
            (dwconv): DWConv(
              (dwconv): Conv2d(1280, 1280, kernel_size=(3, 3), stride=(1, 1), padding=(1, 1), groups=1280)
            )
            (act): GELU()
            (fc2): Linear(in_features=1280, out_features=320, bias=True)
            (drop): Dropout(p=0.0, inplace=False)
          )
        )
        (34): Block(
          (norm1): LayerNorm((320,), eps=1e-06, elementwise_affine=True)
          (attn): Attention(
            (q): Linear(in_features=320, out_features=320, bias=True)
            (kv): Linear(in_features=320, out_features=640, bias=True)
            (attn_drop): Dropout(p=0.0, inplace=False)
            (proj): Linear(in_features=320, out_features=320, bias=True)
            (proj_drop): Dropout(p=0.0, inplace=False)
            (sr): Conv2d(320, 320, kernel_size=(2, 2), stride=(2, 2))
            (norm): LayerNorm((320,), eps=1e-05, elementwise_affine=True)
          )
          (drop_path): DropPath()
          (norm2): LayerNorm((320,), eps=1e-06, elementwise_affine=True)
          (mlp): Mlp(
            (fc1): Linear(in_features=320, out_features=1280, bias=True)
            (dwconv): DWConv(
              (dwconv): Conv2d(1280, 1280, kernel_size=(3, 3), stride=(1, 1), padding=(1, 1), groups=1280)
            )
            (act): GELU()
            (fc2): Linear(in_features=1280, out_features=320, bias=True)
            (drop): Dropout(p=0.0, inplace=False)
          )
        )
        (35): Block(
          (norm1): LayerNorm((320,), eps=1e-06, elementwise_affine=True)
          (attn): Attention(
            (q): Linear(in_features=320, out_features=320, bias=True)
            (kv): Linear(in_features=320, out_features=640, bias=True)
            (attn_drop): Dropout(p=0.0, inplace=False)
            (proj): Linear(in_features=320, out_features=320, bias=True)
            (proj_drop): Dropout(p=0.0, inplace=False)
            (sr): Conv2d(320, 320, kernel_size=(2, 2), stride=(2, 2))
            (norm): LayerNorm((320,), eps=1e-05, elementwise_affine=True)
          )
          (drop_path): DropPath()
          (norm2): LayerNorm((320,), eps=1e-06, elementwise_affine=True)
          (mlp): Mlp(
            (fc1): Linear(in_features=320, out_features=1280, bias=True)
            (dwconv): DWConv(
              (dwconv): Conv2d(1280, 1280, kernel_size=(3, 3), stride=(1, 1), padding=(1, 1), groups=1280)
            )
            (act): GELU()
            (fc2): Linear(in_features=1280, out_features=320, bias=True)
            (drop): Dropout(p=0.0, inplace=False)
          )
        )
        (36): Block(
          (norm1): LayerNorm((320,), eps=1e-06, elementwise_affine=True)
          (attn): Attention(
            (q): Linear(in_features=320, out_features=320, bias=True)
            (kv): Linear(in_features=320, out_features=640, bias=True)
            (attn_drop): Dropout(p=0.0, inplace=False)
            (proj): Linear(in_features=320, out_features=320, bias=True)
            (proj_drop): Dropout(p=0.0, inplace=False)
            (sr): Conv2d(320, 320, kernel_size=(2, 2), stride=(2, 2))
            (norm): LayerNorm((320,), eps=1e-05, elementwise_affine=True)
          )
          (drop_path): DropPath()
          (norm2): LayerNorm((320,), eps=1e-06, elementwise_affine=True)
          (mlp): Mlp(
            (fc1): Linear(in_features=320, out_features=1280, bias=True)
            (dwconv): DWConv(
              (dwconv): Conv2d(1280, 1280, kernel_size=(3, 3), stride=(1, 1), padding=(1, 1), groups=1280)
            )
            (act): GELU()
            (fc2): Linear(in_features=1280, out_features=320, bias=True)
            (drop): Dropout(p=0.0, inplace=False)
          )
        )
        (37): Block(
          (norm1): LayerNorm((320,), eps=1e-06, elementwise_affine=True)
          (attn): Attention(
            (q): Linear(in_features=320, out_features=320, bias=True)
            (kv): Linear(in_features=320, out_features=640, bias=True)
            (attn_drop): Dropout(p=0.0, inplace=False)
            (proj): Linear(in_features=320, out_features=320, bias=True)
            (proj_drop): Dropout(p=0.0, inplace=False)
            (sr): Conv2d(320, 320, kernel_size=(2, 2), stride=(2, 2))
            (norm): LayerNorm((320,), eps=1e-05, elementwise_affine=True)
          )
          (drop_path): DropPath()
          (norm2): LayerNorm((320,), eps=1e-06, elementwise_affine=True)
          (mlp): Mlp(
            (fc1): Linear(in_features=320, out_features=1280, bias=True)
            (dwconv): DWConv(
              (dwconv): Conv2d(1280, 1280, kernel_size=(3, 3), stride=(1, 1), padding=(1, 1), groups=1280)
            )
            (act): GELU()
            (fc2): Linear(in_features=1280, out_features=320, bias=True)
            (drop): Dropout(p=0.0, inplace=False)
          )
        )
        (38): Block(
          (norm1): LayerNorm((320,), eps=1e-06, elementwise_affine=True)
          (attn): Attention(
            (q): Linear(in_features=320, out_features=320, bias=True)
            (kv): Linear(in_features=320, out_features=640, bias=True)
            (attn_drop): Dropout(p=0.0, inplace=False)
            (proj): Linear(in_features=320, out_features=320, bias=True)
            (proj_drop): Dropout(p=0.0, inplace=False)
            (sr): Conv2d(320, 320, kernel_size=(2, 2), stride=(2, 2))
            (norm): LayerNorm((320,), eps=1e-05, elementwise_affine=True)
          )
          (drop_path): DropPath()
          (norm2): LayerNorm((320,), eps=1e-06, elementwise_affine=True)
          (mlp): Mlp(
            (fc1): Linear(in_features=320, out_features=1280, bias=True)
            (dwconv): DWConv(
              (dwconv): Conv2d(1280, 1280, kernel_size=(3, 3), stride=(1, 1), padding=(1, 1), groups=1280)
            )
            (act): GELU()
            (fc2): Linear(in_features=1280, out_features=320, bias=True)
            (drop): Dropout(p=0.0, inplace=False)
          )
        )
        (39): Block(
          (norm1): LayerNorm((320,), eps=1e-06, elementwise_affine=True)
          (attn): Attention(
            (q): Linear(in_features=320, out_features=320, bias=True)
            (kv): Linear(in_features=320, out_features=640, bias=True)
            (attn_drop): Dropout(p=0.0, inplace=False)
            (proj): Linear(in_features=320, out_features=320, bias=True)
            (proj_drop): Dropout(p=0.0, inplace=False)
            (sr): Conv2d(320, 320, kernel_size=(2, 2), stride=(2, 2))
            (norm): LayerNorm((320,), eps=1e-05, elementwise_affine=True)
          )
          (drop_path): DropPath()
          (norm2): LayerNorm((320,), eps=1e-06, elementwise_affine=True)
          (mlp): Mlp(
            (fc1): Linear(in_features=320, out_features=1280, bias=True)
            (dwconv): DWConv(
              (dwconv): Conv2d(1280, 1280, kernel_size=(3, 3), stride=(1, 1), padding=(1, 1), groups=1280)
            )
            (act): GELU()
            (fc2): Linear(in_features=1280, out_features=320, bias=True)
            (drop): Dropout(p=0.0, inplace=False)
          )
        )
      )
      (norm3): LayerNorm((320,), eps=1e-06, elementwise_affine=True)
      (block4): ModuleList(
        (0): Block(
          (norm1): LayerNorm((512,), eps=1e-06, elementwise_affine=True)
          (attn): Attention(
            (q): Linear(in_features=512, out_features=512, bias=True)
            (kv): Linear(in_features=512, out_features=1024, bias=True)
            (attn_drop): Dropout(p=0.0, inplace=False)
            (proj): Linear(in_features=512, out_features=512, bias=True)
            (proj_drop): Dropout(p=0.0, inplace=False)
          )
          (drop_path): DropPath()
          (norm2): LayerNorm((512,), eps=1e-06, elementwise_affine=True)
          (mlp): Mlp(
            (fc1): Linear(in_features=512, out_features=2048, bias=True)
            (dwconv): DWConv(
              (dwconv): Conv2d(2048, 2048, kernel_size=(3, 3), stride=(1, 1), padding=(1, 1), groups=2048)
            )
            (act): GELU()
            (fc2): Linear(in_features=2048, out_features=512, bias=True)
            (drop): Dropout(p=0.0, inplace=False)
          )
        )
        (1): Block(
          (norm1): LayerNorm((512,), eps=1e-06, elementwise_affine=True)
          (attn): Attention(
            (q): Linear(in_features=512, out_features=512, bias=True)
            (kv): Linear(in_features=512, out_features=1024, bias=True)
            (attn_drop): Dropout(p=0.0, inplace=False)
            (proj): Linear(in_features=512, out_features=512, bias=True)
            (proj_drop): Dropout(p=0.0, inplace=False)
          )
          (drop_path): DropPath()
          (norm2): LayerNorm((512,), eps=1e-06, elementwise_affine=True)
          (mlp): Mlp(
            (fc1): Linear(in_features=512, out_features=2048, bias=True)
            (dwconv): DWConv(
              (dwconv): Conv2d(2048, 2048, kernel_size=(3, 3), stride=(1, 1), padding=(1, 1), groups=2048)
            )
            (act): GELU()
            (fc2): Linear(in_features=2048, out_features=512, bias=True)
            (drop): Dropout(p=0.0, inplace=False)
          )
        )
        (2): Block(
          (norm1): LayerNorm((512,), eps=1e-06, elementwise_affine=True)
          (attn): Attention(
            (q): Linear(in_features=512, out_features=512, bias=True)
            (kv): Linear(in_features=512, out_features=1024, bias=True)
            (attn_drop): Dropout(p=0.0, inplace=False)
            (proj): Linear(in_features=512, out_features=512, bias=True)
            (proj_drop): Dropout(p=0.0, inplace=False)
          )
          (drop_path): DropPath()
          (norm2): LayerNorm((512,), eps=1e-06, elementwise_affine=True)
          (mlp): Mlp(
            (fc1): Linear(in_features=512, out_features=2048, bias=True)
            (dwconv): DWConv(
              (dwconv): Conv2d(2048, 2048, kernel_size=(3, 3), stride=(1, 1), padding=(1, 1), groups=2048)
            )
            (act): GELU()
            (fc2): Linear(in_features=2048, out_features=512, bias=True)
            (drop): Dropout(p=0.0, inplace=False)
          )
        )
      )
      (norm4): LayerNorm((512,), eps=1e-06, elementwise_affine=True)
    )
    (neck): LinearCrossDomainAttNeck(
      (uda_blocks): ModuleList(
        (0): UdaAttentionBlock(
          (encoder): SelfSRAttentionBlock(
            (norm1): LayerNorm((64,), eps=1e-05, elementwise_affine=True)
            (attn): SelfSRAttention(
              (q): Linear(in_features=64, out_features=64, bias=True)
              (kv): Linear(in_features=64, out_features=128, bias=True)
              (attn_drop): Dropout(p=0.0, inplace=False)
              (proj): Linear(in_features=64, out_features=64, bias=True)
              (proj_drop): Dropout(p=0.0, inplace=False)
              (sr): Conv2d(64, 64, kernel_size=(8, 8), stride=(8, 8))
              (norm): LayerNorm((64,), eps=1e-05, elementwise_affine=True)
              (out_norm): LayerNorm((64,), eps=1e-05, elementwise_affine=True)
            )
            (drop_path): DropPath()
            (norm2): LayerNorm((64,), eps=1e-05, elementwise_affine=True)
            (mlp): Mlp(
              (fc1): Linear(in_features=64, out_features=256, bias=True)
              (dwconv): DWConv(
                (dwconv): Conv2d(256, 256, kernel_size=(3, 3), stride=(1, 1), padding=(1, 1), groups=256)
              )
              (act): GELU()
              (fc2): Linear(in_features=256, out_features=64, bias=True)
              (drop): Dropout(p=0.0, inplace=False)
            )
          )
          (decoder): SelfSRAttentionBlock(
            (norm1): LayerNorm((64,), eps=1e-05, elementwise_affine=True)
            (attn): SelfSRAttention(
              (q): Linear(in_features=64, out_features=64, bias=True)
              (kv): Linear(in_features=64, out_features=128, bias=True)
              (attn_drop): Dropout(p=0.0, inplace=False)
              (proj): Linear(in_features=64, out_features=64, bias=True)
              (proj_drop): Dropout(p=0.0, inplace=False)
              (sr): Conv2d(64, 64, kernel_size=(8, 8), stride=(8, 8))
              (norm): LayerNorm((64,), eps=1e-05, elementwise_affine=True)
              (out_norm): LayerNorm((64,), eps=1e-05, elementwise_affine=True)
            )
            (drop_path): DropPath()
            (norm2): LayerNorm((64,), eps=1e-05, elementwise_affine=True)
            (mlp): Mlp(
              (fc1): Linear(in_features=64, out_features=256, bias=True)
              (dwconv): DWConv(
                (dwconv): Conv2d(256, 256, kernel_size=(3, 3), stride=(1, 1), padding=(1, 1), groups=256)
              )
              (act): GELU()
              (fc2): Linear(in_features=256, out_features=64, bias=True)
              (drop): Dropout(p=0.0, inplace=False)
            )
          )
          (mix_att): SelfSRAttentionBlock(
            (norm1): LayerNorm((64,), eps=1e-05, elementwise_affine=True)
            (attn): SelfSRAttention(
              (q): Linear(in_features=64, out_features=64, bias=True)
              (kv): Linear(in_features=64, out_features=128, bias=True)
              (attn_drop): Dropout(p=0.0, inplace=False)
              (proj): Linear(in_features=64, out_features=64, bias=True)
              (proj_drop): Dropout(p=0.0, inplace=False)
              (sr): Conv2d(64, 64, kernel_size=(8, 8), stride=(8, 8))
              (norm): LayerNorm((64,), eps=1e-05, elementwise_affine=True)
              (out_norm): LayerNorm((64,), eps=1e-05, elementwise_affine=True)
            )
            (drop_path): DropPath()
            (norm2): LayerNorm((64,), eps=1e-05, elementwise_affine=True)
            (mlp): Mlp(
              (fc1): Linear(in_features=64, out_features=256, bias=True)
              (dwconv): DWConv(
                (dwconv): Conv2d(256, 256, kernel_size=(3, 3), stride=(1, 1), padding=(1, 1), groups=256)
              )
              (act): GELU()
              (fc2): Linear(in_features=256, out_features=64, bias=True)
              (drop): Dropout(p=0.0, inplace=False)
            )
          )
          (out_norm): BatchNorm2d(64, eps=1e-05, momentum=0.1, affine=True, track_running_stats=True)
          (drop_path): DropPath()
        )
        (1): UdaAttentionBlock(
          (encoder): SelfSRAttentionBlock(
            (norm1): LayerNorm((128,), eps=1e-05, elementwise_affine=True)
            (attn): SelfSRAttention(
              (q): Linear(in_features=128, out_features=128, bias=True)
              (kv): Linear(in_features=128, out_features=256, bias=True)
              (attn_drop): Dropout(p=0.0, inplace=False)
              (proj): Linear(in_features=128, out_features=128, bias=True)
              (proj_drop): Dropout(p=0.0, inplace=False)
              (sr): Conv2d(128, 128, kernel_size=(4, 4), stride=(4, 4))
              (norm): LayerNorm((128,), eps=1e-05, elementwise_affine=True)
              (out_norm): LayerNorm((128,), eps=1e-05, elementwise_affine=True)
            )
            (drop_path): DropPath()
            (norm2): LayerNorm((128,), eps=1e-05, elementwise_affine=True)
            (mlp): Mlp(
              (fc1): Linear(in_features=128, out_features=512, bias=True)
              (dwconv): DWConv(
                (dwconv): Conv2d(512, 512, kernel_size=(3, 3), stride=(1, 1), padding=(1, 1), groups=512)
              )
              (act): GELU()
              (fc2): Linear(in_features=512, out_features=128, bias=True)
              (drop): Dropout(p=0.0, inplace=False)
            )
          )
          (decoder): SelfSRAttentionBlock(
            (norm1): LayerNorm((128,), eps=1e-05, elementwise_affine=True)
            (attn): SelfSRAttention(
              (q): Linear(in_features=128, out_features=128, bias=True)
              (kv): Linear(in_features=128, out_features=256, bias=True)
              (attn_drop): Dropout(p=0.0, inplace=False)
              (proj): Linear(in_features=128, out_features=128, bias=True)
              (proj_drop): Dropout(p=0.0, inplace=False)
              (sr): Conv2d(128, 128, kernel_size=(4, 4), stride=(4, 4))
              (norm): LayerNorm((128,), eps=1e-05, elementwise_affine=True)
              (out_norm): LayerNorm((128,), eps=1e-05, elementwise_affine=True)
            )
            (drop_path): DropPath()
            (norm2): LayerNorm((128,), eps=1e-05, elementwise_affine=True)
            (mlp): Mlp(
              (fc1): Linear(in_features=128, out_features=512, bias=True)
              (dwconv): DWConv(
                (dwconv): Conv2d(512, 512, kernel_size=(3, 3), stride=(1, 1), padding=(1, 1), groups=512)
              )
              (act): GELU()
              (fc2): Linear(in_features=512, out_features=128, bias=True)
              (drop): Dropout(p=0.0, inplace=False)
            )
          )
          (mix_att): SelfSRAttentionBlock(
            (norm1): LayerNorm((128,), eps=1e-05, elementwise_affine=True)
            (attn): SelfSRAttention(
              (q): Linear(in_features=128, out_features=128, bias=True)
              (kv): Linear(in_features=128, out_features=256, bias=True)
              (attn_drop): Dropout(p=0.0, inplace=False)
              (proj): Linear(in_features=128, out_features=128, bias=True)
              (proj_drop): Dropout(p=0.0, inplace=False)
              (sr): Conv2d(128, 128, kernel_size=(4, 4), stride=(4, 4))
              (norm): LayerNorm((128,), eps=1e-05, elementwise_affine=True)
              (out_norm): LayerNorm((128,), eps=1e-05, elementwise_affine=True)
            )
            (drop_path): DropPath()
            (norm2): LayerNorm((128,), eps=1e-05, elementwise_affine=True)
            (mlp): Mlp(
              (fc1): Linear(in_features=128, out_features=512, bias=True)
              (dwconv): DWConv(
                (dwconv): Conv2d(512, 512, kernel_size=(3, 3), stride=(1, 1), padding=(1, 1), groups=512)
              )
              (act): GELU()
              (fc2): Linear(in_features=512, out_features=128, bias=True)
              (drop): Dropout(p=0.0, inplace=False)
            )
          )
          (out_norm): BatchNorm2d(128, eps=1e-05, momentum=0.1, affine=True, track_running_stats=True)
          (drop_path): DropPath()
        )
        (2): UdaAttentionBlock(
          (encoder): SelfSRAttentionBlock(
            (norm1): LayerNorm((320,), eps=1e-05, elementwise_affine=True)
            (attn): SelfSRAttention(
              (q): Linear(in_features=320, out_features=320, bias=True)
              (kv): Linear(in_features=320, out_features=640, bias=True)
              (attn_drop): Dropout(p=0.0, inplace=False)
              (proj): Linear(in_features=320, out_features=320, bias=True)
              (proj_drop): Dropout(p=0.0, inplace=False)
              (sr): Conv2d(320, 320, kernel_size=(2, 2), stride=(2, 2))
              (norm): LayerNorm((320,), eps=1e-05, elementwise_affine=True)
              (out_norm): LayerNorm((320,), eps=1e-05, elementwise_affine=True)
            )
            (drop_path): DropPath()
            (norm2): LayerNorm((320,), eps=1e-05, elementwise_affine=True)
            (mlp): Mlp(
              (fc1): Linear(in_features=320, out_features=1280, bias=True)
              (dwconv): DWConv(
                (dwconv): Conv2d(1280, 1280, kernel_size=(3, 3), stride=(1, 1), padding=(1, 1), groups=1280)
              )
              (act): GELU()
              (fc2): Linear(in_features=1280, out_features=320, bias=True)
              (drop): Dropout(p=0.0, inplace=False)
            )
          )
          (decoder): SelfSRAttentionBlock(
            (norm1): LayerNorm((320,), eps=1e-05, elementwise_affine=True)
            (attn): SelfSRAttention(
              (q): Linear(in_features=320, out_features=320, bias=True)
              (kv): Linear(in_features=320, out_features=640, bias=True)
              (attn_drop): Dropout(p=0.0, inplace=False)
              (proj): Linear(in_features=320, out_features=320, bias=True)
              (proj_drop): Dropout(p=0.0, inplace=False)
              (sr): Conv2d(320, 320, kernel_size=(2, 2), stride=(2, 2))
              (norm): LayerNorm((320,), eps=1e-05, elementwise_affine=True)
              (out_norm): LayerNorm((320,), eps=1e-05, elementwise_affine=True)
            )
            (drop_path): DropPath()
            (norm2): LayerNorm((320,), eps=1e-05, elementwise_affine=True)
            (mlp): Mlp(
              (fc1): Linear(in_features=320, out_features=1280, bias=True)
              (dwconv): DWConv(
                (dwconv): Conv2d(1280, 1280, kernel_size=(3, 3), stride=(1, 1), padding=(1, 1), groups=1280)
              )
              (act): GELU()
              (fc2): Linear(in_features=1280, out_features=320, bias=True)
              (drop): Dropout(p=0.0, inplace=False)
            )
          )
          (mix_att): SelfSRAttentionBlock(
            (norm1): LayerNorm((320,), eps=1e-05, elementwise_affine=True)
            (attn): SelfSRAttention(
              (q): Linear(in_features=320, out_features=320, bias=True)
              (kv): Linear(in_features=320, out_features=640, bias=True)
              (attn_drop): Dropout(p=0.0, inplace=False)
              (proj): Linear(in_features=320, out_features=320, bias=True)
              (proj_drop): Dropout(p=0.0, inplace=False)
              (sr): Conv2d(320, 320, kernel_size=(2, 2), stride=(2, 2))
              (norm): LayerNorm((320,), eps=1e-05, elementwise_affine=True)
              (out_norm): LayerNorm((320,), eps=1e-05, elementwise_affine=True)
            )
            (drop_path): DropPath()
            (norm2): LayerNorm((320,), eps=1e-05, elementwise_affine=True)
            (mlp): Mlp(
              (fc1): Linear(in_features=320, out_features=1280, bias=True)
              (dwconv): DWConv(
                (dwconv): Conv2d(1280, 1280, kernel_size=(3, 3), stride=(1, 1), padding=(1, 1), groups=1280)
              )
              (act): GELU()
              (fc2): Linear(in_features=1280, out_features=320, bias=True)
              (drop): Dropout(p=0.0, inplace=False)
            )
          )
          (out_norm): BatchNorm2d(320, eps=1e-05, momentum=0.1, affine=True, track_running_stats=True)
          (drop_path): DropPath()
        )
        (3): UdaAttentionBlock(
          (encoder): SelfSRAttentionBlock(
            (norm1): LayerNorm((512,), eps=1e-05, elementwise_affine=True)
            (attn): SelfSRAttention(
              (q): Linear(in_features=512, out_features=512, bias=True)
              (kv): Linear(in_features=512, out_features=1024, bias=True)
              (attn_drop): Dropout(p=0.0, inplace=False)
              (proj): Linear(in_features=512, out_features=512, bias=True)
              (proj_drop): Dropout(p=0.0, inplace=False)
              (out_norm): LayerNorm((512,), eps=1e-05, elementwise_affine=True)
            )
            (drop_path): DropPath()
            (norm2): LayerNorm((512,), eps=1e-05, elementwise_affine=True)
            (mlp): Mlp(
              (fc1): Linear(in_features=512, out_features=2048, bias=True)
              (dwconv): DWConv(
                (dwconv): Conv2d(2048, 2048, kernel_size=(3, 3), stride=(1, 1), padding=(1, 1), groups=2048)
              )
              (act): GELU()
              (fc2): Linear(in_features=2048, out_features=512, bias=True)
              (drop): Dropout(p=0.0, inplace=False)
            )
          )
          (decoder): SelfSRAttentionBlock(
            (norm1): LayerNorm((512,), eps=1e-05, elementwise_affine=True)
            (attn): SelfSRAttention(
              (q): Linear(in_features=512, out_features=512, bias=True)
              (kv): Linear(in_features=512, out_features=1024, bias=True)
              (attn_drop): Dropout(p=0.0, inplace=False)
              (proj): Linear(in_features=512, out_features=512, bias=True)
              (proj_drop): Dropout(p=0.0, inplace=False)
              (out_norm): LayerNorm((512,), eps=1e-05, elementwise_affine=True)
            )
            (drop_path): DropPath()
            (norm2): LayerNorm((512,), eps=1e-05, elementwise_affine=True)
            (mlp): Mlp(
              (fc1): Linear(in_features=512, out_features=2048, bias=True)
              (dwconv): DWConv(
                (dwconv): Conv2d(2048, 2048, kernel_size=(3, 3), stride=(1, 1), padding=(1, 1), groups=2048)
              )
              (act): GELU()
              (fc2): Linear(in_features=2048, out_features=512, bias=True)
              (drop): Dropout(p=0.0, inplace=False)
            )
          )
          (mix_att): SelfSRAttentionBlock(
            (norm1): LayerNorm((512,), eps=1e-05, elementwise_affine=True)
            (attn): SelfSRAttention(
              (q): Linear(in_features=512, out_features=512, bias=True)
              (kv): Linear(in_features=512, out_features=1024, bias=True)
              (attn_drop): Dropout(p=0.0, inplace=False)
              (proj): Linear(in_features=512, out_features=512, bias=True)
              (proj_drop): Dropout(p=0.0, inplace=False)
              (out_norm): LayerNorm((512,), eps=1e-05, elementwise_affine=True)
            )
            (drop_path): DropPath()
            (norm2): LayerNorm((512,), eps=1e-05, elementwise_affine=True)
            (mlp): Mlp(
              (fc1): Linear(in_features=512, out_features=2048, bias=True)
              (dwconv): DWConv(
                (dwconv): Conv2d(2048, 2048, kernel_size=(3, 3), stride=(1, 1), padding=(1, 1), groups=2048)
              )
              (act): GELU()
              (fc2): Linear(in_features=2048, out_features=512, bias=True)
              (drop): Dropout(p=0.0, inplace=False)
            )
          )
          (out_norm): BatchNorm2d(512, eps=1e-05, momentum=0.1, affine=True, track_running_stats=True)
          (drop_path): DropPath()
        )
      )
    )
    (decode_head): DAFormerHead(
      input_transform=multiple_select, ignore_index=255, align_corners=False
      (loss_decode): CrossEntropyLoss()
      (conv_seg): Conv2d(256, 19, kernel_size=(1, 1), stride=(1, 1))
      (dropout): Dropout2d(p=0.1, inplace=False)
      (embed_layers): ModuleDict(
        (0): MLP(
          (proj): Linear(in_features=64, out_features=256, bias=True)
        )
        (1): MLP(
          (proj): Linear(in_features=128, out_features=256, bias=True)
        )
        (2): MLP(
          (proj): Linear(in_features=320, out_features=256, bias=True)
        )
        (3): MLP(
          (proj): Linear(in_features=512, out_features=256, bias=True)
        )
      )
      (fuse_layer): ASPPWrapper(
        (aspp_modules): DepthwiseSeparableASPPModule(
          (0): ConvModule(
            (conv): Conv2d(1024, 256, kernel_size=(1, 1), stride=(1, 1), bias=False)
            (bn): BatchNorm2d(256, eps=1e-05, momentum=0.1, affine=True, track_running_stats=True)
            (activate): ReLU(inplace=True)
          )
          (1): DepthwiseSeparableConvModule(
            (depthwise_conv): ConvModule(
              (conv): Conv2d(1024, 1024, kernel_size=(3, 3), stride=(1, 1), padding=(6, 6), dilation=(6, 6), groups=1024, bias=False)
              (bn): BatchNorm2d(1024, eps=1e-05, momentum=0.1, affine=True, track_running_stats=True)
              (activate): ReLU(inplace=True)
            )
            (pointwise_conv): ConvModule(
              (conv): Conv2d(1024, 256, kernel_size=(1, 1), stride=(1, 1), bias=False)
              (bn): BatchNorm2d(256, eps=1e-05, momentum=0.1, affine=True, track_running_stats=True)
              (activate): ReLU(inplace=True)
            )
          )
          (2): DepthwiseSeparableConvModule(
            (depthwise_conv): ConvModule(
              (conv): Conv2d(1024, 1024, kernel_size=(3, 3), stride=(1, 1), padding=(12, 12), dilation=(12, 12), groups=1024, bias=False)
              (bn): BatchNorm2d(1024, eps=1e-05, momentum=0.1, affine=True, track_running_stats=True)
              (activate): ReLU(inplace=True)
            )
            (pointwise_conv): ConvModule(
              (conv): Conv2d(1024, 256, kernel_size=(1, 1), stride=(1, 1), bias=False)
              (bn): BatchNorm2d(256, eps=1e-05, momentum=0.1, affine=True, track_running_stats=True)
              (activate): ReLU(inplace=True)
            )
          )
          (3): DepthwiseSeparableConvModule(
            (depthwise_conv): ConvModule(
              (conv): Conv2d(1024, 1024, kernel_size=(3, 3), stride=(1, 1), padding=(18, 18), dilation=(18, 18), groups=1024, bias=False)
              (bn): BatchNorm2d(1024, eps=1e-05, momentum=0.1, affine=True, track_running_stats=True)
              (activate): ReLU(inplace=True)
            )
            (pointwise_conv): ConvModule(
              (conv): Conv2d(1024, 256, kernel_size=(1, 1), stride=(1, 1), bias=False)
              (bn): BatchNorm2d(256, eps=1e-05, momentum=0.1, affine=True, track_running_stats=True)
              (activate): ReLU(inplace=True)
            )
          )
        )
        (bottleneck): ConvModule(
          (conv): Conv2d(1024, 256, kernel_size=(3, 3), stride=(1, 1), padding=(1, 1), bias=False)
          (bn): BatchNorm2d(256, eps=1e-05, momentum=0.1, affine=True, track_running_stats=True)
          (activate): ReLU(inplace=True)
        )
      )
    )
    init_cfg={'type': 'Normal', 'std': 0.01, 'override': {'name': 'conv_seg'}}
  )
  (ema_model): EncoderDecoder(
    (backbone): mit_b5(
      (patch_embed1): OverlapPatchEmbed(
        (proj): Conv2d(3, 64, kernel_size=(7, 7), stride=(4, 4), padding=(3, 3))
        (norm): LayerNorm((64,), eps=1e-05, elementwise_affine=True)
      )
      (patch_embed2): OverlapPatchEmbed(
        (proj): Conv2d(64, 128, kernel_size=(3, 3), stride=(2, 2), padding=(1, 1))
        (norm): LayerNorm((128,), eps=1e-05, elementwise_affine=True)
      )
      (patch_embed3): OverlapPatchEmbed(
        (proj): Conv2d(128, 320, kernel_size=(3, 3), stride=(2, 2), padding=(1, 1))
        (norm): LayerNorm((320,), eps=1e-05, elementwise_affine=True)
      )
      (patch_embed4): OverlapPatchEmbed(
        (proj): Conv2d(320, 512, kernel_size=(3, 3), stride=(2, 2), padding=(1, 1))
        (norm): LayerNorm((512,), eps=1e-05, elementwise_affine=True)
      )
      (block1): ModuleList(
        (0): Block(
          (norm1): LayerNorm((64,), eps=1e-06, elementwise_affine=True)
          (attn): Attention(
            (q): Linear(in_features=64, out_features=64, bias=True)
            (kv): Linear(in_features=64, out_features=128, bias=True)
            (attn_drop): Dropout(p=0.0, inplace=False)
            (proj): Linear(in_features=64, out_features=64, bias=True)
            (proj_drop): Dropout(p=0.0, inplace=False)
            (sr): Conv2d(64, 64, kernel_size=(8, 8), stride=(8, 8))
            (norm): LayerNorm((64,), eps=1e-05, elementwise_affine=True)
          )
          (drop_path): Identity()
          (norm2): LayerNorm((64,), eps=1e-06, elementwise_affine=True)
          (mlp): Mlp(
            (fc1): Linear(in_features=64, out_features=256, bias=True)
            (dwconv): DWConv(
              (dwconv): Conv2d(256, 256, kernel_size=(3, 3), stride=(1, 1), padding=(1, 1), groups=256)
            )
            (act): GELU()
            (fc2): Linear(in_features=256, out_features=64, bias=True)
            (drop): Dropout(p=0.0, inplace=False)
          )
        )
        (1): Block(
          (norm1): LayerNorm((64,), eps=1e-06, elementwise_affine=True)
          (attn): Attention(
            (q): Linear(in_features=64, out_features=64, bias=True)
            (kv): Linear(in_features=64, out_features=128, bias=True)
            (attn_drop): Dropout(p=0.0, inplace=False)
            (proj): Linear(in_features=64, out_features=64, bias=True)
            (proj_drop): Dropout(p=0.0, inplace=False)
            (sr): Conv2d(64, 64, kernel_size=(8, 8), stride=(8, 8))
            (norm): LayerNorm((64,), eps=1e-05, elementwise_affine=True)
          )
          (drop_path): DropPath()
          (norm2): LayerNorm((64,), eps=1e-06, elementwise_affine=True)
          (mlp): Mlp(
            (fc1): Linear(in_features=64, out_features=256, bias=True)
            (dwconv): DWConv(
              (dwconv): Conv2d(256, 256, kernel_size=(3, 3), stride=(1, 1), padding=(1, 1), groups=256)
            )
            (act): GELU()
            (fc2): Linear(in_features=256, out_features=64, bias=True)
            (drop): Dropout(p=0.0, inplace=False)
          )
        )
        (2): Block(
          (norm1): LayerNorm((64,), eps=1e-06, elementwise_affine=True)
          (attn): Attention(
            (q): Linear(in_features=64, out_features=64, bias=True)
            (kv): Linear(in_features=64, out_features=128, bias=True)
            (attn_drop): Dropout(p=0.0, inplace=False)
            (proj): Linear(in_features=64, out_features=64, bias=True)
            (proj_drop): Dropout(p=0.0, inplace=False)
            (sr): Conv2d(64, 64, kernel_size=(8, 8), stride=(8, 8))
            (norm): LayerNorm((64,), eps=1e-05, elementwise_affine=True)
          )
          (drop_path): DropPath()
          (norm2): LayerNorm((64,), eps=1e-06, elementwise_affine=True)
          (mlp): Mlp(
            (fc1): Linear(in_features=64, out_features=256, bias=True)
            (dwconv): DWConv(
              (dwconv): Conv2d(256, 256, kernel_size=(3, 3), stride=(1, 1), padding=(1, 1), groups=256)
            )
            (act): GELU()
            (fc2): Linear(in_features=256, out_features=64, bias=True)
            (drop): Dropout(p=0.0, inplace=False)
          )
        )
      )
      (norm1): LayerNorm((64,), eps=1e-06, elementwise_affine=True)
      (block2): ModuleList(
        (0): Block(
          (norm1): LayerNorm((128,), eps=1e-06, elementwise_affine=True)
          (attn): Attention(
            (q): Linear(in_features=128, out_features=128, bias=True)
            (kv): Linear(in_features=128, out_features=256, bias=True)
            (attn_drop): Dropout(p=0.0, inplace=False)
            (proj): Linear(in_features=128, out_features=128, bias=True)
            (proj_drop): Dropout(p=0.0, inplace=False)
            (sr): Conv2d(128, 128, kernel_size=(4, 4), stride=(4, 4))
            (norm): LayerNorm((128,), eps=1e-05, elementwise_affine=True)
          )
          (drop_path): DropPath()
          (norm2): LayerNorm((128,), eps=1e-06, elementwise_affine=True)
          (mlp): Mlp(
            (fc1): Linear(in_features=128, out_features=512, bias=True)
            (dwconv): DWConv(
              (dwconv): Conv2d(512, 512, kernel_size=(3, 3), stride=(1, 1), padding=(1, 1), groups=512)
            )
            (act): GELU()
            (fc2): Linear(in_features=512, out_features=128, bias=True)
            (drop): Dropout(p=0.0, inplace=False)
          )
        )
        (1): Block(
          (norm1): LayerNorm((128,), eps=1e-06, elementwise_affine=True)
          (attn): Attention(
            (q): Linear(in_features=128, out_features=128, bias=True)
            (kv): Linear(in_features=128, out_features=256, bias=True)
            (attn_drop): Dropout(p=0.0, inplace=False)
            (proj): Linear(in_features=128, out_features=128, bias=True)
            (proj_drop): Dropout(p=0.0, inplace=False)
            (sr): Conv2d(128, 128, kernel_size=(4, 4), stride=(4, 4))
            (norm): LayerNorm((128,), eps=1e-05, elementwise_affine=True)
          )
          (drop_path): DropPath()
          (norm2): LayerNorm((128,), eps=1e-06, elementwise_affine=True)
          (mlp): Mlp(
            (fc1): Linear(in_features=128, out_features=512, bias=True)
            (dwconv): DWConv(
              (dwconv): Conv2d(512, 512, kernel_size=(3, 3), stride=(1, 1), padding=(1, 1), groups=512)
            )
            (act): GELU()
            (fc2): Linear(in_features=512, out_features=128, bias=True)
            (drop): Dropout(p=0.0, inplace=False)
          )
        )
        (2): Block(
          (norm1): LayerNorm((128,), eps=1e-06, elementwise_affine=True)
          (attn): Attention(
            (q): Linear(in_features=128, out_features=128, bias=True)
            (kv): Linear(in_features=128, out_features=256, bias=True)
            (attn_drop): Dropout(p=0.0, inplace=False)
            (proj): Linear(in_features=128, out_features=128, bias=True)
            (proj_drop): Dropout(p=0.0, inplace=False)
            (sr): Conv2d(128, 128, kernel_size=(4, 4), stride=(4, 4))
            (norm): LayerNorm((128,), eps=1e-05, elementwise_affine=True)
          )
          (drop_path): DropPath()
          (norm2): LayerNorm((128,), eps=1e-06, elementwise_affine=True)
          (mlp): Mlp(
            (fc1): Linear(in_features=128, out_features=512, bias=True)
            (dwconv): DWConv(
              (dwconv): Conv2d(512, 512, kernel_size=(3, 3), stride=(1, 1), padding=(1, 1), groups=512)
            )
            (act): GELU()
            (fc2): Linear(in_features=512, out_features=128, bias=True)
            (drop): Dropout(p=0.0, inplace=False)
          )
        )
        (3): Block(
          (norm1): LayerNorm((128,), eps=1e-06, elementwise_affine=True)
          (attn): Attention(
            (q): Linear(in_features=128, out_features=128, bias=True)
            (kv): Linear(in_features=128, out_features=256, bias=True)
            (attn_drop): Dropout(p=0.0, inplace=False)
            (proj): Linear(in_features=128, out_features=128, bias=True)
            (proj_drop): Dropout(p=0.0, inplace=False)
            (sr): Conv2d(128, 128, kernel_size=(4, 4), stride=(4, 4))
            (norm): LayerNorm((128,), eps=1e-05, elementwise_affine=True)
          )
          (drop_path): DropPath()
          (norm2): LayerNorm((128,), eps=1e-06, elementwise_affine=True)
          (mlp): Mlp(
            (fc1): Linear(in_features=128, out_features=512, bias=True)
            (dwconv): DWConv(
              (dwconv): Conv2d(512, 512, kernel_size=(3, 3), stride=(1, 1), padding=(1, 1), groups=512)
            )
            (act): GELU()
            (fc2): Linear(in_features=512, out_features=128, bias=True)
            (drop): Dropout(p=0.0, inplace=False)
          )
        )
        (4): Block(
          (norm1): LayerNorm((128,), eps=1e-06, elementwise_affine=True)
          (attn): Attention(
            (q): Linear(in_features=128, out_features=128, bias=True)
            (kv): Linear(in_features=128, out_features=256, bias=True)
            (attn_drop): Dropout(p=0.0, inplace=False)
            (proj): Linear(in_features=128, out_features=128, bias=True)
            (proj_drop): Dropout(p=0.0, inplace=False)
            (sr): Conv2d(128, 128, kernel_size=(4, 4), stride=(4, 4))
            (norm): LayerNorm((128,), eps=1e-05, elementwise_affine=True)
          )
          (drop_path): DropPath()
          (norm2): LayerNorm((128,), eps=1e-06, elementwise_affine=True)
          (mlp): Mlp(
            (fc1): Linear(in_features=128, out_features=512, bias=True)
            (dwconv): DWConv(
              (dwconv): Conv2d(512, 512, kernel_size=(3, 3), stride=(1, 1), padding=(1, 1), groups=512)
            )
            (act): GELU()
            (fc2): Linear(in_features=512, out_features=128, bias=True)
            (drop): Dropout(p=0.0, inplace=False)
          )
        )
        (5): Block(
          (norm1): LayerNorm((128,), eps=1e-06, elementwise_affine=True)
          (attn): Attention(
            (q): Linear(in_features=128, out_features=128, bias=True)
            (kv): Linear(in_features=128, out_features=256, bias=True)
            (attn_drop): Dropout(p=0.0, inplace=False)
            (proj): Linear(in_features=128, out_features=128, bias=True)
            (proj_drop): Dropout(p=0.0, inplace=False)
            (sr): Conv2d(128, 128, kernel_size=(4, 4), stride=(4, 4))
            (norm): LayerNorm((128,), eps=1e-05, elementwise_affine=True)
          )
          (drop_path): DropPath()
          (norm2): LayerNorm((128,), eps=1e-06, elementwise_affine=True)
          (mlp): Mlp(
            (fc1): Linear(in_features=128, out_features=512, bias=True)
            (dwconv): DWConv(
              (dwconv): Conv2d(512, 512, kernel_size=(3, 3), stride=(1, 1), padding=(1, 1), groups=512)
            )
            (act): GELU()
            (fc2): Linear(in_features=512, out_features=128, bias=True)
            (drop): Dropout(p=0.0, inplace=False)
          )
        )
      )
      (norm2): LayerNorm((128,), eps=1e-06, elementwise_affine=True)
      (block3): ModuleList(
        (0): Block(
          (norm1): LayerNorm((320,), eps=1e-06, elementwise_affine=True)
          (attn): Attention(
            (q): Linear(in_features=320, out_features=320, bias=True)
            (kv): Linear(in_features=320, out_features=640, bias=True)
            (attn_drop): Dropout(p=0.0, inplace=False)
            (proj): Linear(in_features=320, out_features=320, bias=True)
            (proj_drop): Dropout(p=0.0, inplace=False)
            (sr): Conv2d(320, 320, kernel_size=(2, 2), stride=(2, 2))
            (norm): LayerNorm((320,), eps=1e-05, elementwise_affine=True)
          )
          (drop_path): DropPath()
          (norm2): LayerNorm((320,), eps=1e-06, elementwise_affine=True)
          (mlp): Mlp(
            (fc1): Linear(in_features=320, out_features=1280, bias=True)
            (dwconv): DWConv(
              (dwconv): Conv2d(1280, 1280, kernel_size=(3, 3), stride=(1, 1), padding=(1, 1), groups=1280)
            )
            (act): GELU()
            (fc2): Linear(in_features=1280, out_features=320, bias=True)
            (drop): Dropout(p=0.0, inplace=False)
          )
        )
        (1): Block(
          (norm1): LayerNorm((320,), eps=1e-06, elementwise_affine=True)
          (attn): Attention(
            (q): Linear(in_features=320, out_features=320, bias=True)
            (kv): Linear(in_features=320, out_features=640, bias=True)
            (attn_drop): Dropout(p=0.0, inplace=False)
            (proj): Linear(in_features=320, out_features=320, bias=True)
            (proj_drop): Dropout(p=0.0, inplace=False)
            (sr): Conv2d(320, 320, kernel_size=(2, 2), stride=(2, 2))
            (norm): LayerNorm((320,), eps=1e-05, elementwise_affine=True)
          )
          (drop_path): DropPath()
          (norm2): LayerNorm((320,), eps=1e-06, elementwise_affine=True)
          (mlp): Mlp(
            (fc1): Linear(in_features=320, out_features=1280, bias=True)
            (dwconv): DWConv(
              (dwconv): Conv2d(1280, 1280, kernel_size=(3, 3), stride=(1, 1), padding=(1, 1), groups=1280)
            )
            (act): GELU()
            (fc2): Linear(in_features=1280, out_features=320, bias=True)
            (drop): Dropout(p=0.0, inplace=False)
          )
        )
        (2): Block(
          (norm1): LayerNorm((320,), eps=1e-06, elementwise_affine=True)
          (attn): Attention(
            (q): Linear(in_features=320, out_features=320, bias=True)
            (kv): Linear(in_features=320, out_features=640, bias=True)
            (attn_drop): Dropout(p=0.0, inplace=False)
            (proj): Linear(in_features=320, out_features=320, bias=True)
            (proj_drop): Dropout(p=0.0, inplace=False)
            (sr): Conv2d(320, 320, kernel_size=(2, 2), stride=(2, 2))
            (norm): LayerNorm((320,), eps=1e-05, elementwise_affine=True)
          )
          (drop_path): DropPath()
          (norm2): LayerNorm((320,), eps=1e-06, elementwise_affine=True)
          (mlp): Mlp(
            (fc1): Linear(in_features=320, out_features=1280, bias=True)
            (dwconv): DWConv(
              (dwconv): Conv2d(1280, 1280, kernel_size=(3, 3), stride=(1, 1), padding=(1, 1), groups=1280)
            )
            (act): GELU()
            (fc2): Linear(in_features=1280, out_features=320, bias=True)
            (drop): Dropout(p=0.0, inplace=False)
          )
        )
        (3): Block(
          (norm1): LayerNorm((320,), eps=1e-06, elementwise_affine=True)
          (attn): Attention(
            (q): Linear(in_features=320, out_features=320, bias=True)
            (kv): Linear(in_features=320, out_features=640, bias=True)
            (attn_drop): Dropout(p=0.0, inplace=False)
            (proj): Linear(in_features=320, out_features=320, bias=True)
            (proj_drop): Dropout(p=0.0, inplace=False)
            (sr): Conv2d(320, 320, kernel_size=(2, 2), stride=(2, 2))
            (norm): LayerNorm((320,), eps=1e-05, elementwise_affine=True)
          )
          (drop_path): DropPath()
          (norm2): LayerNorm((320,), eps=1e-06, elementwise_affine=True)
          (mlp): Mlp(
            (fc1): Linear(in_features=320, out_features=1280, bias=True)
            (dwconv): DWConv(
              (dwconv): Conv2d(1280, 1280, kernel_size=(3, 3), stride=(1, 1), padding=(1, 1), groups=1280)
            )
            (act): GELU()
            (fc2): Linear(in_features=1280, out_features=320, bias=True)
            (drop): Dropout(p=0.0, inplace=False)
          )
        )
        (4): Block(
          (norm1): LayerNorm((320,), eps=1e-06, elementwise_affine=True)
          (attn): Attention(
            (q): Linear(in_features=320, out_features=320, bias=True)
            (kv): Linear(in_features=320, out_features=640, bias=True)
            (attn_drop): Dropout(p=0.0, inplace=False)
            (proj): Linear(in_features=320, out_features=320, bias=True)
            (proj_drop): Dropout(p=0.0, inplace=False)
            (sr): Conv2d(320, 320, kernel_size=(2, 2), stride=(2, 2))
            (norm): LayerNorm((320,), eps=1e-05, elementwise_affine=True)
          )
          (drop_path): DropPath()
          (norm2): LayerNorm((320,), eps=1e-06, elementwise_affine=True)
          (mlp): Mlp(
            (fc1): Linear(in_features=320, out_features=1280, bias=True)
            (dwconv): DWConv(
              (dwconv): Conv2d(1280, 1280, kernel_size=(3, 3), stride=(1, 1), padding=(1, 1), groups=1280)
            )
            (act): GELU()
            (fc2): Linear(in_features=1280, out_features=320, bias=True)
            (drop): Dropout(p=0.0, inplace=False)
          )
        )
        (5): Block(
          (norm1): LayerNorm((320,), eps=1e-06, elementwise_affine=True)
          (attn): Attention(
            (q): Linear(in_features=320, out_features=320, bias=True)
            (kv): Linear(in_features=320, out_features=640, bias=True)
            (attn_drop): Dropout(p=0.0, inplace=False)
            (proj): Linear(in_features=320, out_features=320, bias=True)
            (proj_drop): Dropout(p=0.0, inplace=False)
            (sr): Conv2d(320, 320, kernel_size=(2, 2), stride=(2, 2))
            (norm): LayerNorm((320,), eps=1e-05, elementwise_affine=True)
          )
          (drop_path): DropPath()
          (norm2): LayerNorm((320,), eps=1e-06, elementwise_affine=True)
          (mlp): Mlp(
            (fc1): Linear(in_features=320, out_features=1280, bias=True)
            (dwconv): DWConv(
              (dwconv): Conv2d(1280, 1280, kernel_size=(3, 3), stride=(1, 1), padding=(1, 1), groups=1280)
            )
            (act): GELU()
            (fc2): Linear(in_features=1280, out_features=320, bias=True)
            (drop): Dropout(p=0.0, inplace=False)
          )
        )
        (6): Block(
          (norm1): LayerNorm((320,), eps=1e-06, elementwise_affine=True)
          (attn): Attention(
            (q): Linear(in_features=320, out_features=320, bias=True)
            (kv): Linear(in_features=320, out_features=640, bias=True)
            (attn_drop): Dropout(p=0.0, inplace=False)
            (proj): Linear(in_features=320, out_features=320, bias=True)
            (proj_drop): Dropout(p=0.0, inplace=False)
            (sr): Conv2d(320, 320, kernel_size=(2, 2), stride=(2, 2))
            (norm): LayerNorm((320,), eps=1e-05, elementwise_affine=True)
          )
          (drop_path): DropPath()
          (norm2): LayerNorm((320,), eps=1e-06, elementwise_affine=True)
          (mlp): Mlp(
            (fc1): Linear(in_features=320, out_features=1280, bias=True)
            (dwconv): DWConv(
              (dwconv): Conv2d(1280, 1280, kernel_size=(3, 3), stride=(1, 1), padding=(1, 1), groups=1280)
            )
            (act): GELU()
            (fc2): Linear(in_features=1280, out_features=320, bias=True)
            (drop): Dropout(p=0.0, inplace=False)
          )
        )
        (7): Block(
          (norm1): LayerNorm((320,), eps=1e-06, elementwise_affine=True)
          (attn): Attention(
            (q): Linear(in_features=320, out_features=320, bias=True)
            (kv): Linear(in_features=320, out_features=640, bias=True)
            (attn_drop): Dropout(p=0.0, inplace=False)
            (proj): Linear(in_features=320, out_features=320, bias=True)
            (proj_drop): Dropout(p=0.0, inplace=False)
            (sr): Conv2d(320, 320, kernel_size=(2, 2), stride=(2, 2))
            (norm): LayerNorm((320,), eps=1e-05, elementwise_affine=True)
          )
          (drop_path): DropPath()
          (norm2): LayerNorm((320,), eps=1e-06, elementwise_affine=True)
          (mlp): Mlp(
            (fc1): Linear(in_features=320, out_features=1280, bias=True)
            (dwconv): DWConv(
              (dwconv): Conv2d(1280, 1280, kernel_size=(3, 3), stride=(1, 1), padding=(1, 1), groups=1280)
            )
            (act): GELU()
            (fc2): Linear(in_features=1280, out_features=320, bias=True)
            (drop): Dropout(p=0.0, inplace=False)
          )
        )
        (8): Block(
          (norm1): LayerNorm((320,), eps=1e-06, elementwise_affine=True)
          (attn): Attention(
            (q): Linear(in_features=320, out_features=320, bias=True)
            (kv): Linear(in_features=320, out_features=640, bias=True)
            (attn_drop): Dropout(p=0.0, inplace=False)
            (proj): Linear(in_features=320, out_features=320, bias=True)
            (proj_drop): Dropout(p=0.0, inplace=False)
            (sr): Conv2d(320, 320, kernel_size=(2, 2), stride=(2, 2))
            (norm): LayerNorm((320,), eps=1e-05, elementwise_affine=True)
          )
          (drop_path): DropPath()
          (norm2): LayerNorm((320,), eps=1e-06, elementwise_affine=True)
          (mlp): Mlp(
            (fc1): Linear(in_features=320, out_features=1280, bias=True)
            (dwconv): DWConv(
              (dwconv): Conv2d(1280, 1280, kernel_size=(3, 3), stride=(1, 1), padding=(1, 1), groups=1280)
            )
            (act): GELU()
            (fc2): Linear(in_features=1280, out_features=320, bias=True)
            (drop): Dropout(p=0.0, inplace=False)
          )
        )
        (9): Block(
          (norm1): LayerNorm((320,), eps=1e-06, elementwise_affine=True)
          (attn): Attention(
            (q): Linear(in_features=320, out_features=320, bias=True)
            (kv): Linear(in_features=320, out_features=640, bias=True)
            (attn_drop): Dropout(p=0.0, inplace=False)
            (proj): Linear(in_features=320, out_features=320, bias=True)
            (proj_drop): Dropout(p=0.0, inplace=False)
            (sr): Conv2d(320, 320, kernel_size=(2, 2), stride=(2, 2))
            (norm): LayerNorm((320,), eps=1e-05, elementwise_affine=True)
          )
          (drop_path): DropPath()
          (norm2): LayerNorm((320,), eps=1e-06, elementwise_affine=True)
          (mlp): Mlp(
            (fc1): Linear(in_features=320, out_features=1280, bias=True)
            (dwconv): DWConv(
              (dwconv): Conv2d(1280, 1280, kernel_size=(3, 3), stride=(1, 1), padding=(1, 1), groups=1280)
            )
            (act): GELU()
            (fc2): Linear(in_features=1280, out_features=320, bias=True)
            (drop): Dropout(p=0.0, inplace=False)
          )
        )
        (10): Block(
          (norm1): LayerNorm((320,), eps=1e-06, elementwise_affine=True)
          (attn): Attention(
            (q): Linear(in_features=320, out_features=320, bias=True)
            (kv): Linear(in_features=320, out_features=640, bias=True)
            (attn_drop): Dropout(p=0.0, inplace=False)
            (proj): Linear(in_features=320, out_features=320, bias=True)
            (proj_drop): Dropout(p=0.0, inplace=False)
            (sr): Conv2d(320, 320, kernel_size=(2, 2), stride=(2, 2))
            (norm): LayerNorm((320,), eps=1e-05, elementwise_affine=True)
          )
          (drop_path): DropPath()
          (norm2): LayerNorm((320,), eps=1e-06, elementwise_affine=True)
          (mlp): Mlp(
            (fc1): Linear(in_features=320, out_features=1280, bias=True)
            (dwconv): DWConv(
              (dwconv): Conv2d(1280, 1280, kernel_size=(3, 3), stride=(1, 1), padding=(1, 1), groups=1280)
            )
            (act): GELU()
            (fc2): Linear(in_features=1280, out_features=320, bias=True)
            (drop): Dropout(p=0.0, inplace=False)
          )
        )
        (11): Block(
          (norm1): LayerNorm((320,), eps=1e-06, elementwise_affine=True)
          (attn): Attention(
            (q): Linear(in_features=320, out_features=320, bias=True)
            (kv): Linear(in_features=320, out_features=640, bias=True)
            (attn_drop): Dropout(p=0.0, inplace=False)
            (proj): Linear(in_features=320, out_features=320, bias=True)
            (proj_drop): Dropout(p=0.0, inplace=False)
            (sr): Conv2d(320, 320, kernel_size=(2, 2), stride=(2, 2))
            (norm): LayerNorm((320,), eps=1e-05, elementwise_affine=True)
          )
          (drop_path): DropPath()
          (norm2): LayerNorm((320,), eps=1e-06, elementwise_affine=True)
          (mlp): Mlp(
            (fc1): Linear(in_features=320, out_features=1280, bias=True)
            (dwconv): DWConv(
              (dwconv): Conv2d(1280, 1280, kernel_size=(3, 3), stride=(1, 1), padding=(1, 1), groups=1280)
            )
            (act): GELU()
            (fc2): Linear(in_features=1280, out_features=320, bias=True)
            (drop): Dropout(p=0.0, inplace=False)
          )
        )
        (12): Block(
          (norm1): LayerNorm((320,), eps=1e-06, elementwise_affine=True)
          (attn): Attention(
            (q): Linear(in_features=320, out_features=320, bias=True)
            (kv): Linear(in_features=320, out_features=640, bias=True)
            (attn_drop): Dropout(p=0.0, inplace=False)
            (proj): Linear(in_features=320, out_features=320, bias=True)
            (proj_drop): Dropout(p=0.0, inplace=False)
            (sr): Conv2d(320, 320, kernel_size=(2, 2), stride=(2, 2))
            (norm): LayerNorm((320,), eps=1e-05, elementwise_affine=True)
          )
          (drop_path): DropPath()
          (norm2): LayerNorm((320,), eps=1e-06, elementwise_affine=True)
          (mlp): Mlp(
            (fc1): Linear(in_features=320, out_features=1280, bias=True)
            (dwconv): DWConv(
              (dwconv): Conv2d(1280, 1280, kernel_size=(3, 3), stride=(1, 1), padding=(1, 1), groups=1280)
            )
            (act): GELU()
            (fc2): Linear(in_features=1280, out_features=320, bias=True)
            (drop): Dropout(p=0.0, inplace=False)
          )
        )
        (13): Block(
          (norm1): LayerNorm((320,), eps=1e-06, elementwise_affine=True)
          (attn): Attention(
            (q): Linear(in_features=320, out_features=320, bias=True)
            (kv): Linear(in_features=320, out_features=640, bias=True)
            (attn_drop): Dropout(p=0.0, inplace=False)
            (proj): Linear(in_features=320, out_features=320, bias=True)
            (proj_drop): Dropout(p=0.0, inplace=False)
            (sr): Conv2d(320, 320, kernel_size=(2, 2), stride=(2, 2))
            (norm): LayerNorm((320,), eps=1e-05, elementwise_affine=True)
          )
          (drop_path): DropPath()
          (norm2): LayerNorm((320,), eps=1e-06, elementwise_affine=True)
          (mlp): Mlp(
            (fc1): Linear(in_features=320, out_features=1280, bias=True)
            (dwconv): DWConv(
              (dwconv): Conv2d(1280, 1280, kernel_size=(3, 3), stride=(1, 1), padding=(1, 1), groups=1280)
            )
            (act): GELU()
            (fc2): Linear(in_features=1280, out_features=320, bias=True)
            (drop): Dropout(p=0.0, inplace=False)
          )
        )
        (14): Block(
          (norm1): LayerNorm((320,), eps=1e-06, elementwise_affine=True)
          (attn): Attention(
            (q): Linear(in_features=320, out_features=320, bias=True)
            (kv): Linear(in_features=320, out_features=640, bias=True)
            (attn_drop): Dropout(p=0.0, inplace=False)
            (proj): Linear(in_features=320, out_features=320, bias=True)
            (proj_drop): Dropout(p=0.0, inplace=False)
            (sr): Conv2d(320, 320, kernel_size=(2, 2), stride=(2, 2))
            (norm): LayerNorm((320,), eps=1e-05, elementwise_affine=True)
          )
          (drop_path): DropPath()
          (norm2): LayerNorm((320,), eps=1e-06, elementwise_affine=True)
          (mlp): Mlp(
            (fc1): Linear(in_features=320, out_features=1280, bias=True)
            (dwconv): DWConv(
              (dwconv): Conv2d(1280, 1280, kernel_size=(3, 3), stride=(1, 1), padding=(1, 1), groups=1280)
            )
            (act): GELU()
            (fc2): Linear(in_features=1280, out_features=320, bias=True)
            (drop): Dropout(p=0.0, inplace=False)
          )
        )
        (15): Block(
          (norm1): LayerNorm((320,), eps=1e-06, elementwise_affine=True)
          (attn): Attention(
            (q): Linear(in_features=320, out_features=320, bias=True)
            (kv): Linear(in_features=320, out_features=640, bias=True)
            (attn_drop): Dropout(p=0.0, inplace=False)
            (proj): Linear(in_features=320, out_features=320, bias=True)
            (proj_drop): Dropout(p=0.0, inplace=False)
            (sr): Conv2d(320, 320, kernel_size=(2, 2), stride=(2, 2))
            (norm): LayerNorm((320,), eps=1e-05, elementwise_affine=True)
          )
          (drop_path): DropPath()
          (norm2): LayerNorm((320,), eps=1e-06, elementwise_affine=True)
          (mlp): Mlp(
            (fc1): Linear(in_features=320, out_features=1280, bias=True)
            (dwconv): DWConv(
              (dwconv): Conv2d(1280, 1280, kernel_size=(3, 3), stride=(1, 1), padding=(1, 1), groups=1280)
            )
            (act): GELU()
            (fc2): Linear(in_features=1280, out_features=320, bias=True)
            (drop): Dropout(p=0.0, inplace=False)
          )
        )
        (16): Block(
          (norm1): LayerNorm((320,), eps=1e-06, elementwise_affine=True)
          (attn): Attention(
            (q): Linear(in_features=320, out_features=320, bias=True)
            (kv): Linear(in_features=320, out_features=640, bias=True)
            (attn_drop): Dropout(p=0.0, inplace=False)
            (proj): Linear(in_features=320, out_features=320, bias=True)
            (proj_drop): Dropout(p=0.0, inplace=False)
            (sr): Conv2d(320, 320, kernel_size=(2, 2), stride=(2, 2))
            (norm): LayerNorm((320,), eps=1e-05, elementwise_affine=True)
          )
          (drop_path): DropPath()
          (norm2): LayerNorm((320,), eps=1e-06, elementwise_affine=True)
          (mlp): Mlp(
            (fc1): Linear(in_features=320, out_features=1280, bias=True)
            (dwconv): DWConv(
              (dwconv): Conv2d(1280, 1280, kernel_size=(3, 3), stride=(1, 1), padding=(1, 1), groups=1280)
            )
            (act): GELU()
            (fc2): Linear(in_features=1280, out_features=320, bias=True)
            (drop): Dropout(p=0.0, inplace=False)
          )
        )
        (17): Block(
          (norm1): LayerNorm((320,), eps=1e-06, elementwise_affine=True)
          (attn): Attention(
            (q): Linear(in_features=320, out_features=320, bias=True)
            (kv): Linear(in_features=320, out_features=640, bias=True)
            (attn_drop): Dropout(p=0.0, inplace=False)
            (proj): Linear(in_features=320, out_features=320, bias=True)
            (proj_drop): Dropout(p=0.0, inplace=False)
            (sr): Conv2d(320, 320, kernel_size=(2, 2), stride=(2, 2))
            (norm): LayerNorm((320,), eps=1e-05, elementwise_affine=True)
          )
          (drop_path): DropPath()
          (norm2): LayerNorm((320,), eps=1e-06, elementwise_affine=True)
          (mlp): Mlp(
            (fc1): Linear(in_features=320, out_features=1280, bias=True)
            (dwconv): DWConv(
              (dwconv): Conv2d(1280, 1280, kernel_size=(3, 3), stride=(1, 1), padding=(1, 1), groups=1280)
            )
            (act): GELU()
            (fc2): Linear(in_features=1280, out_features=320, bias=True)
            (drop): Dropout(p=0.0, inplace=False)
          )
        )
        (18): Block(
          (norm1): LayerNorm((320,), eps=1e-06, elementwise_affine=True)
          (attn): Attention(
            (q): Linear(in_features=320, out_features=320, bias=True)
            (kv): Linear(in_features=320, out_features=640, bias=True)
            (attn_drop): Dropout(p=0.0, inplace=False)
            (proj): Linear(in_features=320, out_features=320, bias=True)
            (proj_drop): Dropout(p=0.0, inplace=False)
            (sr): Conv2d(320, 320, kernel_size=(2, 2), stride=(2, 2))
            (norm): LayerNorm((320,), eps=1e-05, elementwise_affine=True)
          )
          (drop_path): DropPath()
          (norm2): LayerNorm((320,), eps=1e-06, elementwise_affine=True)
          (mlp): Mlp(
            (fc1): Linear(in_features=320, out_features=1280, bias=True)
            (dwconv): DWConv(
              (dwconv): Conv2d(1280, 1280, kernel_size=(3, 3), stride=(1, 1), padding=(1, 1), groups=1280)
            )
            (act): GELU()
            (fc2): Linear(in_features=1280, out_features=320, bias=True)
            (drop): Dropout(p=0.0, inplace=False)
          )
        )
        (19): Block(
          (norm1): LayerNorm((320,), eps=1e-06, elementwise_affine=True)
          (attn): Attention(
            (q): Linear(in_features=320, out_features=320, bias=True)
            (kv): Linear(in_features=320, out_features=640, bias=True)
            (attn_drop): Dropout(p=0.0, inplace=False)
            (proj): Linear(in_features=320, out_features=320, bias=True)
            (proj_drop): Dropout(p=0.0, inplace=False)
            (sr): Conv2d(320, 320, kernel_size=(2, 2), stride=(2, 2))
            (norm): LayerNorm((320,), eps=1e-05, elementwise_affine=True)
          )
          (drop_path): DropPath()
          (norm2): LayerNorm((320,), eps=1e-06, elementwise_affine=True)
          (mlp): Mlp(
            (fc1): Linear(in_features=320, out_features=1280, bias=True)
            (dwconv): DWConv(
              (dwconv): Conv2d(1280, 1280, kernel_size=(3, 3), stride=(1, 1), padding=(1, 1), groups=1280)
            )
            (act): GELU()
            (fc2): Linear(in_features=1280, out_features=320, bias=True)
            (drop): Dropout(p=0.0, inplace=False)
          )
        )
        (20): Block(
          (norm1): LayerNorm((320,), eps=1e-06, elementwise_affine=True)
          (attn): Attention(
            (q): Linear(in_features=320, out_features=320, bias=True)
            (kv): Linear(in_features=320, out_features=640, bias=True)
            (attn_drop): Dropout(p=0.0, inplace=False)
            (proj): Linear(in_features=320, out_features=320, bias=True)
            (proj_drop): Dropout(p=0.0, inplace=False)
            (sr): Conv2d(320, 320, kernel_size=(2, 2), stride=(2, 2))
            (norm): LayerNorm((320,), eps=1e-05, elementwise_affine=True)
          )
          (drop_path): DropPath()
          (norm2): LayerNorm((320,), eps=1e-06, elementwise_affine=True)
          (mlp): Mlp(
            (fc1): Linear(in_features=320, out_features=1280, bias=True)
            (dwconv): DWConv(
              (dwconv): Conv2d(1280, 1280, kernel_size=(3, 3), stride=(1, 1), padding=(1, 1), groups=1280)
            )
            (act): GELU()
            (fc2): Linear(in_features=1280, out_features=320, bias=True)
            (drop): Dropout(p=0.0, inplace=False)
          )
        )
        (21): Block(
          (norm1): LayerNorm((320,), eps=1e-06, elementwise_affine=True)
          (attn): Attention(
            (q): Linear(in_features=320, out_features=320, bias=True)
            (kv): Linear(in_features=320, out_features=640, bias=True)
            (attn_drop): Dropout(p=0.0, inplace=False)
            (proj): Linear(in_features=320, out_features=320, bias=True)
            (proj_drop): Dropout(p=0.0, inplace=False)
            (sr): Conv2d(320, 320, kernel_size=(2, 2), stride=(2, 2))
            (norm): LayerNorm((320,), eps=1e-05, elementwise_affine=True)
          )
          (drop_path): DropPath()
          (norm2): LayerNorm((320,), eps=1e-06, elementwise_affine=True)
          (mlp): Mlp(
            (fc1): Linear(in_features=320, out_features=1280, bias=True)
            (dwconv): DWConv(
              (dwconv): Conv2d(1280, 1280, kernel_size=(3, 3), stride=(1, 1), padding=(1, 1), groups=1280)
            )
            (act): GELU()
            (fc2): Linear(in_features=1280, out_features=320, bias=True)
            (drop): Dropout(p=0.0, inplace=False)
          )
        )
        (22): Block(
          (norm1): LayerNorm((320,), eps=1e-06, elementwise_affine=True)
          (attn): Attention(
            (q): Linear(in_features=320, out_features=320, bias=True)
            (kv): Linear(in_features=320, out_features=640, bias=True)
            (attn_drop): Dropout(p=0.0, inplace=False)
            (proj): Linear(in_features=320, out_features=320, bias=True)
            (proj_drop): Dropout(p=0.0, inplace=False)
            (sr): Conv2d(320, 320, kernel_size=(2, 2), stride=(2, 2))
            (norm): LayerNorm((320,), eps=1e-05, elementwise_affine=True)
          )
          (drop_path): DropPath()
          (norm2): LayerNorm((320,), eps=1e-06, elementwise_affine=True)
          (mlp): Mlp(
            (fc1): Linear(in_features=320, out_features=1280, bias=True)
            (dwconv): DWConv(
              (dwconv): Conv2d(1280, 1280, kernel_size=(3, 3), stride=(1, 1), padding=(1, 1), groups=1280)
            )
            (act): GELU()
            (fc2): Linear(in_features=1280, out_features=320, bias=True)
            (drop): Dropout(p=0.0, inplace=False)
          )
        )
        (23): Block(
          (norm1): LayerNorm((320,), eps=1e-06, elementwise_affine=True)
          (attn): Attention(
            (q): Linear(in_features=320, out_features=320, bias=True)
            (kv): Linear(in_features=320, out_features=640, bias=True)
            (attn_drop): Dropout(p=0.0, inplace=False)
            (proj): Linear(in_features=320, out_features=320, bias=True)
            (proj_drop): Dropout(p=0.0, inplace=False)
            (sr): Conv2d(320, 320, kernel_size=(2, 2), stride=(2, 2))
            (norm): LayerNorm((320,), eps=1e-05, elementwise_affine=True)
          )
          (drop_path): DropPath()
          (norm2): LayerNorm((320,), eps=1e-06, elementwise_affine=True)
          (mlp): Mlp(
            (fc1): Linear(in_features=320, out_features=1280, bias=True)
            (dwconv): DWConv(
              (dwconv): Conv2d(1280, 1280, kernel_size=(3, 3), stride=(1, 1), padding=(1, 1), groups=1280)
            )
            (act): GELU()
            (fc2): Linear(in_features=1280, out_features=320, bias=True)
            (drop): Dropout(p=0.0, inplace=False)
          )
        )
        (24): Block(
          (norm1): LayerNorm((320,), eps=1e-06, elementwise_affine=True)
          (attn): Attention(
            (q): Linear(in_features=320, out_features=320, bias=True)
            (kv): Linear(in_features=320, out_features=640, bias=True)
            (attn_drop): Dropout(p=0.0, inplace=False)
            (proj): Linear(in_features=320, out_features=320, bias=True)
            (proj_drop): Dropout(p=0.0, inplace=False)
            (sr): Conv2d(320, 320, kernel_size=(2, 2), stride=(2, 2))
            (norm): LayerNorm((320,), eps=1e-05, elementwise_affine=True)
          )
          (drop_path): DropPath()
          (norm2): LayerNorm((320,), eps=1e-06, elementwise_affine=True)
          (mlp): Mlp(
            (fc1): Linear(in_features=320, out_features=1280, bias=True)
            (dwconv): DWConv(
              (dwconv): Conv2d(1280, 1280, kernel_size=(3, 3), stride=(1, 1), padding=(1, 1), groups=1280)
            )
            (act): GELU()
            (fc2): Linear(in_features=1280, out_features=320, bias=True)
            (drop): Dropout(p=0.0, inplace=False)
          )
        )
        (25): Block(
          (norm1): LayerNorm((320,), eps=1e-06, elementwise_affine=True)
          (attn): Attention(
            (q): Linear(in_features=320, out_features=320, bias=True)
            (kv): Linear(in_features=320, out_features=640, bias=True)
            (attn_drop): Dropout(p=0.0, inplace=False)
            (proj): Linear(in_features=320, out_features=320, bias=True)
            (proj_drop): Dropout(p=0.0, inplace=False)
            (sr): Conv2d(320, 320, kernel_size=(2, 2), stride=(2, 2))
            (norm): LayerNorm((320,), eps=1e-05, elementwise_affine=True)
          )
          (drop_path): DropPath()
          (norm2): LayerNorm((320,), eps=1e-06, elementwise_affine=True)
          (mlp): Mlp(
            (fc1): Linear(in_features=320, out_features=1280, bias=True)
            (dwconv): DWConv(
              (dwconv): Conv2d(1280, 1280, kernel_size=(3, 3), stride=(1, 1), padding=(1, 1), groups=1280)
            )
            (act): GELU()
            (fc2): Linear(in_features=1280, out_features=320, bias=True)
            (drop): Dropout(p=0.0, inplace=False)
          )
        )
        (26): Block(
          (norm1): LayerNorm((320,), eps=1e-06, elementwise_affine=True)
          (attn): Attention(
            (q): Linear(in_features=320, out_features=320, bias=True)
            (kv): Linear(in_features=320, out_features=640, bias=True)
            (attn_drop): Dropout(p=0.0, inplace=False)
            (proj): Linear(in_features=320, out_features=320, bias=True)
            (proj_drop): Dropout(p=0.0, inplace=False)
            (sr): Conv2d(320, 320, kernel_size=(2, 2), stride=(2, 2))
            (norm): LayerNorm((320,), eps=1e-05, elementwise_affine=True)
          )
          (drop_path): DropPath()
          (norm2): LayerNorm((320,), eps=1e-06, elementwise_affine=True)
          (mlp): Mlp(
            (fc1): Linear(in_features=320, out_features=1280, bias=True)
            (dwconv): DWConv(
              (dwconv): Conv2d(1280, 1280, kernel_size=(3, 3), stride=(1, 1), padding=(1, 1), groups=1280)
            )
            (act): GELU()
            (fc2): Linear(in_features=1280, out_features=320, bias=True)
            (drop): Dropout(p=0.0, inplace=False)
          )
        )
        (27): Block(
          (norm1): LayerNorm((320,), eps=1e-06, elementwise_affine=True)
          (attn): Attention(
            (q): Linear(in_features=320, out_features=320, bias=True)
            (kv): Linear(in_features=320, out_features=640, bias=True)
            (attn_drop): Dropout(p=0.0, inplace=False)
            (proj): Linear(in_features=320, out_features=320, bias=True)
            (proj_drop): Dropout(p=0.0, inplace=False)
            (sr): Conv2d(320, 320, kernel_size=(2, 2), stride=(2, 2))
            (norm): LayerNorm((320,), eps=1e-05, elementwise_affine=True)
          )
          (drop_path): DropPath()
          (norm2): LayerNorm((320,), eps=1e-06, elementwise_affine=True)
          (mlp): Mlp(
            (fc1): Linear(in_features=320, out_features=1280, bias=True)
            (dwconv): DWConv(
              (dwconv): Conv2d(1280, 1280, kernel_size=(3, 3), stride=(1, 1), padding=(1, 1), groups=1280)
            )
            (act): GELU()
            (fc2): Linear(in_features=1280, out_features=320, bias=True)
            (drop): Dropout(p=0.0, inplace=False)
          )
        )
        (28): Block(
          (norm1): LayerNorm((320,), eps=1e-06, elementwise_affine=True)
          (attn): Attention(
            (q): Linear(in_features=320, out_features=320, bias=True)
            (kv): Linear(in_features=320, out_features=640, bias=True)
            (attn_drop): Dropout(p=0.0, inplace=False)
            (proj): Linear(in_features=320, out_features=320, bias=True)
            (proj_drop): Dropout(p=0.0, inplace=False)
            (sr): Conv2d(320, 320, kernel_size=(2, 2), stride=(2, 2))
            (norm): LayerNorm((320,), eps=1e-05, elementwise_affine=True)
          )
          (drop_path): DropPath()
          (norm2): LayerNorm((320,), eps=1e-06, elementwise_affine=True)
          (mlp): Mlp(
            (fc1): Linear(in_features=320, out_features=1280, bias=True)
            (dwconv): DWConv(
              (dwconv): Conv2d(1280, 1280, kernel_size=(3, 3), stride=(1, 1), padding=(1, 1), groups=1280)
            )
            (act): GELU()
            (fc2): Linear(in_features=1280, out_features=320, bias=True)
            (drop): Dropout(p=0.0, inplace=False)
          )
        )
        (29): Block(
          (norm1): LayerNorm((320,), eps=1e-06, elementwise_affine=True)
          (attn): Attention(
            (q): Linear(in_features=320, out_features=320, bias=True)
            (kv): Linear(in_features=320, out_features=640, bias=True)
            (attn_drop): Dropout(p=0.0, inplace=False)
            (proj): Linear(in_features=320, out_features=320, bias=True)
            (proj_drop): Dropout(p=0.0, inplace=False)
            (sr): Conv2d(320, 320, kernel_size=(2, 2), stride=(2, 2))
            (norm): LayerNorm((320,), eps=1e-05, elementwise_affine=True)
          )
          (drop_path): DropPath()
          (norm2): LayerNorm((320,), eps=1e-06, elementwise_affine=True)
          (mlp): Mlp(
            (fc1): Linear(in_features=320, out_features=1280, bias=True)
            (dwconv): DWConv(
              (dwconv): Conv2d(1280, 1280, kernel_size=(3, 3), stride=(1, 1), padding=(1, 1), groups=1280)
            )
            (act): GELU()
            (fc2): Linear(in_features=1280, out_features=320, bias=True)
            (drop): Dropout(p=0.0, inplace=False)
          )
        )
        (30): Block(
          (norm1): LayerNorm((320,), eps=1e-06, elementwise_affine=True)
          (attn): Attention(
            (q): Linear(in_features=320, out_features=320, bias=True)
            (kv): Linear(in_features=320, out_features=640, bias=True)
            (attn_drop): Dropout(p=0.0, inplace=False)
            (proj): Linear(in_features=320, out_features=320, bias=True)
            (proj_drop): Dropout(p=0.0, inplace=False)
            (sr): Conv2d(320, 320, kernel_size=(2, 2), stride=(2, 2))
            (norm): LayerNorm((320,), eps=1e-05, elementwise_affine=True)
          )
          (drop_path): DropPath()
          (norm2): LayerNorm((320,), eps=1e-06, elementwise_affine=True)
          (mlp): Mlp(
            (fc1): Linear(in_features=320, out_features=1280, bias=True)
            (dwconv): DWConv(
              (dwconv): Conv2d(1280, 1280, kernel_size=(3, 3), stride=(1, 1), padding=(1, 1), groups=1280)
            )
            (act): GELU()
            (fc2): Linear(in_features=1280, out_features=320, bias=True)
            (drop): Dropout(p=0.0, inplace=False)
          )
        )
        (31): Block(
          (norm1): LayerNorm((320,), eps=1e-06, elementwise_affine=True)
          (attn): Attention(
            (q): Linear(in_features=320, out_features=320, bias=True)
            (kv): Linear(in_features=320, out_features=640, bias=True)
            (attn_drop): Dropout(p=0.0, inplace=False)
            (proj): Linear(in_features=320, out_features=320, bias=True)
            (proj_drop): Dropout(p=0.0, inplace=False)
            (sr): Conv2d(320, 320, kernel_size=(2, 2), stride=(2, 2))
            (norm): LayerNorm((320,), eps=1e-05, elementwise_affine=True)
          )
          (drop_path): DropPath()
          (norm2): LayerNorm((320,), eps=1e-06, elementwise_affine=True)
          (mlp): Mlp(
            (fc1): Linear(in_features=320, out_features=1280, bias=True)
            (dwconv): DWConv(
              (dwconv): Conv2d(1280, 1280, kernel_size=(3, 3), stride=(1, 1), padding=(1, 1), groups=1280)
            )
            (act): GELU()
            (fc2): Linear(in_features=1280, out_features=320, bias=True)
            (drop): Dropout(p=0.0, inplace=False)
          )
        )
        (32): Block(
          (norm1): LayerNorm((320,), eps=1e-06, elementwise_affine=True)
          (attn): Attention(
            (q): Linear(in_features=320, out_features=320, bias=True)
            (kv): Linear(in_features=320, out_features=640, bias=True)
            (attn_drop): Dropout(p=0.0, inplace=False)
            (proj): Linear(in_features=320, out_features=320, bias=True)
            (proj_drop): Dropout(p=0.0, inplace=False)
            (sr): Conv2d(320, 320, kernel_size=(2, 2), stride=(2, 2))
            (norm): LayerNorm((320,), eps=1e-05, elementwise_affine=True)
          )
          (drop_path): DropPath()
          (norm2): LayerNorm((320,), eps=1e-06, elementwise_affine=True)
          (mlp): Mlp(
            (fc1): Linear(in_features=320, out_features=1280, bias=True)
            (dwconv): DWConv(
              (dwconv): Conv2d(1280, 1280, kernel_size=(3, 3), stride=(1, 1), padding=(1, 1), groups=1280)
            )
            (act): GELU()
            (fc2): Linear(in_features=1280, out_features=320, bias=True)
            (drop): Dropout(p=0.0, inplace=False)
          )
        )
        (33): Block(
          (norm1): LayerNorm((320,), eps=1e-06, elementwise_affine=True)
          (attn): Attention(
            (q): Linear(in_features=320, out_features=320, bias=True)
            (kv): Linear(in_features=320, out_features=640, bias=True)
            (attn_drop): Dropout(p=0.0, inplace=False)
            (proj): Linear(in_features=320, out_features=320, bias=True)
            (proj_drop): Dropout(p=0.0, inplace=False)
            (sr): Conv2d(320, 320, kernel_size=(2, 2), stride=(2, 2))
            (norm): LayerNorm((320,), eps=1e-05, elementwise_affine=True)
          )
          (drop_path): DropPath()
          (norm2): LayerNorm((320,), eps=1e-06, elementwise_affine=True)
          (mlp): Mlp(
            (fc1): Linear(in_features=320, out_features=1280, bias=True)
            (dwconv): DWConv(
              (dwconv): Conv2d(1280, 1280, kernel_size=(3, 3), stride=(1, 1), padding=(1, 1), groups=1280)
            )
            (act): GELU()
            (fc2): Linear(in_features=1280, out_features=320, bias=True)
            (drop): Dropout(p=0.0, inplace=False)
          )
        )
        (34): Block(
          (norm1): LayerNorm((320,), eps=1e-06, elementwise_affine=True)
          (attn): Attention(
            (q): Linear(in_features=320, out_features=320, bias=True)
            (kv): Linear(in_features=320, out_features=640, bias=True)
            (attn_drop): Dropout(p=0.0, inplace=False)
            (proj): Linear(in_features=320, out_features=320, bias=True)
            (proj_drop): Dropout(p=0.0, inplace=False)
            (sr): Conv2d(320, 320, kernel_size=(2, 2), stride=(2, 2))
            (norm): LayerNorm((320,), eps=1e-05, elementwise_affine=True)
          )
          (drop_path): DropPath()
          (norm2): LayerNorm((320,), eps=1e-06, elementwise_affine=True)
          (mlp): Mlp(
            (fc1): Linear(in_features=320, out_features=1280, bias=True)
            (dwconv): DWConv(
              (dwconv): Conv2d(1280, 1280, kernel_size=(3, 3), stride=(1, 1), padding=(1, 1), groups=1280)
            )
            (act): GELU()
            (fc2): Linear(in_features=1280, out_features=320, bias=True)
            (drop): Dropout(p=0.0, inplace=False)
          )
        )
        (35): Block(
          (norm1): LayerNorm((320,), eps=1e-06, elementwise_affine=True)
          (attn): Attention(
            (q): Linear(in_features=320, out_features=320, bias=True)
            (kv): Linear(in_features=320, out_features=640, bias=True)
            (attn_drop): Dropout(p=0.0, inplace=False)
            (proj): Linear(in_features=320, out_features=320, bias=True)
            (proj_drop): Dropout(p=0.0, inplace=False)
            (sr): Conv2d(320, 320, kernel_size=(2, 2), stride=(2, 2))
            (norm): LayerNorm((320,), eps=1e-05, elementwise_affine=True)
          )
          (drop_path): DropPath()
          (norm2): LayerNorm((320,), eps=1e-06, elementwise_affine=True)
          (mlp): Mlp(
            (fc1): Linear(in_features=320, out_features=1280, bias=True)
            (dwconv): DWConv(
              (dwconv): Conv2d(1280, 1280, kernel_size=(3, 3), stride=(1, 1), padding=(1, 1), groups=1280)
            )
            (act): GELU()
            (fc2): Linear(in_features=1280, out_features=320, bias=True)
            (drop): Dropout(p=0.0, inplace=False)
          )
        )
        (36): Block(
          (norm1): LayerNorm((320,), eps=1e-06, elementwise_affine=True)
          (attn): Attention(
            (q): Linear(in_features=320, out_features=320, bias=True)
            (kv): Linear(in_features=320, out_features=640, bias=True)
            (attn_drop): Dropout(p=0.0, inplace=False)
            (proj): Linear(in_features=320, out_features=320, bias=True)
            (proj_drop): Dropout(p=0.0, inplace=False)
            (sr): Conv2d(320, 320, kernel_size=(2, 2), stride=(2, 2))
            (norm): LayerNorm((320,), eps=1e-05, elementwise_affine=True)
          )
          (drop_path): DropPath()
          (norm2): LayerNorm((320,), eps=1e-06, elementwise_affine=True)
          (mlp): Mlp(
            (fc1): Linear(in_features=320, out_features=1280, bias=True)
            (dwconv): DWConv(
              (dwconv): Conv2d(1280, 1280, kernel_size=(3, 3), stride=(1, 1), padding=(1, 1), groups=1280)
            )
            (act): GELU()
            (fc2): Linear(in_features=1280, out_features=320, bias=True)
            (drop): Dropout(p=0.0, inplace=False)
          )
        )
        (37): Block(
          (norm1): LayerNorm((320,), eps=1e-06, elementwise_affine=True)
          (attn): Attention(
            (q): Linear(in_features=320, out_features=320, bias=True)
            (kv): Linear(in_features=320, out_features=640, bias=True)
            (attn_drop): Dropout(p=0.0, inplace=False)
            (proj): Linear(in_features=320, out_features=320, bias=True)
            (proj_drop): Dropout(p=0.0, inplace=False)
            (sr): Conv2d(320, 320, kernel_size=(2, 2), stride=(2, 2))
            (norm): LayerNorm((320,), eps=1e-05, elementwise_affine=True)
          )
          (drop_path): DropPath()
          (norm2): LayerNorm((320,), eps=1e-06, elementwise_affine=True)
          (mlp): Mlp(
            (fc1): Linear(in_features=320, out_features=1280, bias=True)
            (dwconv): DWConv(
              (dwconv): Conv2d(1280, 1280, kernel_size=(3, 3), stride=(1, 1), padding=(1, 1), groups=1280)
            )
            (act): GELU()
            (fc2): Linear(in_features=1280, out_features=320, bias=True)
            (drop): Dropout(p=0.0, inplace=False)
          )
        )
        (38): Block(
          (norm1): LayerNorm((320,), eps=1e-06, elementwise_affine=True)
          (attn): Attention(
            (q): Linear(in_features=320, out_features=320, bias=True)
            (kv): Linear(in_features=320, out_features=640, bias=True)
            (attn_drop): Dropout(p=0.0, inplace=False)
            (proj): Linear(in_features=320, out_features=320, bias=True)
            (proj_drop): Dropout(p=0.0, inplace=False)
            (sr): Conv2d(320, 320, kernel_size=(2, 2), stride=(2, 2))
            (norm): LayerNorm((320,), eps=1e-05, elementwise_affine=True)
          )
          (drop_path): DropPath()
          (norm2): LayerNorm((320,), eps=1e-06, elementwise_affine=True)
          (mlp): Mlp(
            (fc1): Linear(in_features=320, out_features=1280, bias=True)
            (dwconv): DWConv(
              (dwconv): Conv2d(1280, 1280, kernel_size=(3, 3), stride=(1, 1), padding=(1, 1), groups=1280)
            )
            (act): GELU()
            (fc2): Linear(in_features=1280, out_features=320, bias=True)
            (drop): Dropout(p=0.0, inplace=False)
          )
        )
        (39): Block(
          (norm1): LayerNorm((320,), eps=1e-06, elementwise_affine=True)
          (attn): Attention(
            (q): Linear(in_features=320, out_features=320, bias=True)
            (kv): Linear(in_features=320, out_features=640, bias=True)
            (attn_drop): Dropout(p=0.0, inplace=False)
            (proj): Linear(in_features=320, out_features=320, bias=True)
            (proj_drop): Dropout(p=0.0, inplace=False)
            (sr): Conv2d(320, 320, kernel_size=(2, 2), stride=(2, 2))
            (norm): LayerNorm((320,), eps=1e-05, elementwise_affine=True)
          )
          (drop_path): DropPath()
          (norm2): LayerNorm((320,), eps=1e-06, elementwise_affine=True)
          (mlp): Mlp(
            (fc1): Linear(in_features=320, out_features=1280, bias=True)
            (dwconv): DWConv(
              (dwconv): Conv2d(1280, 1280, kernel_size=(3, 3), stride=(1, 1), padding=(1, 1), groups=1280)
            )
            (act): GELU()
            (fc2): Linear(in_features=1280, out_features=320, bias=True)
            (drop): Dropout(p=0.0, inplace=False)
          )
        )
      )
      (norm3): LayerNorm((320,), eps=1e-06, elementwise_affine=True)
      (block4): ModuleList(
        (0): Block(
          (norm1): LayerNorm((512,), eps=1e-06, elementwise_affine=True)
          (attn): Attention(
            (q): Linear(in_features=512, out_features=512, bias=True)
            (kv): Linear(in_features=512, out_features=1024, bias=True)
            (attn_drop): Dropout(p=0.0, inplace=False)
            (proj): Linear(in_features=512, out_features=512, bias=True)
            (proj_drop): Dropout(p=0.0, inplace=False)
          )
          (drop_path): DropPath()
          (norm2): LayerNorm((512,), eps=1e-06, elementwise_affine=True)
          (mlp): Mlp(
            (fc1): Linear(in_features=512, out_features=2048, bias=True)
            (dwconv): DWConv(
              (dwconv): Conv2d(2048, 2048, kernel_size=(3, 3), stride=(1, 1), padding=(1, 1), groups=2048)
            )
            (act): GELU()
            (fc2): Linear(in_features=2048, out_features=512, bias=True)
            (drop): Dropout(p=0.0, inplace=False)
          )
        )
        (1): Block(
          (norm1): LayerNorm((512,), eps=1e-06, elementwise_affine=True)
          (attn): Attention(
            (q): Linear(in_features=512, out_features=512, bias=True)
            (kv): Linear(in_features=512, out_features=1024, bias=True)
            (attn_drop): Dropout(p=0.0, inplace=False)
            (proj): Linear(in_features=512, out_features=512, bias=True)
            (proj_drop): Dropout(p=0.0, inplace=False)
          )
          (drop_path): DropPath()
          (norm2): LayerNorm((512,), eps=1e-06, elementwise_affine=True)
          (mlp): Mlp(
            (fc1): Linear(in_features=512, out_features=2048, bias=True)
            (dwconv): DWConv(
              (dwconv): Conv2d(2048, 2048, kernel_size=(3, 3), stride=(1, 1), padding=(1, 1), groups=2048)
            )
            (act): GELU()
            (fc2): Linear(in_features=2048, out_features=512, bias=True)
            (drop): Dropout(p=0.0, inplace=False)
          )
        )
        (2): Block(
          (norm1): LayerNorm((512,), eps=1e-06, elementwise_affine=True)
          (attn): Attention(
            (q): Linear(in_features=512, out_features=512, bias=True)
            (kv): Linear(in_features=512, out_features=1024, bias=True)
            (attn_drop): Dropout(p=0.0, inplace=False)
            (proj): Linear(in_features=512, out_features=512, bias=True)
            (proj_drop): Dropout(p=0.0, inplace=False)
          )
          (drop_path): DropPath()
          (norm2): LayerNorm((512,), eps=1e-06, elementwise_affine=True)
          (mlp): Mlp(
            (fc1): Linear(in_features=512, out_features=2048, bias=True)
            (dwconv): DWConv(
              (dwconv): Conv2d(2048, 2048, kernel_size=(3, 3), stride=(1, 1), padding=(1, 1), groups=2048)
            )
            (act): GELU()
            (fc2): Linear(in_features=2048, out_features=512, bias=True)
            (drop): Dropout(p=0.0, inplace=False)
          )
        )
      )
      (norm4): LayerNorm((512,), eps=1e-06, elementwise_affine=True)
    )
    (neck): LinearCrossDomainAttNeck(
      (uda_blocks): ModuleList(
        (0): UdaAttentionBlock(
          (encoder): SelfSRAttentionBlock(
            (norm1): LayerNorm((64,), eps=1e-05, elementwise_affine=True)
            (attn): SelfSRAttention(
              (q): Linear(in_features=64, out_features=64, bias=True)
              (kv): Linear(in_features=64, out_features=128, bias=True)
              (attn_drop): Dropout(p=0.0, inplace=False)
              (proj): Linear(in_features=64, out_features=64, bias=True)
              (proj_drop): Dropout(p=0.0, inplace=False)
              (sr): Conv2d(64, 64, kernel_size=(8, 8), stride=(8, 8))
              (norm): LayerNorm((64,), eps=1e-05, elementwise_affine=True)
              (out_norm): LayerNorm((64,), eps=1e-05, elementwise_affine=True)
            )
            (drop_path): DropPath()
            (norm2): LayerNorm((64,), eps=1e-05, elementwise_affine=True)
            (mlp): Mlp(
              (fc1): Linear(in_features=64, out_features=256, bias=True)
              (dwconv): DWConv(
                (dwconv): Conv2d(256, 256, kernel_size=(3, 3), stride=(1, 1), padding=(1, 1), groups=256)
              )
              (act): GELU()
              (fc2): Linear(in_features=256, out_features=64, bias=True)
              (drop): Dropout(p=0.0, inplace=False)
            )
          )
          (decoder): SelfSRAttentionBlock(
            (norm1): LayerNorm((64,), eps=1e-05, elementwise_affine=True)
            (attn): SelfSRAttention(
              (q): Linear(in_features=64, out_features=64, bias=True)
              (kv): Linear(in_features=64, out_features=128, bias=True)
              (attn_drop): Dropout(p=0.0, inplace=False)
              (proj): Linear(in_features=64, out_features=64, bias=True)
              (proj_drop): Dropout(p=0.0, inplace=False)
              (sr): Conv2d(64, 64, kernel_size=(8, 8), stride=(8, 8))
              (norm): LayerNorm((64,), eps=1e-05, elementwise_affine=True)
              (out_norm): LayerNorm((64,), eps=1e-05, elementwise_affine=True)
            )
            (drop_path): DropPath()
            (norm2): LayerNorm((64,), eps=1e-05, elementwise_affine=True)
            (mlp): Mlp(
              (fc1): Linear(in_features=64, out_features=256, bias=True)
              (dwconv): DWConv(
                (dwconv): Conv2d(256, 256, kernel_size=(3, 3), stride=(1, 1), padding=(1, 1), groups=256)
              )
              (act): GELU()
              (fc2): Linear(in_features=256, out_features=64, bias=True)
              (drop): Dropout(p=0.0, inplace=False)
            )
          )
          (mix_att): SelfSRAttentionBlock(
            (norm1): LayerNorm((64,), eps=1e-05, elementwise_affine=True)
            (attn): SelfSRAttention(
              (q): Linear(in_features=64, out_features=64, bias=True)
              (kv): Linear(in_features=64, out_features=128, bias=True)
              (attn_drop): Dropout(p=0.0, inplace=False)
              (proj): Linear(in_features=64, out_features=64, bias=True)
              (proj_drop): Dropout(p=0.0, inplace=False)
              (sr): Conv2d(64, 64, kernel_size=(8, 8), stride=(8, 8))
              (norm): LayerNorm((64,), eps=1e-05, elementwise_affine=True)
              (out_norm): LayerNorm((64,), eps=1e-05, elementwise_affine=True)
            )
            (drop_path): DropPath()
            (norm2): LayerNorm((64,), eps=1e-05, elementwise_affine=True)
            (mlp): Mlp(
              (fc1): Linear(in_features=64, out_features=256, bias=True)
              (dwconv): DWConv(
                (dwconv): Conv2d(256, 256, kernel_size=(3, 3), stride=(1, 1), padding=(1, 1), groups=256)
              )
              (act): GELU()
              (fc2): Linear(in_features=256, out_features=64, bias=True)
              (drop): Dropout(p=0.0, inplace=False)
            )
          )
          (out_norm): BatchNorm2d(64, eps=1e-05, momentum=0.1, affine=True, track_running_stats=True)
          (drop_path): DropPath()
        )
        (1): UdaAttentionBlock(
          (encoder): SelfSRAttentionBlock(
            (norm1): LayerNorm((128,), eps=1e-05, elementwise_affine=True)
            (attn): SelfSRAttention(
              (q): Linear(in_features=128, out_features=128, bias=True)
              (kv): Linear(in_features=128, out_features=256, bias=True)
              (attn_drop): Dropout(p=0.0, inplace=False)
              (proj): Linear(in_features=128, out_features=128, bias=True)
              (proj_drop): Dropout(p=0.0, inplace=False)
              (sr): Conv2d(128, 128, kernel_size=(4, 4), stride=(4, 4))
              (norm): LayerNorm((128,), eps=1e-05, elementwise_affine=True)
              (out_norm): LayerNorm((128,), eps=1e-05, elementwise_affine=True)
            )
            (drop_path): DropPath()
            (norm2): LayerNorm((128,), eps=1e-05, elementwise_affine=True)
            (mlp): Mlp(
              (fc1): Linear(in_features=128, out_features=512, bias=True)
              (dwconv): DWConv(
                (dwconv): Conv2d(512, 512, kernel_size=(3, 3), stride=(1, 1), padding=(1, 1), groups=512)
              )
              (act): GELU()
              (fc2): Linear(in_features=512, out_features=128, bias=True)
              (drop): Dropout(p=0.0, inplace=False)
            )
          )
          (decoder): SelfSRAttentionBlock(
            (norm1): LayerNorm((128,), eps=1e-05, elementwise_affine=True)
            (attn): SelfSRAttention(
              (q): Linear(in_features=128, out_features=128, bias=True)
              (kv): Linear(in_features=128, out_features=256, bias=True)
              (attn_drop): Dropout(p=0.0, inplace=False)
              (proj): Linear(in_features=128, out_features=128, bias=True)
              (proj_drop): Dropout(p=0.0, inplace=False)
              (sr): Conv2d(128, 128, kernel_size=(4, 4), stride=(4, 4))
              (norm): LayerNorm((128,), eps=1e-05, elementwise_affine=True)
              (out_norm): LayerNorm((128,), eps=1e-05, elementwise_affine=True)
            )
            (drop_path): DropPath()
            (norm2): LayerNorm((128,), eps=1e-05, elementwise_affine=True)
            (mlp): Mlp(
              (fc1): Linear(in_features=128, out_features=512, bias=True)
              (dwconv): DWConv(
                (dwconv): Conv2d(512, 512, kernel_size=(3, 3), stride=(1, 1), padding=(1, 1), groups=512)
              )
              (act): GELU()
              (fc2): Linear(in_features=512, out_features=128, bias=True)
              (drop): Dropout(p=0.0, inplace=False)
            )
          )
          (mix_att): SelfSRAttentionBlock(
            (norm1): LayerNorm((128,), eps=1e-05, elementwise_affine=True)
            (attn): SelfSRAttention(
              (q): Linear(in_features=128, out_features=128, bias=True)
              (kv): Linear(in_features=128, out_features=256, bias=True)
              (attn_drop): Dropout(p=0.0, inplace=False)
              (proj): Linear(in_features=128, out_features=128, bias=True)
              (proj_drop): Dropout(p=0.0, inplace=False)
              (sr): Conv2d(128, 128, kernel_size=(4, 4), stride=(4, 4))
              (norm): LayerNorm((128,), eps=1e-05, elementwise_affine=True)
              (out_norm): LayerNorm((128,), eps=1e-05, elementwise_affine=True)
            )
            (drop_path): DropPath()
            (norm2): LayerNorm((128,), eps=1e-05, elementwise_affine=True)
            (mlp): Mlp(
              (fc1): Linear(in_features=128, out_features=512, bias=True)
              (dwconv): DWConv(
                (dwconv): Conv2d(512, 512, kernel_size=(3, 3), stride=(1, 1), padding=(1, 1), groups=512)
              )
              (act): GELU()
              (fc2): Linear(in_features=512, out_features=128, bias=True)
              (drop): Dropout(p=0.0, inplace=False)
            )
          )
          (out_norm): BatchNorm2d(128, eps=1e-05, momentum=0.1, affine=True, track_running_stats=True)
          (drop_path): DropPath()
        )
        (2): UdaAttentionBlock(
          (encoder): SelfSRAttentionBlock(
            (norm1): LayerNorm((320,), eps=1e-05, elementwise_affine=True)
            (attn): SelfSRAttention(
              (q): Linear(in_features=320, out_features=320, bias=True)
              (kv): Linear(in_features=320, out_features=640, bias=True)
              (attn_drop): Dropout(p=0.0, inplace=False)
              (proj): Linear(in_features=320, out_features=320, bias=True)
              (proj_drop): Dropout(p=0.0, inplace=False)
              (sr): Conv2d(320, 320, kernel_size=(2, 2), stride=(2, 2))
              (norm): LayerNorm((320,), eps=1e-05, elementwise_affine=True)
              (out_norm): LayerNorm((320,), eps=1e-05, elementwise_affine=True)
            )
            (drop_path): DropPath()
            (norm2): LayerNorm((320,), eps=1e-05, elementwise_affine=True)
            (mlp): Mlp(
              (fc1): Linear(in_features=320, out_features=1280, bias=True)
              (dwconv): DWConv(
                (dwconv): Conv2d(1280, 1280, kernel_size=(3, 3), stride=(1, 1), padding=(1, 1), groups=1280)
              )
              (act): GELU()
              (fc2): Linear(in_features=1280, out_features=320, bias=True)
              (drop): Dropout(p=0.0, inplace=False)
            )
          )
          (decoder): SelfSRAttentionBlock(
            (norm1): LayerNorm((320,), eps=1e-05, elementwise_affine=True)
            (attn): SelfSRAttention(
              (q): Linear(in_features=320, out_features=320, bias=True)
              (kv): Linear(in_features=320, out_features=640, bias=True)
              (attn_drop): Dropout(p=0.0, inplace=False)
              (proj): Linear(in_features=320, out_features=320, bias=True)
              (proj_drop): Dropout(p=0.0, inplace=False)
              (sr): Conv2d(320, 320, kernel_size=(2, 2), stride=(2, 2))
              (norm): LayerNorm((320,), eps=1e-05, elementwise_affine=True)
              (out_norm): LayerNorm((320,), eps=1e-05, elementwise_affine=True)
            )
            (drop_path): DropPath()
            (norm2): LayerNorm((320,), eps=1e-05, elementwise_affine=True)
            (mlp): Mlp(
              (fc1): Linear(in_features=320, out_features=1280, bias=True)
              (dwconv): DWConv(
                (dwconv): Conv2d(1280, 1280, kernel_size=(3, 3), stride=(1, 1), padding=(1, 1), groups=1280)
              )
              (act): GELU()
              (fc2): Linear(in_features=1280, out_features=320, bias=True)
              (drop): Dropout(p=0.0, inplace=False)
            )
          )
          (mix_att): SelfSRAttentionBlock(
            (norm1): LayerNorm((320,), eps=1e-05, elementwise_affine=True)
            (attn): SelfSRAttention(
              (q): Linear(in_features=320, out_features=320, bias=True)
              (kv): Linear(in_features=320, out_features=640, bias=True)
              (attn_drop): Dropout(p=0.0, inplace=False)
              (proj): Linear(in_features=320, out_features=320, bias=True)
              (proj_drop): Dropout(p=0.0, inplace=False)
              (sr): Conv2d(320, 320, kernel_size=(2, 2), stride=(2, 2))
              (norm): LayerNorm((320,), eps=1e-05, elementwise_affine=True)
              (out_norm): LayerNorm((320,), eps=1e-05, elementwise_affine=True)
            )
            (drop_path): DropPath()
            (norm2): LayerNorm((320,), eps=1e-05, elementwise_affine=True)
            (mlp): Mlp(
              (fc1): Linear(in_features=320, out_features=1280, bias=True)
              (dwconv): DWConv(
                (dwconv): Conv2d(1280, 1280, kernel_size=(3, 3), stride=(1, 1), padding=(1, 1), groups=1280)
              )
              (act): GELU()
              (fc2): Linear(in_features=1280, out_features=320, bias=True)
              (drop): Dropout(p=0.0, inplace=False)
            )
          )
          (out_norm): BatchNorm2d(320, eps=1e-05, momentum=0.1, affine=True, track_running_stats=True)
          (drop_path): DropPath()
        )
        (3): UdaAttentionBlock(
          (encoder): SelfSRAttentionBlock(
            (norm1): LayerNorm((512,), eps=1e-05, elementwise_affine=True)
            (attn): SelfSRAttention(
              (q): Linear(in_features=512, out_features=512, bias=True)
              (kv): Linear(in_features=512, out_features=1024, bias=True)
              (attn_drop): Dropout(p=0.0, inplace=False)
              (proj): Linear(in_features=512, out_features=512, bias=True)
              (proj_drop): Dropout(p=0.0, inplace=False)
              (out_norm): LayerNorm((512,), eps=1e-05, elementwise_affine=True)
            )
            (drop_path): DropPath()
            (norm2): LayerNorm((512,), eps=1e-05, elementwise_affine=True)
            (mlp): Mlp(
              (fc1): Linear(in_features=512, out_features=2048, bias=True)
              (dwconv): DWConv(
                (dwconv): Conv2d(2048, 2048, kernel_size=(3, 3), stride=(1, 1), padding=(1, 1), groups=2048)
              )
              (act): GELU()
              (fc2): Linear(in_features=2048, out_features=512, bias=True)
              (drop): Dropout(p=0.0, inplace=False)
            )
          )
          (decoder): SelfSRAttentionBlock(
            (norm1): LayerNorm((512,), eps=1e-05, elementwise_affine=True)
            (attn): SelfSRAttention(
              (q): Linear(in_features=512, out_features=512, bias=True)
              (kv): Linear(in_features=512, out_features=1024, bias=True)
              (attn_drop): Dropout(p=0.0, inplace=False)
              (proj): Linear(in_features=512, out_features=512, bias=True)
              (proj_drop): Dropout(p=0.0, inplace=False)
              (out_norm): LayerNorm((512,), eps=1e-05, elementwise_affine=True)
            )
            (drop_path): DropPath()
            (norm2): LayerNorm((512,), eps=1e-05, elementwise_affine=True)
            (mlp): Mlp(
              (fc1): Linear(in_features=512, out_features=2048, bias=True)
              (dwconv): DWConv(
                (dwconv): Conv2d(2048, 2048, kernel_size=(3, 3), stride=(1, 1), padding=(1, 1), groups=2048)
              )
              (act): GELU()
              (fc2): Linear(in_features=2048, out_features=512, bias=True)
              (drop): Dropout(p=0.0, inplace=False)
            )
          )
          (mix_att): SelfSRAttentionBlock(
            (norm1): LayerNorm((512,), eps=1e-05, elementwise_affine=True)
            (attn): SelfSRAttention(
              (q): Linear(in_features=512, out_features=512, bias=True)
              (kv): Linear(in_features=512, out_features=1024, bias=True)
              (attn_drop): Dropout(p=0.0, inplace=False)
              (proj): Linear(in_features=512, out_features=512, bias=True)
              (proj_drop): Dropout(p=0.0, inplace=False)
              (out_norm): LayerNorm((512,), eps=1e-05, elementwise_affine=True)
            )
            (drop_path): DropPath()
            (norm2): LayerNorm((512,), eps=1e-05, elementwise_affine=True)
            (mlp): Mlp(
              (fc1): Linear(in_features=512, out_features=2048, bias=True)
              (dwconv): DWConv(
                (dwconv): Conv2d(2048, 2048, kernel_size=(3, 3), stride=(1, 1), padding=(1, 1), groups=2048)
              )
              (act): GELU()
              (fc2): Linear(in_features=2048, out_features=512, bias=True)
              (drop): Dropout(p=0.0, inplace=False)
            )
          )
          (out_norm): BatchNorm2d(512, eps=1e-05, momentum=0.1, affine=True, track_running_stats=True)
          (drop_path): DropPath()
        )
      )
    )
    (decode_head): DAFormerHead(
      input_transform=multiple_select, ignore_index=255, align_corners=False
      (loss_decode): CrossEntropyLoss()
      (conv_seg): Conv2d(256, 19, kernel_size=(1, 1), stride=(1, 1))
      (dropout): Dropout2d(p=0.1, inplace=False)
      (embed_layers): ModuleDict(
        (0): MLP(
          (proj): Linear(in_features=64, out_features=256, bias=True)
        )
        (1): MLP(
          (proj): Linear(in_features=128, out_features=256, bias=True)
        )
        (2): MLP(
          (proj): Linear(in_features=320, out_features=256, bias=True)
        )
        (3): MLP(
          (proj): Linear(in_features=512, out_features=256, bias=True)
        )
      )
      (fuse_layer): ASPPWrapper(
        (aspp_modules): DepthwiseSeparableASPPModule(
          (0): ConvModule(
            (conv): Conv2d(1024, 256, kernel_size=(1, 1), stride=(1, 1), bias=False)
            (bn): BatchNorm2d(256, eps=1e-05, momentum=0.1, affine=True, track_running_stats=True)
            (activate): ReLU(inplace=True)
          )
          (1): DepthwiseSeparableConvModule(
            (depthwise_conv): ConvModule(
              (conv): Conv2d(1024, 1024, kernel_size=(3, 3), stride=(1, 1), padding=(6, 6), dilation=(6, 6), groups=1024, bias=False)
              (bn): BatchNorm2d(1024, eps=1e-05, momentum=0.1, affine=True, track_running_stats=True)
              (activate): ReLU(inplace=True)
            )
            (pointwise_conv): ConvModule(
              (conv): Conv2d(1024, 256, kernel_size=(1, 1), stride=(1, 1), bias=False)
              (bn): BatchNorm2d(256, eps=1e-05, momentum=0.1, affine=True, track_running_stats=True)
              (activate): ReLU(inplace=True)
            )
          )
          (2): DepthwiseSeparableConvModule(
            (depthwise_conv): ConvModule(
              (conv): Conv2d(1024, 1024, kernel_size=(3, 3), stride=(1, 1), padding=(12, 12), dilation=(12, 12), groups=1024, bias=False)
              (bn): BatchNorm2d(1024, eps=1e-05, momentum=0.1, affine=True, track_running_stats=True)
              (activate): ReLU(inplace=True)
            )
            (pointwise_conv): ConvModule(
              (conv): Conv2d(1024, 256, kernel_size=(1, 1), stride=(1, 1), bias=False)
              (bn): BatchNorm2d(256, eps=1e-05, momentum=0.1, affine=True, track_running_stats=True)
              (activate): ReLU(inplace=True)
            )
          )
          (3): DepthwiseSeparableConvModule(
            (depthwise_conv): ConvModule(
              (conv): Conv2d(1024, 1024, kernel_size=(3, 3), stride=(1, 1), padding=(18, 18), dilation=(18, 18), groups=1024, bias=False)
              (bn): BatchNorm2d(1024, eps=1e-05, momentum=0.1, affine=True, track_running_stats=True)
              (activate): ReLU(inplace=True)
            )
            (pointwise_conv): ConvModule(
              (conv): Conv2d(1024, 256, kernel_size=(1, 1), stride=(1, 1), bias=False)
              (bn): BatchNorm2d(256, eps=1e-05, momentum=0.1, affine=True, track_running_stats=True)
              (activate): ReLU(inplace=True)
            )
          )
        )
        (bottleneck): ConvModule(
          (conv): Conv2d(1024, 256, kernel_size=(3, 3), stride=(1, 1), padding=(1, 1), bias=False)
          (bn): BatchNorm2d(256, eps=1e-05, momentum=0.1, affine=True, track_running_stats=True)
          (activate): ReLU(inplace=True)
        )
      )
    )
    init_cfg={'type': 'Normal', 'std': 0.01, 'override': {'name': 'conv_seg'}}
  )
)
2026-04-30 01:32:55,250 - mmseg - INFO - Loaded 24966 images from /home/ubuntu/thien/dataset/gta/images
2026-04-30 01:32:55,282 - mmseg - INFO - Loaded 2975 images from /home/ubuntu/thien/dataset/cityscapes/leftImg8bit/train
…
